model/imitator.pt (torch, 19399 bytes, 14 tensors)

weight f4 [32, 8]
000000 a4 26 ad 3d b9 aa 83 3e b4 16 80 3e c8 56 4d be
       0.08454636 0.2571619 0.2501732 -0.20052636
000010 aa 85 20 3e a5 cf 73 be 29 e4 40 be 26 b2 81 3d
       0.15675989 -0.23809679 -0.18837036 0.06332807
000020 32 25 f6 3d ab 48 98 3e 95 cc eb bd 5a b4 69 3d
       0.12018813 0.2974294 -0.1151363 0.057056762
000030 04 15 62 3e 7a ef a0 be b6 40 3f 3e 8e 9c ac be
       0.2207833 -0.31432706 0.18677029 -0.33713192
000040 10 3b aa bb 01 e0 71 bd 93 07 1b be 72 ca 9a 3d
       -0.005195029 -0.059051517 -0.15139608 0.07558145
000050 91 91 a8 3e 75 ec 3e be f3 9a 63 bd 22 33 98 3c
       0.32923558 -0.18644889 -0.055567693 0.01857907
000060 8b 89 a0 be cc cb f9 3d 50 86 2c be 6e a9 84 be
       -0.31354937 0.12197074 -0.16848111 -0.25910515
000070 c7 b8 3a be 1f 07 31 3e 6a 1f 70 3e 8c d0 8d 3e
       -0.1823455 0.17287873 0.23449484 0.2769817
000080 1b bd 5b 3e ad bc dc bc c2 34 0b be d1 53 ad 3d
       0.21458857 -0.026945436 -0.13594344 0.08463252
000090 53 fa 1c 3e b8 0d 2a 3d 5b 04 56 be c2 a8 51 be
       0.15329866 0.04151699 -0.20900099 -0.20474532
0000a0 0f 6c 02 bf 6f ac e4 3d 5a 05 aa bd b1 75 8f be
       -0.50946134 0.111657016 -0.08301802 -0.2801948
0000b0 cf e2 7f 3e 1d ba 7c be 9c 35 a8 bd 91 a5 70 3d
       0.24988864 -0.24680372 -0.0821335 0.058751646
0000c0 3c 17 f6 3b a4 79 01 be a7 a9 b0 be eb dd 73 3e
       0.007510094 -0.12644058 -0.34504434 0.23815124
0000d0 20 16 fa bd 8a 50 1f 3e 5d 5e 12 be c9 c8 fd 3d
       -0.12211251 0.15558067 -0.14293809 0.12391812
0000e0 2c e3 ae bd fa 8d 1b 3d 34 96 75 be ef 08 0b 3e
       -0.08539423 0.037977196 -0.23983079 0.13577627
0000f0 06 f7 b1 3d 10 d9 bb bd 21 0b 4b 3d c5 fb 81 bd
       0.08689694 -0.09172261 0.04957116 -0.06346849
000100 24 7f 99 3e 1c ff 71 be a0 ce 3a 3e 29 b3 06 be
       0.29979813 -0.23632473 0.18242884 -0.13154282
000110 b2 8f 91 bd 68 23 e1 3d c5 5b d2 bd 26 1d 05 3e
       -0.07107486 0.10993081 -0.1027141 0.129994
000120 99 42 d0 3d a2 a8 57 be 3d f3 20 3e 79 96 81 3e
       0.101689525 -0.21060422 0.15717788 0.25310114
000130 2d 91 dc 3d 40 63 7d bc 18 a9 3b be ce 30 ed 3c
       0.107698776 -0.015465558 -0.18326223 0.028953936
000140 60 27 f0 3d ce 45 b0 bd 3c 77 b6 3d 9c 81 82 3e
       0.1172626 -0.08607064 0.08909461 0.2548951
000150 8f b9 54 be 32 fd 14 3d a5 a6 e1 3d 7a 4a d6 3c
       -0.2077391 0.03637428 0.11018113 0.02615856
000160 1e 1b 3e 3a 9d 35 4d 3d 36 d4 65 be cc 7d 51 3d
       0.00072519656 0.050099958 -0.22444233 0.05114536
000170 b0 16 52 3e 70 0e ac 3e 25 e5 7d 3e eb 36 af 3d
       0.20516467 0.33604765 0.24794443 0.08555397
000180 79 06 01 3e 7d 9a 1a be b5 52 94 be bc 3e 95 be
       0.12600125 -0.15097995 -0.2896935 -0.29149425
000190 db 56 c2 3e 0e 3f 61 3e fe 4c 7a be 80 9d 10 3e
       0.3795689 0.2199671 -0.24443433 0.14122581
0001a0 f0 8f ba 3e 61 da 91 3e 31 71 9f 3e 94 2c 7b 3e
       0.3643794 0.28486922 0.31141046 0.24528724
0001b0 2f d1 41 bd 74 af 2b be 5b e4 91 3e 6a 99 cb 3d
       -0.047318634 -0.16766149 0.28494534 0.09941371
0001c0 38 02 7d be 4e 61 83 3e 93 84 1a 3e 46 c7 0b 3e
       -0.24707878 0.25660175 0.15089636 0.13650236
0001d0 8d e6 5f be b7 b7 f5 3d 1a 01 20 be 8d df 88 3e
       -0.21865292 0.119979315 -0.1562542 0.26733056
0001e0 16 cf df bd 84 60 53 3d 39 11 6c bc 06 b4 e8 3d
       -0.109281704 0.051605716 -0.014408403 0.11362462
0001f0 f7 12 25 be 11 e5 12 3e fc 55 7e be c6 2f 89 3d
       -0.16120516 0.14345194 -0.24837488 0.06698565
000200 52 64 63 be 8b cb f2 be eb c0 8c be 72 69 3d 3e
       -0.22206238 -0.47420916 -0.27490935 0.18497255
000210 b9 fa 36 3e d2 92 8b 3e d1 0e 87 3e e3 fc bd be
       0.1786908 0.27260453 0.26378492 -0.37107
000220 20 2f ed be ca bd 78 bd 3e 81 5b be d7 78 8d 3e
       -0.46325016 -0.060727872 -0.2143602 0.27631256
000230 9c 60 5b be ec e2 db bd 0c ca 2d be db a5 c4 bc
       -0.21423572 -0.10736641 -0.16971606 -0.024004867
000240 18 50 bb 3e c0 fc 2a 3e 2d 90 b7 3e 0f 51 56 3e
       0.36584544 0.16697979 0.35852185 0.20929359
000250 23 ee d1 3e 47 f0 71 bd 05 a8 87 3d 0a 6b 1e 3e
       0.41001996 -0.059067037 0.06623844 0.1547052
000260 e4 78 f0 3d af 46 6d 3e b7 22 79 3d 4d 36 0c 3e
       0.11741808 0.23171495 0.060824122 0.13692589
000270 04 ac 77 be 03 e4 41 3e 51 1c 48 3d fc 30 35 bd
       -0.24186713 0.18934636 0.04885513 -0.04423617
000280 0d 5b 7a be 64 f9 8a be 09 4e 6d be 81 98 8a 3e
       -0.24448796 -0.27143395 -0.231743 0.27069476
000290 59 ea bf 3e 24 cf 3c 3d a1 99 3c be f8 c8 6e 3e
       0.3748348 0.046095982 -0.1841798 0.23318851
0002a0 aa 69 06 3e 50 f8 03 3e 4f 62 27 be b4 0a ce 3e
       0.13126245 0.12887692 -0.16346096 0.4024254
0002b0 3d 9b 47 3e 1b 9b 62 be 91 b9 5c 3e 14 bd 81 3e
       0.19492812 -0.2212948 0.21555163 0.25339568
0002c0 c5 dc 26 be 3b c4 c4 3d 25 e9 3b be 1c 35 36 bd
       -0.16295154 0.096077405 -0.18350656 -0.044484243
0002d0 e8 42 b3 3e 48 94 b5 3c 31 b5 36 be 04 09 6a bd
       0.35011983 0.022165433 -0.17842557 -0.057137504
0002e0 6e eb 7f bd f9 8a 24 be ed 67 d5 bd d2 3d b1 3e
       -0.062480383 -0.16068639 -0.10420213 0.34617478
0002f0 0e d1 04 3d 78 21 58 be 9b 00 7a bd 84 ef cc 3d
       0.032425933 -0.21106517 -0.061035734 0.100066215
000300 28 08 5a 3e b5 dd 09 be de 81 11 bc bf e2 82 be
       0.21292174 -0.13463481 -0.00888106 -0.2556362
000310 64 0b f7 bd b3 f9 27 3e a2 16 9e be a1 41 90 3d
       -0.120627195 0.16403846 -0.30876642 0.07043768
000320 44 5f 71 3e 68 42 41 3e 70 d0 52 be c1 7e b0 bd
       0.23571497 0.18872988 -0.20587325 -0.086179264
000330 87 d8 7d 3d cb 6d a1 be ff ec 00 3e eb df ba be
       0.061974075 -0.31529078 0.12590407 -0.3649896
000340 62 81 a8 be 20 23 8f be 87 2e 85 bd 69 d7 83 3e
       -0.3291121 -0.27956486 -0.06503015 0.25750282
000350 a0 f1 8e be 3b a4 a3 3e c6 e4 1d be 95 ec 0e 3e
       -0.2791872 0.31961235 -0.15419301 0.13957436
000360 94 bb 33 3d 0f 91 00 bf 4e f0 b0 3e 7f 00 1b 3e
       0.04388006 -0.5022134 0.34558338 0.15136908
000370 20 fe dc 3e 5a e4 63 3e d6 36 57 be 32 6b 82 3e
       0.43162632 0.22255078 -0.21017012 0.2547241
000380 1f bf da 3d b8 6d 2e 3e 77 46 6c be 79 47 8a 3b
       0.10680985 0.17034042 -0.23073755 0.004219946
000390 50 bb b3 be db 2e 5a be 01 fb 0e 3d a6 8f a0 be
       -0.35103846 -0.21306936 0.034907345 -0.31359595
0003a0 c8 78 33 3e 98 cf 83 3e b0 af 56 3d ff 1a 70 be
       0.17526543 0.2574432 0.052413642 -0.23447798
0003b0 23 12 82 be ce b1 a4 bd a9 7c 0e 3e d9 9e b8 3e
       -0.25404462 -0.08041726 0.13914742 0.3605869
0003c0 5c 81 10 3e fe 79 98 3d 27 39 3d 3e 1c 4e b9 be
       0.14111847 0.07445143 0.18478833 -0.36192405
0003d0 a0 44 4f be cc 2f 4f 3e c0 23 79 be 6f 5a 08 3e
       -0.20241022 0.20233077 -0.24330044 0.13315748
0003e0 d6 fd 2a be cc 9e e9 bd ad 37 a0 be 46 6a 69 3e
       -0.16698393 -0.11407241 -0.31292477 0.22794446
0003f0 c2 71 8e bc 38 b7 a3 3e 45 e5 4d 3e 13 40 13 3e
       -0.017388228 0.31975722 0.2010699 0.14379911

bias f4 [32]
000000 97 6e 38 3c e9 90 e0 bd 40 79 9e bd fd 70 40 3d
       0.011256835 -0.109651394 -0.0773797 0.046982754
000010 12 63 33 3e 50 98 7d be 51 e6 97 3e 24 4d 1c bd
       0.17518261 -0.24765134 0.29667905 -0.038159505
000020 36 a2 97 be ef ef 43 be 42 2a a0 3e ee 8c a5 3e
       -0.29615945 -0.19134496 0.3128224 0.32334083
000030 c6 a2 a7 be 32 48 7f 3e 45 9c 35 3e 13 93 56 3e
       -0.32741374 0.24929884 0.17735393 0.20954542
000040 55 46 99 3e a7 c8 42 be 12 aa e4 3d 86 99 13 3e
       0.29936472 -0.19021855 0.11165251 0.14414033
000050 57 2c d6 bd 55 38 f2 3d aa 6e d0 bd 31 8f 60 3e
       -0.10457676 0.11827151 -0.101773575 0.21929623
000060 f1 ef c8 bd 2a e6 06 be a7 a4 b6 3d d9 ac 00 3e
       -0.0981139 -0.13173738 0.08918124 0.12565936
000070 11 f0 30 be 0e a9 ff 3c 96 05 52 3e 52 fe 0f bd
       -0.17279078 0.031208541 0.20509943 -0.035154648

weight f4 [32]
000000 32 38 7c 3f 32 42 81 3f 41 05 8a 3f 7b 97 66 3f
       0.9852325 1.0098326 1.0782853 0.9007489
000010 c2 4c 7b 3f 27 93 7d 3f eb 59 82 3f 11 91 89 3f
       0.98164 0.9905266 1.0183691 1.0747396
000020 0d 82 83 3f d5 16 82 3f 13 1b 7f 3f da c3 73 3f
       1.0274063 1.0163218 0.99650687 0.9522072
000030 bc 26 78 3f 6a 4e 7c 3f 7b 4c 81 3f 50 d2 80 3f
       0.96934104 0.9855715 1.0101465 1.0064182
000040 d1 85 89 3f 28 a8 81 3f b0 76 84 3f a7 63 82 3f
       1.0743963 1.0129442 1.034872 1.0186661
000050 68 b5 78 3f e2 77 6e 3f 2f d0 72 3f 4e c4 8b 3f
       0.97151804 0.93151677 0.9484891 1.0919282
000060 5d 01 69 3f 2d e3 75 3f 4a 02 81 3f 86 63 88 3f
       0.91017705 0.9604977 1.0078824 1.0655372
000070 1d 6f 7b 3f 30 23 82 3f bf 48 76 3f 89 83 73 3f
       0.9821642 1.0166988 0.9620475 0.9512258

bias f4 [32]
000000 ea 99 a1 3c b2 96 03 bd 32 36 96 3c e6 f8 12 bd
       0.019726712 -0.032126136 0.01833639 -0.0358819
000010 29 af 99 3c 7a d6 a4 bc 5c f6 ab 3d 65 c1 12 bd
       0.01876028 -0.020121802 0.08396599 -0.035828967
000020 31 cb 4a 3c 1b a1 ba 3b a5 8c 31 3c bc 12 94 bd
       0.012377546 0.005695475 0.010836755 -0.07230136
000030 4e 1d 7e bd 5f 25 14 bd 94 ad 52 3d 64 95 59 bc
       -0.062039666 -0.036168452 0.05143507 -0.013280246
000040 1e ca b8 bc 07 f1 b5 bd 02 5b 69 bb 04 c8 86 bd
       -0.022557314 -0.08883863 -0.0035607223 -0.06581119
000050 ef a2 88 3b f9 46 31 3c d4 5b 63 bd f4 88 03 3d
       0.004169814 0.010820144 -0.055507496 0.03211303
000060 98 6e 83 3c 40 1c b5 3d ee 23 02 3e 07 a6 24 3c
       0.016043946 0.08843279 0.12709019 0.01004935
000070 7e 25 ce 39 28 dc 5d bb f0 94 24 bd 23 ec e7 bc
       0.00039319316 -0.0033853147 -0.0401811 -0.028310841

running_mean f4 [32]
000000 da f4 be 41 a2 a3 26 42 b7 5d 93 3f 63 b9 6b c2
       23.869556 41.659798 1.1512975 -58.93104
000010 ec 43 29 42 6b c2 bc c1 b6 50 cd 3e c8 bf c3 40
       42.31633 -23.59493 0.4010064 6.117161
000020 3f 47 8a c1 0e 17 82 41 05 12 b6 3f d6 67 88 c1
       -17.284788 16.261257 1.4224249 -17.050701
000030 58 14 8e c1 62 74 b0 41 ee 82 4e 41 4e f2 a7 41
       -17.759933 22.056828 12.906965 20.993313
000040 fe 7d bd c1 37 13 b6 40 50 4a e5 41 0c 30 f7 41
       -23.68652 5.6898456 28.661285 30.89846
000050 5c ac 8f c1 55 31 d1 bf e3 50 98 41 53 80 4b bf
       -17.95916 -1.634318 19.039495 -0.7949268
000060 9f 44 a7 bf d6 8b ff 41 06 56 8c c1 fe 6f b7 c1
       -1.3067816 31.94328 -17.542004 -22.929684
000070 ca 21 fa 41 c4 c4 f2 c1 66 c5 b2 be 3e 13 f1 c1
       31.266499 -30.346077 -0.34916228 -30.134396

running_var f4 [32]
000000 69 b0 7a 43 46 de b1 42 2b 12 d1 42 d4 08 29 44
       250.6891 88.93413 104.535484 676.13794
000010 c5 13 bb 43 a1 09 e3 43 8e b0 e0 42 aa a7 08 42
       374.15445 454.07523 112.34483 34.163734
000020 2e 7d 0f 42 5e 0f be 43 12 c8 5e 43 e6 b6 a5 44
       35.872246 380.12006 222.78152 1325.7156
000030 f2 f8 07 44 2f 68 65 44 45 ba 6a 43 c8 ee a5 42
       543.8898 917.62787 234.72762 82.96637
000040 84 12 19 44 47 cd 82 43 89 4f f2 44 9a 42 0f 43
       612.2893 261.60373 1938.4855 143.26016
000050 81 74 49 44 da 05 70 44 7f ff af 43 c4 11 31 42
       805.8204 960.09143 351.99606 44.26735
000060 b1 0a de 43 28 83 2b 44 73 5a 45 43 f6 18 fc 44
       444.08353 686.0493 197.35332 2016.78
000070 11 97 ad 44 db 40 39 44 3a b9 95 43 1c 0e 7c 44
       1388.7208 741.01337 299.44708 1008.22046

weight f4 [64, 32]
000000 fa d0 7f 3d 5c 5f 6c 3c 72 fe 0a 3e 72 b3 ca bd
       0.062455155 0.014427032 0.13573626 -0.09897508
000010 7c 33 a2 bd 11 e5 a6 bd f4 d6 45 3e c6 bd 49 3d
       -0.07919976 -0.0814916 0.1932028 0.049253248
000020 61 94 40 bd 00 41 d5 bd 56 b6 13 3e 66 0e 1b 3e
       -0.047016505 -0.104127884 0.14425024 0.15142211
000030 93 30 bf bd ea 66 43 be ad 97 3d bd d3 46 d6 bc
       -0.09335437 -0.19082227 -0.046287227 -0.026156818
000040 19 72 e3 bd c1 d7 16 be ff eb ed bd 72 02 1a bd
       -0.11105747 -0.14730741 -0.11617278 -0.03759999
000050 5c 88 ae bc 8b 48 37 3d 8c 3e 01 3d e2 da ad bd
       -0.021305256 0.044746917 0.03155379 -0.08489014
000060 2b 59 1f 3d 63 ad 2b 3e 8f 04 a7 3c e5 0c 83 bd
       0.038903397 0.1676536 0.020387916 -0.06398944
000070 4d 7b 83 bd ea 47 36 3e eb 71 12 be 1e 86 1d be
       -0.06420002 0.1780087 -0.14301269 -0.15383193
000080 18 dd 46 3e 84 26 bf bd e9 74 74 3d 78 37 7b bc
       0.19420278 -0.09333518 0.059681807 -0.015333049
000090 8e 2a 1d bd ee e9 81 3d ff c4 43 3d 16 0d 1e bc
       -0.03837066 0.06343447 0.047795292 -0.009646675
0000a0 5e 1e 69 bd 1f 38 02 bd 78 ce d4 bd 3e f1 84 3d
       -0.056913726 -0.031791802 -0.10390943 0.06491326
0000b0 5e 17 bd bd 9a e4 03 3e e1 83 31 be 4f d8 92 bd
       -0.092329726 0.12880173 -0.17335464 -0.07170164
0000c0 47 a0 2b 3e 13 bd 35 3e 42 62 16 3e e1 9e 5a 3d
       0.1676036 0.17747907 0.1468592 0.053374175
0000d0 b8 82 e5 bd 95 99 25 be 6b db b4 bc 57 da 07 3e
       -0.11206573 -0.16171868 -0.022077283 0.13266884
0000e0 89 d5 84 3d 8c 2e 5c bd d6 87 2d bd 2f 00 41 3e
       0.06486041 -0.053755328 -0.04236587 0.18847726
0000f0 5a 6b a7 3d c7 07 0f be 81 01 8f bd 74 df 52 3b
       0.081747726 -0.1396781 -0.06982709 0.0032176645
000100 72 f2 e2 bd 73 a6 0d be 1b 60 ef bc e5 f3 58 3d
       -0.11081399 -0.13833027 -0.029220631 0.05296697
000110 60 71 01 3e 60 5b ea 3d 2b e9 a1 3d 73 7a 3c be
       0.12640905 0.1144321 0.079058014 -0.18406086
000120 a9 af ba bd 72 bb b8 3d 9e 1b 46 3d 2b fc a7 3d
       -0.09115536 0.09020127 0.04836618 0.08202394
000130 b2 69 f6 bd cf bf 0f 3e 44 ee 65 3d 84 58 21 3e
       -0.120318785 0.14038013 0.05613543 0.15756422
000140 8c 75 5f be 53 37 03 be ee 88 f3 bd 8d 0b 12 3e
       -0.21822184 -0.12814073 -0.11891352 0.14262219
000150 16 c5 fa bd 5d 33 6a bd de 69 95 3d 0f 3b 13 be
       -0.122446224 -0.05717789 0.07295583 -0.14377998
000160 c0 64 66 bd 91 94 ef bc 4d fa 8a bc 1e 75 74 be
       -0.056248426 -0.029245647 -0.016965056 -0.23872802
000170 d2 90 ba 3d b5 22 f3 bd 9a 05 70 3d da 3a 1d 3e
       0.091096535 -0.11871854 0.058599092 0.15354481
000180 c7 e0 17 3d a6 c3 20 3d 57 eb 81 3e 65 16 cb bc
       0.0370796 0.039249085 0.25374863 -0.024790952
000190 5e 30 e6 bc 20 96 5d 3e 75 3c fa 3d 53 4d 8e bd
       -0.028099235 0.216393 0.122185625 -0.06948342
0001a0 9f f4 75 bd 24 0b aa bd 10 0e 0b 3e 02 00 9c bb
       -0.060047742 -0.08302906 0.13579583 -0.004760743
0001b0 d7 0f c7 bd fe cd 69 bd f7 f4 b0 bc 2e f4 85 3d
       -0.09719818 -0.057081215 -0.021601183 0.06540714
0001c0 63 22 c7 3d 53 ff 3f 3d af ee 95 3d c1 4e bf bc
       0.097233556 0.046874356 0.07320916 -0.023352982
0001d0 11 a0 78 bd bd 27 26 be b7 df b2 bd 3c fd 4b 3e
       -0.060699526 -0.16226096 -0.087340765 0.1992082
0001e0 4e 58 c9 bd b7 b8 5c 3d c2 c8 04 bc ed 7e 1f bc
       -0.09831296 0.053887095 -0.008104505 -0.009734851
0001f0 a3 db ac bd 5d ea 01 3e 76 e8 00 be b6 fe 13 3e
       -0.0844033 0.12687059 -0.12588677 0.14452633
000200 b0 a9 66 be a5 b8 8f bd 10 95 0d 3d 07 5c 02 bd
       -0.22525668 -0.0701764 0.034565985 -0.031826045
000210 02 f8 02 3e 06 e0 66 bd ec ca ec bd 18 35 c0 bd
       0.1278992 -0.05636599 -0.11562142 -0.09385127
000220 9b a3 f6 3c b8 07 d7 3d 35 fa a0 bd 4a dd 23 3d
       0.03010731 0.10499519 -0.07860223 0.04000596
000230 71 54 a6 bd 28 9c 21 bd 44 65 0c 3e db 1c c0 bd
       -0.08121575 -0.039455563 0.13710505 -0.09380504
000240 e1 60 bd bd fc 50 e5 3d bf f8 2c bd d4 1d 18 3e
       -0.09246994 0.11197087 -0.04222941 0.14855129
000250 2d 1e d3 bd 49 19 1e 3e 45 de 51 be bc ed 56 bd
       -0.1030849 0.15439333 -0.20494945 -0.052472815
000260 0f 67 c8 bb 4a 57 32 3d 6d db 13 3e 7c a9 f3 3c
       -0.006115801 0.043540277 0.14439173 0.029743902
000270 33 ee 8c bd 28 a9 d5 bc 5d a4 c1 3d d5 38 54 bd
       -0.068813704 -0.026081637 0.09455178 -0.05181201
000280 d5 b9 ad 3d 46 2d 1e be 4e 67 6f bc 97 f0 1f bd
       0.0848271 -0.15446958 -0.014612032 -0.039047804
000290 67 5e ef 3d 96 62 03 3e 10 c2 06 bd 5d 39 d5 bd
       0.11687928 0.12830576 -0.032899916 -0.10411332
0002a0 dd f0 86 3d ac 13 9d 3d 72 de 97 3c 71 af 96 bd
       0.0658891 0.07669768 0.018538687 -0.073576815
0002b0 46 76 2c 3e df a9 13 3e f7 d7 c9 bd b6 65 e8 bd
       0.16841993 0.1442027 -0.09855645 -0.11347525
0002c0 3b 63 8a 3e 97 d6 89 bd a1 9a 6e 3d 66 9e 29 3d
       0.27028832 -0.06730383 0.058252934 0.041410826
0002d0 de 4a e7 bd 05 17 4f 3d 3a 7b 0d be dd 4f 51 bd
       -0.11293577 0.050559063 -0.13816538 -0.051101554
0002e0 08 f5 2f bd 4e f2 9d 3c 24 90 99 bd b1 9a 2f 3e
       -0.04295829 0.019280579 -0.07498196 0.17148854
0002f0 89 7a 70 bd 84 64 60 3d a5 29 a8 bc 31 b1 b1 bd
       -0.05871061 0.05478336 -0.02052767 -0.08676375
000300 a0 25 ae bd d2 d5 76 bc 3f 20 7e 3e 4f 27 28 bd
       -0.0850327 -0.015065627 0.24816988 -0.041053113
000310 03 34 01 3d 18 63 9a 3c 98 f9 38 3e b8 72 30 3e
       0.031543743 0.01884608 0.18063962 0.17231262
000320 fd 29 19 3d eb 33 e7 bd 42 3e 30 bd 93 77 f5 bd
       0.03739356 -0.112891994 -0.043028124 -0.119856976
000330 1f 32 4a bd 73 8a 7e 3b b8 4c 07 3e fd 00 46 be
       -0.049364205 0.0038839846 0.1321286 -0.19336314
000340 2d 52 3e bd e3 2d 3c be 61 0b 81 bd 41 b5 b4 3d
       -0.046465088 -0.1837688 -0.063009985 0.08823634
000350 3a 30 67 bd 62 1d 14 3d f7 bb c2 bd 7b dc 23 3e
       -0.056442477 0.036160834 -0.09508508 0.16002075
000360 d4 3f 0e bc 0e 7b 6d bd 33 e7 57 3c 68 6a 58 be
       -0.00868221 -0.057978682 0.013177681 -0.21134341
000370 be c9 e8 bd 9a df 8a 3c c7 3a 18 3e 79 57 86 bd
       -0.11366604 0.016952325 0.14866172 -0.06559653
000380 cb 24 86 bc 52 44 1e 3e fa 0c b9 3d 57 6a 38 bd
       -0.016374966 0.1545575 0.09035678 -0.04502329
000390 e7 ba 5e 3d a1 2c 3f bd 8e 77 99 bd be ad 54 bc
       0.054377463 -0.04667342 -0.07493506 -0.0129808765
0003a0 9a 60 57 3e 11 06 14 3e e7 ca af 3c 4c f4 ab 3d
       0.21032944 0.14455439 0.021459056 0.08396205
0003b0 33 34 85 3c b4 e2 2c 3e dc a7 25 be 11 bc 2c be
       0.016260242 0.16883355 -0.16177315 -0.16868617
0003c0 2d 27 cb 3d 50 cc 12 bd ec 1e a0 bd 91 e6 44 3e
       0.099195816 -0.03583938 -0.07818398 0.19228579
0003d0 21 ff 93 3c b8 26 b4 bd 6e e7 59 bd 58 77 36 3d
       0.01806599 -0.087964475 -0.053199224 0.04454741
0003e0 e2 c5 a8 bd 5d 6d f2 bc ce 3c be ba 74 75 21 be
       -0.08240868 -0.029593164 -0.0014513971 -0.15767461
0003f0 bd 9b 57 3d da 9d 08 3e d9 f4 d5 3d 40 af a3 bd
       0.052638758 0.13341466 0.104470916 -0.07992411

bias f4 [64]
000000 5b c9 cd 3d b7 35 cf bd a0 65 56 3d 5a cb c5 bb
       0.10048171 -0.10117667 0.05234301 -0.0060362043
000010 47 4d cc 3d a8 22 f3 3d a9 82 30 3d e4 d1 a1 3b
       0.09975677 0.118718445 0.043093357 0.004938351
000020 4d 2a 1e be cf 71 8c 3d e8 dd dd 3d 52 83 85 bd
       -0.15445824 0.06857645 0.10833341 -0.06519188
000030 ac a1 33 be bc 65 13 3e 5b ce 2c bd aa 15 02 3d
       -0.17542142 0.14394277 -0.042188983 0.03175894
000040 c0 6d 45 bd b4 3a e7 3d a5 a8 31 3e 1a ab e9 3d
       -0.04820037 0.112904936 0.17349489 0.11409588
000050 04 78 57 bd 89 3f fd 3d f3 e2 ae 3d 07 04 8c 3c
       -0.05260469 0.12365634 0.08539381 0.017091764
000060 7c a6 10 be 5f 5b 9f bd 9f dc 34 be e7 49 f7 3d
       -0.14126009 -0.077810995 -0.17662285 0.12074643
000070 24 8d 3b 3e 88 fd d3 3d f0 cf 5d 3d 38 a2 32 3d
       0.1831556 0.103510916 0.054153383 0.043611735
000080 c4 af 2e 3e 5f 7c b3 bd 56 f2 74 bd 2e 1d 20 be
       0.17059237 -0.08763956 -0.059801422 -0.15636131
000090 f9 c0 86 bc 49 23 26 3c 9c a9 43 3d ee bc fb bd
       -0.016449438 0.010140249 0.047769174 -0.12291895
0000a0 fa f4 4c bc 18 c7 12 be 29 a6 0c be 2b 7e a5 3c
       -0.012509579 -0.1433376 -0.1373526 0.020201763
0000b0 95 6b 31 be 4a 7c 41 3d 53 15 26 be 61 49 00 be
       -0.17326196 0.047237672 -0.16219072 -0.12527992
0000c0 0c b8 18 bd 0a 34 2d be 41 04 12 3e 82 8c 17 3e
       -0.037284896 -0.16914383 0.14259435 0.14799693
0000d0 5d 1d ba bd 72 77 0b 3d 55 22 b0 3d 48 26 64 3d
       -0.09087632 0.03404946 0.08600298 0.05570057
0000e0 87 c8 b4 bc e7 8d 29 be c2 76 08 3e 59 50 22 be
       -0.022068275 -0.16558038 0.13326553 -0.15850963
0000f0 3a 40 08 bd 63 d6 99 3b 4d bc 6e bd 77 07 8a bd
       -0.033264376 0.0046947463 -0.058285046 -0.06739705

weight f4 [64]
000000 04 90 a7 3f e0 24 a6 3f 2b 53 b4 3f 0e 52 9b 3f
       1.3090825 1.2980003 1.4087881 1.2134416
000010 57 67 a3 3f c7 2c a9 3f b6 b7 a4 3f d0 6c 91 3f
       1.2765912 1.321679 1.2868564 1.1361332
000020 ef 57 ab 3f e2 56 a0 3f 18 c7 a5 3f 44 06 8e 3f
       1.338621 1.2526515 1.2951384 1.1095662
000030 75 bf ad 3f f2 ec a5 3f e5 49 96 3f 9d c3 ab 3f
       1.3574053 1.2962935 1.1741301 1.3419071
000040 03 d8 a1 3f f2 bb af 3f 2f 8f 90 3f 51 7f 8c 3f
       1.2644047 1.3729231 1.1293696 1.0976354
000050 23 b2 9b 3f 38 73 99 3f c4 74 a3 3f 23 63 90 3f
       1.2163738 1.1988287 1.2770009 1.1280254
000060 1a ea 98 3f 41 de 9a 3f dc 61 a0 3f ee dc ab 3f
       1.1946442 1.2099077 1.2529864 1.3426797
000070 cf 58 a8 3f 97 d0 a5 3f 51 10 9c 3f f0 ac a3 3f
       1.3152102 1.2954282 1.2192479 1.2787151
000080 c3 98 a2 3f bc 93 9d 3f ec 60 a4 3f f1 83 9a 3f
       1.2702869 1.231071 1.2842078 1.2071515
000090 52 62 a8 3f d4 ea ac 3f 36 95 9f 3f 8d 59 96 3f
       1.3155005 1.3509164 1.246741 1.1746079
0000a0 1a 17 b4 3f a8 9c 95 3f 59 3f 97 3f 2e 85 9b 3f
       1.406955 1.1688433 1.1816207 1.2150018
0000b0 d8 0b a2 3f 32 6b a3 3f ec 46 9d 3f 7d c4 94 3f
       1.2659864 1.2767088 1.2287269 1.1622463
0000c0 06 b4 8e 3f f0 05 a3 3f db 72 a6 3f 3f bb 87 3f
       1.1148689 1.2736187 1.3003801 1.0604018
0000d0 d0 75 9e 3f da ce 9e 3f 4b 40 a2 3f b2 ec ae 3f
       1.2379704 1.2406876 1.2675871 1.3665984
0000e0 43 e8 a4 3f 7c c3 99 3f d5 69 a7 3f e0 9b a0 3f
       1.2883381 1.2012782 1.3079172 1.2547569
0000f0 94 7d a1 3f 30 d3 a6 3f 16 0e a0 3f 62 bd 9f 3f
       1.2616448 1.3033199 1.2504299 1.247967

bias f4 [64]
000000 54 a8 10 3e 94 8b 3f 3e 2e 53 6a 3e 45 50 02 3e
       0.14126712 0.18705589 0.22883293 0.12725933
000010 99 11 2d 3e d5 b7 11 3e 70 cd 1f 3e fc 78 85 3d
       0.16901244 0.14230283 0.15605712 0.065172166
000020 db f5 3e 3e 3b 29 41 3e 8f 90 47 3e cd 6f 2d 3d
       0.18648474 0.18863384 0.19488738 0.04234295
000030 0b 7f 6c 3e 9a 78 64 3e c2 7d 27 3e ef d7 1a 3e
       0.23095338 0.22311631 0.16356567 0.15121435
000040 fb e9 c9 3d 8b 4b 57 3e 0f ed ed 3d 6d cd 6b 3d
       0.09859081 0.21024911 0.11617481 0.057568956
000050 2c 47 fe 3d 51 8d a6 3c 04 a4 54 3e 6d 42 66 3c
       0.12415919 0.020331057 0.20765692 0.014053923
000060 00 1d 15 3e 53 9a ef 3d 93 51 b9 3d af 6a 09 3e
       0.14561844 0.11699357 0.09048762 0.13419603
000070 5c 4e 35 3e 50 76 17 3e 39 77 db 3d 2a 66 c2 3d
       0.17705673 0.14791226 0.10716099 0.094921425
000080 e4 e0 35 3e 30 84 0d 3e 7f e9 22 3e 14 d5 05 3e
       0.1776157 0.13819957 0.15909384 0.13069564
000090 ef f9 2c 3e d1 07 77 3e d5 57 79 3d 03 6b cb 3d
       0.16892217 0.24124075 0.06087478 0.0993252
0000a0 2f d0 50 3e 24 a6 96 3d a6 0e c4 3d c4 a1 33 3e
       0.20391916 0.073559076 0.095731065 0.17542177
0000b0 73 d0 68 3e 0c 8a c6 3d ba 1d fa 3d c1 ca aa 3d
       0.22735767 0.09694299 0.12212701 0.083394535
0000c0 dc 37 11 3e 1b d3 e3 3d 8f 84 10 3e e1 4d b2 3c
       0.14181465 0.111242495 0.14113067 0.021765651
0000d0 aa fc 14 3e b6 f6 de 3d 94 23 30 3e 74 ff 3d 3e
       0.14549509 0.108869 0.17201072 0.18554479
0000e0 a3 33 43 3e 52 d2 38 3e 22 3e 24 3e f3 19 2f 3e
       0.19062667 0.18048981 0.16039327 0.17099743
0000f0 36 41 31 3e 72 28 2c 3e bd be 8e 3d d7 99 28 3e
       0.17310032 0.16812304 0.06969974 0.16464935

running_mean f4 [64]
000000 c4 85 1a bd b0 3c d7 3b 69 5e 1e be 56 b4 7e 3e
       -0.037725225 0.006568514 -0.15465702 0.2487348
000010 dd 84 b9 bc 05 d8 40 3e d2 3e 0a bc cb 15 39 3e
       -0.022646362 0.18832405 -0.008437829 0.1807472
000020 b1 01 91 be cf 63 03 be aa 57 9f 3d 9f ac 98 3e
       -0.28321603 -0.12831043 0.077803925 0.298192
000030 8c 07 e7 be 08 29 95 bd 6a 94 ed 3c 6f 14 d3 bd
       -0.45122945 -0.07283217 0.029001433 -0.10306632
000040 f4 f5 0a bd 62 de ff 3d 79 a4 8a be 82 86 de 3d
       -0.033925965 0.12493588 -0.27078608 0.10865499
000050 3c 49 ee bd 4b 4d 88 3e 8d 2b 37 3d 65 6d 6a 3e
       -0.11635062 0.2662147 0.044719268 0.22893293
000060 1b 3e 1e be 19 0a 54 be 24 ce bd bb 5b 6b fa 3e
       -0.15453379 -0.20706977 -0.005792396 0.4891003
000070 2d 7c 4d be 43 3a d2 3c d2 18 97 3e a4 a1 fc 3d
       -0.200669 0.025662547 0.29511124 0.12335518
000080 88 56 29 3d d3 fe 0a 3e 32 26 34 be 24 98 69 bc
       0.04134229 0.1357377 -0.17592695 -0.014257465
000090 fb e7 7c be 27 e8 27 3e e9 aa 6f 3d 6c f4 95 be
       -0.24697869 0.16397153 0.058512602 -0.29288042
0000a0 de d5 02 be 66 2d 0f 3e f4 2e f9 be dd 09 30 3d
       -0.12776896 0.13982162 -0.48668635 0.042978156
0000b0 56 d4 d9 be cd 44 2b be 7b 37 8c be 6d e2 30 3e
       -0.42544812 -0.16725464 -0.27386078 0.17273875
0000c0 dd 4e c2 be 7f 43 a8 be 55 1d 31 be 4b 69 89 3e
       -0.37950793 -0.32863995 -0.17296346 0.26838145
0000d0 4c fb 63 be 08 2a ef bd e8 dd 72 3e c6 0b 8a bd
       -0.22263831 -0.11677939 0.23717463 -0.06740527
0000e0 a8 0b bc bd 1d 4b 48 be 56 ed 0e 3e a1 ea 12 bf
       -0.09181911 -0.19559903 0.13957724 -0.57389265
0000f0 b9 31 90 3d 61 e2 65 be 2a b4 2b 3e 2a fb d6 be
       0.07040734 -0.22449638 0.16767946 -0.41988498

running_var f4 [64]
000000 84 f2 c3 3c 05 d2 12 3d 70 02 bd 3d df 77 4b 3d
       0.023919351 0.03584482 0.092289805 0.049674865
000010 22 b8 9c 3d 3f 7a 39 3d 35 cf 57 3d 51 6c 97 3d
       0.07652308 0.0452826 0.052687842 0.073937066
000020 c1 d0 8a 3d 20 73 1f 3d e6 90 8c 3c 9e 67 12 3e
       0.06778098 0.03892815 0.017158937 0.1429734
000030 b4 b1 29 3e 41 d4 a8 3d c6 a3 1d 3d 14 22 0a 3d
       0.16571695 0.08243609 0.038486265 0.033723906
000040 be cc b1 3d e7 94 44 3d 37 aa 0e 3e 66 a2 ea 3c
       0.086816296 0.047993567 0.1393212 0.02864189
000050 52 33 34 3d cb ee c8 3d 68 48 87 3d 53 7c 0c 3d
       0.043994255 0.09811171 0.06605607 0.034298252
000060 e7 4f 59 3d d2 b7 c6 3c cc 53 ba 3c 86 26 f3 3c
       0.053054716 0.024257574 0.022745036 0.029681455
000070 c6 7b 81 3d 7b b2 83 3d 5d c2 dc 3d 6b d8 30 3d
       0.06322436 0.06430527 0.10779259 0.043175142
000080 b1 7d b0 3d eb 1b 61 3c fa f9 70 3d c3 a2 a7 3d
       0.08617724 0.013739566 0.058832146 0.08185341
000090 5a 0c 4f 3d d0 84 8f 3d 81 60 83 3c ed d4 c6 3d
       0.05054889 0.07007754 0.016037228 0.09708581
0000a0 f1 5a 87 3d 4d e5 6d 3d 53 fc 13 3d d4 74 93 3d
       0.066091426 0.058080006 0.036129307 0.072000176
0000b0 99 af 25 3d b9 6e b5 3d c0 70 5b 3d e4 f4 cf 3c
       0.040450666 0.08859009 0.053574324 0.025385328
0000c0 49 53 46 3e d9 1b 14 3d e0 13 dd 3d 37 81 00 3e
       0.19367708 0.03615937 0.107948065 0.12549292
0000d0 c5 43 ab 3c d4 f1 8a 3d 8a 0f 95 3d 71 d6 20 3d
       0.020906338 0.06784406 0.072783545 0.039267007
0000e0 e0 e2 bd 3c e3 6a 90 3d f6 1b 23 3d 6c 8e b4 3d
       0.023179471 0.07051637 0.039821588 0.08816227
0000f0 58 b1 b9 3c c9 98 0b 3d bb bf 0c 3e 73 fb 6d 3d
       0.022667572 0.034081254 0.13745014 0.05810113

weight f4 [5, 64]
000000 49 23 ac be f8 0f 54 3e ea 9b 8e be d6 46 34 3e
       -0.3362067 0.20709217 -0.27853328 0.17605147
000010 e2 68 80 be 2a 43 8d 3e 5a 08 08 be ed f9 a0 bd
       -0.2508002 0.27590305 -0.13284436 -0.078601696
000020 47 23 45 bd 67 ff 82 bb 12 11 4e be 84 0e c4 bd
       -0.048129346 -0.0039977315 -0.201237 -0.09573081
000030 b9 4c 2b be e6 23 1a 3e 69 36 9c 3d ed cd 46 3e
       -0.16728486 0.15052757 0.076275654 0.19414492
000040 03 41 83 3d 9a c2 da 3d 5c aa ed 3d 01 e4 25 3e
       0.064088844 0.106816486 0.11604759 0.16200258
000050 8a 30 91 3e 7a 78 88 be 56 9a d5 bd 69 dd d1 3d
       0.28357345 -0.26654416 -0.10429828 0.10247309
000060 db 0c 0b be ba eb bf bd 2c f9 77 3e dc 66 d2 3d
       -0.13579123 -0.09371133 0.24216145 0.10273525
000070 6b 73 b8 bd 0a 9b 4f 3e 14 8a 69 3e 5b 73 3a 3e
       -0.09006389 0.20273986 0.22806579 0.18208067
000080 f7 20 eb bc d4 cc 50 3e c2 d2 1f be 62 42 f9 3c
       -0.028702242 0.20390636 -0.15607741 0.030427162
000090 d5 5e ba 3c 28 b9 7a 3d 78 88 75 3e 65 b9 aa bd
       0.022750298 0.061211735 0.2397784 -0.083361425
0000a0 b6 23 0a 3e 2f 57 00 3e 3d d6 fd bd 8c ab 99 3d
       0.13490185 0.12533258 -0.12394378 0.07503423
0000b0 1c f1 61 3d e3 5b a1 3d 87 a5 3f bd f7 29 43 3e
       0.05516158 0.07878854 -0.04678872 0.19058977
0000c0 9c 6e 92 bd 51 80 84 be c5 0d 6b be 8f c0 47 3e
       -0.07150003 -0.25879148 -0.22954471 0.19507049
0000d0 0a 0f 8a be 62 41 4a bd 4a ce b6 be 45 24 7f 3d
       -0.269646 -0.04937876 -0.3570426 0.06229045
0000e0 18 41 06 3e 43 dc da bd 45 a9 56 3e 28 eb 07 be
       0.13110769 -0.10686543 0.20963009 -0.13273299
0000f0 7c c5 84 be 45 48 3d be b0 91 9f 3d 28 63 56 be
       -0.2593192 -0.184846 0.077914596 -0.20936263
000100 8d 16 af 3e cc 3c bb bd a5 a7 53 3e 86 e5 ec 3d
       0.34196892 -0.091424555 0.2066942 0.115672156
000110 7b 17 43 3e 28 e1 4f be 0a 6f 7d 3e b6 a7 9c be
       0.19051926 -0.20300734 0.2474939 -0.30596703
000120 80 b0 ea be 17 a1 1f 3e 3f ea 91 bc f2 bd 29 3e
       -0.45837784 0.15588795 -0.017811893 0.16576365
000130 4f 95 69 3e 40 31 6b 3e 92 d1 c6 bd 13 85 b2 be
       0.22810863 0.22968006 -0.09707941 -0.34867153
000140 52 ec a8 be 78 a7 0f 3e 9d e7 84 bd 51 54 53 be
       -0.32992798 0.14028728 -0.06489489 -0.20637633
000150 e2 1c e1 bd dd 99 66 be ab 98 a1 3d 1e 38 1d bd
       -0.10991837 -0.22519632 0.07890447 -0.038383596
000160 b6 29 1a bd 1e b9 8d 3e d0 97 8e be 8d ff 8e 3e
       -0.037637435 0.27680296 -0.278502 0.27929345
000170 18 a1 61 3e 5d d2 ec bd aa 76 88 be a8 72 a1 be
       0.22034109 -0.11563561 -0.26653033 -0.31532788
000180 70 cd 9c be 0e 7d f9 3d e3 23 45 be 8c f7 b2 be
       -0.30625486 0.121820554 -0.19251971 -0.34954488
000190 9c 0d a5 3e de a5 c3 3d 3a 94 7c be 93 63 4e be
       0.32236946 0.09553121 -0.24665919 -0.20155172
0001a0 98 49 cf be e4 30 4e be 42 7b 9f 3e a9 50 25 3e
       -0.40485835 -0.20135838 0.31148726 0.1614405
0001b0 a8 67 48 3d b1 92 d5 be 07 cc 1f 3e ad 9e 64 bb
       0.04892698 -0.4171348 0.15605174 -0.0034884617
0001c0 c9 fc ad 3d 93 05 60 3d 13 eb 9d 3d 3d 03 26 bd
       0.084954806 0.054692816 0.077108525 -0.040530432
0001d0 f5 87 87 3e db 1f 88 3e a9 1e 05 3e 65 2c cb bd
       0.26470914 0.26586804 0.12999977 -0.09920577
0001e0 f7 3e f5 3d 32 9d ec bc dd d3 b7 be 6f 99 70 3e
       0.119749 -0.02888355 -0.35903826 0.2349603
0001f0 a6 6f 05 be 25 1a 9a 3e 13 ff 45 be 4f 42 23 3e
       -0.13030872 0.30098072 -0.19335584 0.15943263
000200 47 67 cc bd 86 9d 83 be a4 82 ca bd e7 fb 70 be
       -0.09980636 -0.25706118 -0.09888199 -0.23533593
000210 d9 8d 02 be 4a 58 1c be 3e ca 9a bd 38 70 d4 bb
       -0.12749423 -0.15268055 -0.07558106 -0.006483104
000220 87 b3 09 be 55 1c 07 be 1d d2 4a be 49 9b b4 bd
       -0.1344739 -0.13194402 -0.19806714 -0.08818681
000230 36 07 54 be ea 95 99 bd 31 68 4a be 6c 0e 67 bd
       -0.20705876 -0.07499297 -0.19766308 -0.05641024
000240 a2 bc 69 bd d5 4f 99 bd 88 26 07 be 36 81 76 bd
       -0.05706466 -0.0748593 -0.13198292 -0.06018182
000250 b6 d9 81 be 92 e4 09 bd cc ee 53 be a4 0a a4 bd
       -0.25361413 -0.033665247 -0.20696563 -0.08009842
000260 47 ce 2b be 4b d1 33 be 45 c6 5c be 19 11 9b bd
       -0.16777907 -0.17560308 -0.21560009 -0.075716205
000270 fb ff 5f be 43 5e 30 be ec d4 9c bd 24 3e 06 be
       -0.21874993 -0.17223458 -0.07657799 -0.13109642
000280 b3 82 83 be 1a 5a 86 be bd 9d 60 be ba 36 82 bb
       -0.25685653 -0.26240617 -0.21935172 -0.003973809
000290 96 45 67 be d2 4c 85 bd 97 9e 3d bd c7 c0 46 be
       -0.22585139 -0.06508793 -0.04629382 -0.19409476
0002a0 62 6c 56 be d9 ba 64 be 44 c3 d5 bd 09 89 18 be
       -0.20939782 -0.22336902 -0.104376346 -0.14896025
0002b0 de 1b 22 be 51 3c d0 bd 57 1e b9 bd b8 92 20 be
       -0.15830943 -0.101677544 -0.0903899 -0.15680969
0002c0 86 02 01 be 76 3e 03 be a9 e4 16 be f5 f2 d9 bd
       -0.12598619 -0.12816796 -0.14735664 -0.106420435
0002d0 0e 3a 3e be db d7 ec bc a4 df 1a be 8b 8a 38 be
       -0.18576834 -0.028911522 -0.15124375 -0.180216
0002e0 fe 80 82 be 13 62 76 be 85 2c 18 be 62 3c 35 be
       -0.25489038 -0.2406085 -0.14860733 -0.17698815
0002f0 99 3a 55 be a9 70 af bd 68 8c 24 be f8 31 00 be
       -0.20823134 -0.0856641 -0.16069186 -0.12519062
000300 a8 19 63 3e b2 8f 6d be 57 f2 a0 be c5 5d 5c be
       0.22177756 -0.23199347 -0.3143489 -0.21520145
000310 56 12 8b be f6 ab 99 be 5c cf 2c be 55 19 05 3e
       -0.27162427 -0.30014008 -0.16875976 0.12997945
000320 b8 a5 61 3e a8 76 ac ba 53 42 93 3e de 96 e4 3d
       0.22035873 -0.0013157921 0.2876154 0.11161588
000330 48 af 2e be e4 4b 3b be 5f f6 6f be db 5c 60 be
       -0.17059052 -0.18290669 -0.23433827 -0.21910422
000340 42 39 44 3e c8 4e a9 be d6 61 9e be 50 34 a6 bc
       0.19162467 -0.33067918 -0.30934018 -0.020288616
000350 69 6d 7e be 4e 69 ec 3d 23 9a 84 be 3c 17 c3 bd
       -0.24846424 0.11543523 -0.25898847 -0.09525916
000360 f6 ce 5c be f4 05 61 be d3 8e f0 bc 19 65 05 3e
       -0.21563324 -0.21974927 -0.029364979 0.13026847
000370 cc 31 6a be a4 98 92 be bc 51 b6 3d 69 47 15 bc
       -0.22870559 -0.2863208 0.08902308 -0.009111264
000380 04 7a 4b 3e dd b4 7c be bb e0 5a 3e 35 29 6c 3e
       0.19870764 -0.24678369 0.2137479 0.23062594
000390 ed 8e 7c be 94 cc 30 3e 8a f8 52 be 40 f3 31 3e
       -0.24663897 0.1726554 -0.20602623 0.17377949
0003a0 30 fd e1 bd 98 56 56 be ba e4 5d 3c cd a1 a6 be
       -0.1103462 -0.2093147 0.013543302 -0.3254532
0003b0 8c e0 7c be 4f 8a 2f bd 36 69 32 be 0b c7 6e be
       -0.24695033 -0.04285651 -0.17422947 -0.23318116
0003c0 85 c0 c1 be c4 ce f3 bd 3b b2 39 be 93 54 97 bd
       -0.37842193 -0.11904672 -0.18134396 -0.07389178
0003d0 11 fa fa bd ef 4f 33 be 4f 9f fe 3d d9 93 a4 be
       -0.12254728 -0.17510961 0.124327295 -0.3214405
0003e0 4d a0 7c be dc d6 2f 3e 98 85 27 3d a3 1d 45 be
       -0.24670525 0.17171806 0.04089889 -0.19249587
0003f0 47 f9 66 3e 66 0b 4f 3e ea ea 06 3e a4 4f 59 3d
       0.2255603 0.20219192 0.1317555 0.053054467

bias f4 [5]
000000 18 c5 a8 3d 01 19 ec bc cd e7 ba bc 31 bf 98 3d
       0.08240718 -0.028820517 -0.02281561 0.07458342
000010 e8 6b ee 3b
       0.007276047
