model/imitator_new.pt (torch, 19727 bytes, 14 tensors)

weight f4 [32, 10]
00000000: 2f11 773e 1a82 cbbb dae7 c93d 5d76 293d
00000010: dc69 7ebe 30ea 4a3e ba7b a7bd 53a0 d93d
00000020: 0c91 d4bd 92b9 90bd a937 863e b453 1ebe
00000030: 5b60 473d 7191 b53e 14d4 92be b061 a93e
00000040: ebe5 533e 422d c63d e472 17bd 92fc 8e3e
00000050: 7b8f aebd 4eb4 14bf e0cd 613c e61b c63d
00000060: 8d0e 073e 0214 a43e e288 4fbe 03e8 3a3e
00000070: 3eff 5c3e 43bf 8d3e a73e 243e 2b0f 02be
00000080: a003 01be d612 ea3e 8d27 efbd a150 973e
00000090: 3d2a 48be 6aec a63c b551 92bb cd17 403d
000000a0: d0ac 5ebb d3a3 9a3d 5020 b1bd 5d69 a23d
000000b0: d6de 823e 538f 75be a724 41bd 6171 1fbe
000000c0: d388 903e 4412 8d3e 68ed 9f3d 91de 1dbe
000000d0: b95a 9abe 3be3 8c3e 13b6 453e bfc3 af3e
000000e0: 18d6 7abc 6b84 873d bfaa 693e d0e0 68be
000000f0: fe13 6a3d 9750 f0bd 87d9 2a3e 2bb2 a9bd
00000100: c48f cb3c 49ed 48be 32ca aabe 56b6 8f3d
00000110: 5ba0 a23d f7c2 083d 1365 763e d7b5 8ebd
00000120: 286c 4a3d 755d 71be 96ba 9a3d a17e f8bd
00000130: 7c3f 283e c6c1 743e afa3 8e3e aece 943c
00000140: 3b29 493e 8fb1 60be 27c4 83be cfbd 873d
00000150: 1c23 93bd 51bb 81be 783b dbbd 5e91 edbd
00000160: e498 a8be cc2f 683c 585e 1bbd a8cc 753e
00000170: c922 e7bd c8c7 4abe d759 9abe 18e9 563b
00000180: e38e 8f3e 1303 9dbd 8932 3abe 7dbc 36be
00000190: f09b f03d 86b1 02be 71c1 89be 9964 b33e
000001a0: b081 32be 8dc9 5abd a2a6 35bd 4ee6 74be
000001b0: 6cc4 4bbc 217a 0f3e 001c 84be e7d6 2dbd
000001c0: 87cd c0bd 9cc4 acbe 07c0 2f3e fdaa 7e3e
000001d0: 9ce2 4a3e 9068 e4bd 9521 3a3e 343d 8fbe
000001e0: 053f 86be 9c06 68bc 5bd3 cbbd 657d 123e
000001f0: 94d1 0abe 3655 25bb 7b4b 2dbd 5950 80be
00000200: b8e0 11bd edb5 80be 77b8 893e dc14 5e3e
00000210: 70af ca3e 3302 96bd 2ef8 55bc 8cc4 663d
00000220: 0b4d 633e 2a11 223e 1895 12be d087 7ebe
00000230: 78c2 85be 42e9 0ebf 2816 8b3e 281e eb3d
00000240: b630 a03e af7a 8c3e 5602 b43c 1515 2ebe
00000250: 3133 9c3e f5f2 7f3e ce7a cb3d cbe4 43bf
00000260: a7be c63d 13d7 fb3d 5e0f 8e3e 21ef 6f3e
00000270: 1aba 243e 210e 88be 6feb 20be e3d8 543e
00000280: 8586 9d3c 3315 ccbe 7fb8 d13e 1744 41bb
00000290: a0a2 503e f7fa 55be 54a0 c63d 5ce8 08be
000002a0: 610b e6bd 392c 39bd 8030 f6bd 0014 aa3d
000002b0: 2d83 f53c a4fc b53e 24c0 13bd 9a6b f6bd
000002c0: 7492 e8bc b145 01be 3104 acbc 18e7 62be
000002d0: 1131 80be 9bed 25bc 67e1 7fbd a6a7 37be
000002e0: 466c 393e b917 023e d34c 2dbd b494 c3bd
000002f0: b0cd 6e3e 6e79 9e3e c54b 05bf b5dd 0dbe
00000300: 211f 02be ce12 40bd 4fb9 693e c26d e83d
00000310: 4553 113e 1a11 afbd 08fa 94bd f93e 64be
00000320: 4362 10be 58fe f13d 374e 013e 9574 78bd
00000330: d178 d53e 0825 66be 196a 64bd e426 3e3e
00000340: 6492 2ebd 61df 863e defe 8ab9 8081 abbd
00000350: 8cb9 71be 3c90 213e f53d 2dbe 24da d93d
00000360: 2295 4f3e 1136 92bd c4b5 16bd 9022 933d
00000370: a866 fdbd d3fb b2bd ce45 82bd 6910 5fbe
00000380: 86bc dd3a 889c b73c caeb 98be 24a4 f6be
00000390: 3696 323e 4090 34be 24b1 e63d ba17 32bd
000003a0: eb5e 03be 3f7d 373e d40b a9be df40 bfbc
000003b0: ea7e 8d3e 3641 2ebe 1322 0bbe 1e96 bebd
000003c0: b035 4a3e 2766 86be 3a11 953c 092e 0f3e
000003d0: 55fe 923d 8825 5a3d de08 6bbe 9a38 0e3e
000003e0: 5731 083e 948e cbbc 66ca 41be 03c4 d0bc
000003f0: f965 893e 6212 76be 6868 b1bb 517e 343c
0.24127649 -0.0062105777 0.09858675 0.041372646 -0.2484507 0.19815898 -0.08177896 0.106262825
-0.10379228 -0.07066645 0.2621434 -0.15461618 0.048675876 0.35462525 -0.28677428 0.33082342
0.20693175 0.09676601 -0.036974803 0.2792707 -0.085234605 -0.58087623 0.013781995 0.0967329
0.13189144 0.32046515 -0.2026706 0.18252568 0.21581742 0.27684984 0.16039525 -0.12701099
-0.12599039 0.45717496 -0.116774656 0.29553702 -0.19547363 0.020376403 -0.0044653066 0.0468977
-0.0033977516 0.07550778 -0.08648741 0.07930253 0.25560635 -0.23980455 -0.047154095 -0.15570594
0.2822939 0.27552998 0.078089535 -0.15416934 -0.3014734 0.27517113 0.19307737 0.3432903
-0.015309833 0.066170536 0.2281904 -0.22742009 0.057147972 -0.11734121 0.16684543 -0.08285936
0.024848826 -0.19621767 -0.33357388 0.070172 0.07940742 0.033389058 0.24061994 -0.06968277
0.049419552 -0.23570807 0.0755512 -0.121335275 0.16430467 0.23902044 0.27859256 0.018164959
0.19644634 -0.21942733 -0.2573559 0.06628 -0.07184431 -0.25338224 -0.10704702 -0.11599992
-0.32929146 0.014171552 -0.03793177 0.24003851 -0.112859316 -0.19802773 -0.30146667 0.0032792743
0.280387 -0.07666602 -0.1818334 -0.1784534 0.11748493 -0.12763032 -0.26905397 0.35037687
-0.17432284 -0.05341487 -0.044348367 -0.2391598 -0.012436967 0.14011432 -0.25802612 -0.042441275
-0.09414201 -0.3374375 0.17163096 0.24869914 0.19813007 -0.11152756 0.18176873 -0.27976382
-0.26219955 -0.014161732 -0.09952422 0.14305647 -0.1355651 -0.0025227792 -0.042308312 -0.250613
-0.0356147 -0.25138798 0.26898548 0.21687645 0.39586973 -0.07324638 -0.013059659 0.056339785
0.22197358 0.1582686 -0.14314687 -0.24856496 -0.2612493 -0.55824673 0.2716534 0.11480361
0.31287163 0.2743735 0.02197377 -0.1700023 0.30507806 0.24995025 0.099355325 -0.76520985
0.09704333 0.122968815 0.277461 0.23431064 0.16086617 -0.2657328 -0.15714811 0.2078586
0.019229183 -0.39859924 0.40961072 -0.0029490048 0.20374537 -0.20896517 0.09698549 -0.13369888
-0.11232639 -0.04520819 -0.120209694 0.08304596 0.029969776 0.35544312 -0.03607191 -0.12032242
-0.028390147 -0.12624241 -0.020998092 -0.22158468 -0.25037435 -0.01012745 -0.06247082 -0.17935047
0.1810771 0.12704362 -0.042309593 -0.09549847 0.23320651 0.30952018 -0.5206874 -0.13854106
-0.12707187 -0.046892934 0.22824596 0.1134906 0.14191921 -0.08548184 -0.07274252 -0.22289647
-0.14099984 0.1181609 0.12627493 -0.060658056 0.41693738 -0.22475064 -0.055765245 0.18569523
-0.042620078 0.263423 -0.00026511302 -0.083743095 -0.23605937 0.15777677 -0.16918166 0.1063731
0.20271733 -0.071392186 -0.03679444 0.07184327 -0.12373096 -0.08739438 -0.063609704 -0.21783604
0.0016917146 0.022413507 -0.29867393 -0.48172104 0.17440113 -0.17633152 0.11264256 -0.04347966
-0.12829177 0.17918871 -0.33016837 -0.023346363 0.2763589 -0.17017063 -0.13587217 -0.09305976
0.19747043 -0.2624981 0.01819669 0.13982405 0.07177416 0.05325845 -0.22952601 0.1388878
0.13300072 -0.02484826 -0.18924865 -0.02548409 0.2683561 -0.2403045 -0.0054140575 0.011016444

bias f4 [32]
00000000: 5abc c63c 495a 22be 8e25 183e 332e 623d
00000010: fd05 8dbe 7bb4 51be 8838 8d3d 8931 483e
00000020: 297f cfbd c273 1c3e e94f 49be fbb0 9a3e
00000030: 013a 663e 15d2 703d 7f10 103e c60d e33d
00000040: aa58 3fbe e2ea cebb fb53 ab3d 8a63 90bd
00000050: b922 9b3e 0681 f9bd 6cc1 90be 5e0b 1abe
00000060: dc50 96be 0f1e 863e a775 0dbe 88a0 6cbe
00000070: 900a 0dbd aad7 59be fa12 29be 930b 253e
0.024259735 -0.15854754 0.14858076 0.05521984 -0.2754363 -0.20479004 0.06895548 0.19550146
-0.10131676 0.15278533 -0.1965939 0.3021315 0.22483064 0.0587941 0.14068793 0.110866114
-0.18686166 -0.0063146213 0.083656274 -0.070502356 0.3029993 -0.121828124 -0.2827257 -0.15043399
-0.29358566 0.26194808 -0.13814412 -0.23108113 -0.0344339 -0.21273676 -0.16511145 0.16117696

weight f4 [32]
00000000: a2d2 843f 6cf4 6a3f 8325 943f ed62 7a3f
00000010: e072 813f 124a 743f 40c0 663f f5a0 693f
00000020: 5b91 613f 7b07 403f 57dc 793f 571f 6d3f
00000030: 60b5 803f 26c5 683f 4b96 903f 3e96 953f
00000040: b1bd 883f 98d1 7e3f 7a57 673f 1948 743f
00000050: bbe1 823f e316 603f 6658 673f 0a67 613f
00000060: e8df 803f 6745 943f 6541 8b3f 00b4 853f
00000070: 98f8 693f 08e1 793f 04f6 573f bf00 5b3f
1.037678 0.9177921 1.1573948 0.978072 1.0113182 0.9542552 0.901371 0.91261226
0.8811242 0.75011414 0.97601837 0.92625946 1.0055351 0.90925825 1.1295866 1.1686475
1.0682889 0.99538565 0.90367854 0.9542251 1.0225137 0.8753492 0.9036926 0.8804785
1.0068331 1.158368 1.0879332 1.0445557 0.9139495 0.97608995 0.84359765 0.85548013

bias f4 [32]
00000000: 6d97 18bd 80d1 dabd 37c6 35bd dca2 7dbd
00000010: 7d67 373d 72fc 11bd 8a45 0d3d 998c 53bd
00000020: 1344 17be 6c3f 423d 41f9 593d eea1 0ebe
00000030: 3b22 84bd d3e4 7bbd 3e81 d7bd fd1d d2bd
00000040: 7e5f b63c 8119 04be 0a77 acbd f5e7 0bbe
00000050: 7ac1 e8bc 3fab 44be 5044 1a3d da60 96bd
00000060: 6ea3 7fbd 8a3b 0bbe c051 c6bc 633c 303d
00000070: fbaa 87bc 4cf4 94bd 495d ddbd 7fee 43bc
-0.037253786 -0.1068449 -0.044378486 -0.061922893 0.04477643 -0.03564114 0.034490146 -0.051647756
-0.14772062 0.047423765 0.053216223 -0.13928959 -0.064518414 -0.06149752 -0.10522698 -0.10259626
0.022262331 -0.12900354 -0.084211424 -0.13662703 -0.02841257 -0.1920595 0.037662804 -0.07342692
-0.062411718 -0.13596931 -0.024208903 0.04302634 -0.016561022 -0.072731584 -0.10808808 -0.011958717

running_mean f4 [32]
00000000: d5f2 d441 0ec5 cdc1 5eb3 b0c2 d58b e341
00000010: 9ef5 04c2 37f6 ca3f 8ac0 c3c0 e1aa 89c2
00000020: df2a f741 9e4e cc41 b862 6141 9027 bec1
00000030: 07d7 3542 96ff 2d42 de2e a0c2 1f65 21c2
00000040: 9013 a1c0 12ad 6842 1697 78c2 99cc 51c0
00000050: 764f d5c1 6da6 5cc1 b29e e941 8f7f b441
00000060: 41d2 38c1 fa06 48c2 13c1 54c1 bbeb f041
00000070: 9e37 13c2 87ff 8742 0da3 0542 4fe4 e2c1
26.61857 -25.721218 -88.35033 28.443277 -33.23986 1.5856389 -6.1172533 -68.83375
30.895933 25.538387 14.086601 -23.769318 45.459988 43.499596 -80.09154 -40.34875
-5.033638 58.169014 -62.147545 -3.2781126 -26.6638 -13.790631 29.202488 22.562284
-11.5513315 -50.006813 -13.297137 30.115103 -36.804314 67.99908 33.40923 -28.361479

running_var f4 [32]
00000000: 65b4 4342 8c32 a644 1c81 0c44 13d0 2744
00000010: 3b17 1843 547c 8e44 2ce1 1544 d360 b643
00000020: 309a 6944 d3b2 2e44 2565 4643 c81a 3e43
00000030: d48b 5e43 d87a 4d44 9b45 c144 799c 5b44
00000040: 23ba 4543 14ec 4843 b45d df42 9e44 7543
00000050: 246d 5443 f351 2e43 deee 0f45 ac50 8343
00000060: 9a16 1343 bed6 6c42 b7bf 0343 9a76 2842
00000070: 93e3 a542 9863 8443 fbe5 d244 eec4 4a44
48.926167 1329.5796 562.01733 671.25116 152.09074 1139.8853 599.5183 364.75644
934.4092 698.7941 198.3951 190.10461 222.5462 821.91943 1546.1752 878.4449
197.7271 200.92218 111.683014 245.26804 212.42633 174.32011 2302.9292 262.63025
147.08829 59.20971 131.74889 42.11582 82.94448 264.77808 1687.1869 811.077

weight f4 [64, 32]
00000000: 1968 2a3d c4f1 9a3d 5f78 8b3c cccd 0fbd
00000010: f82e 2f3e f52f 08be d8ef 833d 90e6 133e
00000020: 263c 193d 31b7 4e3d 2cc5 48be 1bcf ecbd
00000030: ebd4 94bc be39 32be d2f6 c93b c54a 4cbe
00000040: 759a f0bd 49a9 92be 5bf2 d13d 7f30 0abe
00000050: c39e 27bd 31c8 d73d 906d b53d 9b74 da3a
00000060: ae76 3dbe e040 c2bd c279 713d ff1a ba3d
00000070: 4e54 cd3c 6b94 d23c f9ec 133e e75f 18be
00000080: f3c5 563e 3bc6 ffbd 94ce d2bd d2c9 24bb
00000090: 7b5e 1bbb 6c6e c7bc af8f fb3d a361 24be
000000a0: b4eb a53d 88c0 98bd 4af9 b0bd be2a 143d
000000b0: 0eee a43d bb3f 113e c16e 173e 0fd5 9abb
000000c0: 359c c63d c8d1 5bbc 69c3 083e c634 383d
000000d0: 3ced 09be 6f1e d03d 14eb fdbc fec9 56bd
000000e0: a227 59bd e0ec bdbd 9df9 3d3c 2757 63be
000000f0: 816d e9bd da69 80bd 940c 3abd 470b ca3d
00000100: 4d1c 1c3e 85c6 f3bd 54f0 5f3d c9d5 b83d
00000110: 20fd 0cbd 2f5e 85bd b01a 39bd 33de 233e
00000120: c60f 6cbd 20e9 c4b6 399e d7bd d1b4 aebd
00000130: 71b7 2e3e dd1f d0bd 6951 e73d 0faa cc3d
00000140: 7c16 3a3e 19f0 fe3b fe3e 9fbc 384a 3abd
00000150: 7e86 b0bd d51c 073e 55bf 653d 52bb bb3d
00000160: 3b16 6abd de62 963d 9f7d a53d 4374 bf3d
00000170: c78b fc3d 44d7 2b3d 44de 503d b33c 7d3d
00000180: f156 a53d 873b d5bd 6b32 a5bd 763c 45bd
00000190: 8bef e43b 9451 253d aa9c 18bd b8ad c73b
000001a0: 17c9 083e 850a 743d 6a13 be3d 6dea ddbd
000001b0: bd14 e63d bf1a 5b3d 1a28 7c3d 8925 013e
000001c0: 8ed3 fd3d 831d 46be 2f6e babd dd08 aa3d
000001d0: 8b89 22be 3ed2 923d b101 24be 71b3 f1bc
000001e0: f3e3 85bd 0ee0 053e 19af 7abd 783f 8c3e
000001f0: be86 223b 1913 2f3e e943 f23d 7555 5c3d
00000200: 0551 253b 8ef4 a4bc ed6d 63bd 7c5f ffbd
00000210: 7688 1e3d 4094 45bd 0356 9abc 6e81 b6bd
00000220: 549b 1abe 492d 693c 87fa e13c 6b88 c23c
00000230: 9f93 5abe 0473 0f3d 9654 42be 01a0 87be
00000240: 94dd b9bd 66c8 eebd e2c8 e63d a3b6 5ebe
00000250: 850f da3d 9b30 133e 0c73 3c3c c161 fb3d
00000260: 5b58 b3bd b67f fdbd 139b 0fbd 38f9 d83d
00000270: 99c4 bcbd cb80 39be 0a06 9d3d 5803 933d
00000280: 94f5 85bd f6e4 07be 1c19 9b3c 5b02 26be
00000290: 46d5 213c e6ae c3bc dc45 943d 356f 26bb
000002a0: 7e75 413c c703 75bd 3453 0fbd d7a7 6d3e
000002b0: e63a 15be 0981 d83d 6474 f13d 5fec 023e
000002c0: b7fb a2bd 3fb8 9bbc 3924 c9bc 8e4b 0c3e
000002d0: 9623 c63d 3b2b c4bb 0ec1 a13d ef9b 53be
000002e0: 324c c7bc 1f84 523d 01e1 f3bd fc74 4fbe
000002f0: 53b4 87bd a866 51be a35e 39bd 4fd3 c7bd
00000300: f04c 6c3e 2802 fcbd 7731 0cbe 22eb 27bd
00000310: 743b 1e3e 51c4 c2bd 94b1 43bd ed93 a5bd
00000320: b52f b0bd b659 06bd d56e 00bc 02f3 a23c
00000330: 1aac 6d3c 540a 313a 7ec6 4fbe 8630 0ebe
00000340: b4e8 e9bd 3137 abbd c3fd c93d e0d0 91bb
00000350: 3d49 e93c 52b1 e83d fe79 9dbd 8b8f 34bc
00000360: f789 d93d 2c79 84be 5fd4 cbbc 9654 193e
00000370: fee0 f5bd 46cc 263e 6ec9 8bbd 329f 00be
00000380: 2428 683d 8888 07be 8618 15bc 563f a03d
00000390: 1317 e3bc 838e 733d be9a 0d3e 9ec1 b03d
000003a0: 744f d1bb f5aa 8b3c 4a45 e2bd 4618 203e
000003b0: 55e5 cfbd b1fd 883d 4d82 00be 759a 0a3b
000003c0: a603 fabd 9bff 03bd f21c 54be 257d 02be
000003d0: 901c 54bd 11d1 d83d 0fcc 6a3e 9685 47bb
000003e0: f71f 713d 1743 4b3c 3460 8dbe 1a68 46be
000003f0: 7b46 8a3d 1c19 6abd a4db 94bd f8d8 123d
0.04160318 0.075656444 0.01702517 -0.035108373 0.17107761 -0.13299544 0.06442231 0.14443421
0.037410878 0.050467674 -0.19606465 -0.1156294 -0.018167933 -0.1740484 0.0061634565 -0.19950397
-0.1174821 -0.2864478 0.10251304 -0.13495062 -0.04092289 0.1053623 0.08858788 0.0016666831
-0.18502304 -0.0948503 0.058954008 0.0908718 0.025064614 0.025705537 0.14445867 -0.14880334
0.20973949 -0.12488981 -0.10293308 -0.0025144708 -0.0023707438 -0.024344645 0.12283265 -0.1605287
0.081015974 -0.074585974 -0.08641298 0.036173575 0.08053218 0.14184467 0.14788343 -0.0047251056
0.09697763 -0.013416715 0.13355793 0.044972204 -0.13469404 0.10162055 -0.030995883 -0.05243873
-0.053016312 -0.09273696 0.011595157 -0.22201215 -0.11397839 -0.062701896 -0.04542215 0.09865432
0.15245171 -0.11903099 0.054672554 0.09025151 -0.034421086 -0.06512105 -0.045191467 0.16002731
-0.05763223 -5.8683945e-06 -0.105282255 -0.08530582 0.17062165 -0.101623274 0.11294825 0.099933736
0.1817264 0.0077800867 -0.019439217 -0.045480937 -0.08619402 0.13194592 0.05609067 0.09166588
-0.057150107 0.07343076 0.08080601 0.09348347 0.12331348 0.04195334 0.05099322 0.061825465
0.080732234 -0.104117446 -0.08066257 -0.048153363 0.0069865636 0.040361002 -0.03725878 0.006093707
0.1335796 0.059580345 0.09281047 -0.10835729 0.11234424 0.053492304 0.06156168 0.12611975
0.123938665 -0.19347195 -0.09103047 0.08302472 -0.15872781 0.07169007 -0.1601627 -0.02950451
-0.065376185 0.13073751 -0.061202142 0.27392173 0.002479955 0.17097129 0.11829359 0.053792436
0.0025225293 -0.020136144 -0.055524755 -0.12469384 0.038704358 -0.048237085 -0.018839842 -0.089114055
-0.15098315 0.014231988 0.027585281 0.02374669 -0.21345375 0.035021797 -0.1897758 -0.2648926
-0.09075466 -0.11659317 0.11268784 -0.21749358 0.10647491 0.1437401 0.011502039 0.122745045
-0.08757087 -0.123778746 -0.03506 0.1059441 -0.092171855 -0.18115537 0.076671675 0.07178372
-0.06540981 -0.13270935 0.018932872 -0.16211836 0.0098775085 -0.023887109 0.07239887 -0.0025395874
0.0118077975 -0.059818055 -0.034991458 0.23208557 -0.14573249 0.105714865 0.11789778 0.12785481
-0.07958167 -0.019008754 -0.024553405 0.13700697 0.09674756 -0.005986599 0.078981504 -0.20664953
-0.024328325 0.05139553 -0.119081505 -0.2025947 -0.06626191 -0.20449317 -0.04525627 -0.09757101
0.23076224 -0.12305099 -0.13690744 -0.040995724 0.15452367 -0.09510101 -0.047776774 -0.08084855
-0.086028494 -0.0328004 -0.007838924 0.019891266 0.014506364 0.0006753553 -0.20290563 -0.13885698
-0.11421338 -0.08360136 0.09862854 -0.0044499487 0.028477306 0.11361946 -0.07689284 -0.011020551
0.10622018 -0.25873697 -0.02488154 0.14973673 -0.120058045 0.16288862 -0.06825529 -0.12560728
0.056678906 -0.13235676 -0.009100085 0.0782458 -0.027720964 0.05946208 0.1382856 0.086306795
-0.0063876454 0.017049292 -0.11048372 0.1563426 -0.101511635 0.06689013 -0.12549706 0.0021149192
-0.12207727 -0.032226186 -0.20714167 -0.12743051 -0.05178505 0.10586751 0.22929405 -0.0030444614
0.058868375 0.012406132 -0.2761246 -0.19375649 0.06751724 -0.057152852 -0.072684556 0.03585145

bias f4 [64]
00000000: a379 ef39 eec2 9f3d 8b10 1a3e 3523 1abd
00000010: d029 ae3d 123c e33c 9703 8f3d d6e2 953d
00000020: fa64 fcbc 865d a8bd 6cc6 b23d 2ab1 eabd
00000030: 29f8 c33d b180 f1bd 52eb ec3d 08cb 7f3d
00000040: 1cb8 3cbd 1e9c df3d 2ebd 70bd 7da4 f53c
00000050: 090b 503d e2f9 d63b 5d7f 363d b200 cdbb
00000060: 4024 40bd 750e db3d 3824 8b3d f904 7d3d
00000070: 20f6 fd3d 37f2 cebd b7f3 84bd d161 d1ba
00000080: 06e5 153e 14a6 27be ff0b d5bd 5dd5 29bd
00000090: 1390 0cbe 38fb 10be 038a fc3d 53e1 443c
000000a0: 26d5 febd f39a b1bc 64fa 11bc 1506 42bd
000000b0: a5a4 30be 4e6e d23d b28f e8bc 682b 2a3e
000000c0: 14a2 05be 0304 c3bd b489 f7bb c058 fbbd
000000d0: 879c 083e ec6d 023e c166 283e 1728 e7bd
000000e0: 79b5 093e 782b 073e 2c8e 68bd 3564 d33c
000000f0: e518 a73d 6945 023e 4447 25be 4878 373e
0.0004567626 0.07800852 0.15045373 -0.037631232 0.08504069 0.027738605 0.069831066 0.07318656
-0.030809868 -0.08220963 0.08729252 -0.114595726 0.09568817 -0.11792124 0.11568321 0.062449485
-0.046074018 0.10918449 -0.058774166 0.02998566 0.050791774 0.00656055 0.044555057 -0.0062561864
-0.04690957 0.10696117 0.067940176 0.06177232 0.1240046 -0.101047926 -0.064917974 -0.0015974586
0.14638147 -0.16371948 -0.10402679 -0.041463245 -0.13726835 -0.14158332 0.12331011 0.012016612
-0.124429986 -0.02168033 -0.008909795 -0.04736908 -0.17250307 0.10274945 -0.028388832 0.1661812
-0.13050109 -0.095222495 -0.0075542573 -0.12272787 0.1334096 0.12737244 0.16445448 -0.112869434
0.13448133 0.13200176 -0.05677621 0.025804618 0.08159045 0.1272179 -0.16140467 0.17916977

weight f4 [64]
00000000: cade ce3f 0eb5 ae3f 2308 c33f b6df cc3f
00000010: aa81 ba3f 9101 a53f c518 a33f f024 d63f
00000020: 61ca b93f c718 a03f 54b6 bb3f 9bea bb3f
00000030: 796a b53f d2de c23f 3943 b73f 3b3e a83f
00000040: 2481 a03f 3d28 b03f e187 d43f 5ab0 b53f
00000050: 0d68 d63f fd80 b93f ea14 b23f 7641 c83f
00000060: 4b38 bd3f 47e4 aa3f c4c2 d03f 399f c63f
00000070: a698 b53f 5227 a53f ad1a be3f 6f32 bc3f
00000080: 146f c73f 594e bc3f b7ec b33f bd9a b73f
00000090: 4e83 c43f baf5 a93f dad6 9a3f ca8b b13f
000000a0: cd48 ca3f 7a58 c93f dc2c cf3f 8ceb b93f
000000b0: b0b6 c63f 1472 cc3f d202 a33f ca9e ad3f
000000c0: b6ce ac3f 27c1 b03f 60de c93f 3b88 bd3f
000000d0: 1f1b ad3f 7045 a83f 2bf7 ad3f c51f dc3f
000000e0: 70f4 a13f 6346 ca3f dc50 d33f 5e12 bf3f
000000f0: 181a be3f f1ee c93f 5a93 ba3f d119 c43f
1.616174 1.3649004 1.5236858 1.6005771 1.457082 1.2891103 1.2741934 1.6730022
1.4514886 1.2507561 1.4665017 1.4680971 1.4173118 1.5224249 1.431739 1.3143991
1.253941 1.376228 1.6603967 1.4194443 1.6750504 1.4492489 1.3912632 1.5644977
1.4782804 1.3350915 1.6309438 1.5517341 1.418721 1.2902625 1.4851891 1.4702891
1.5580773 1.471141 1.4056615 1.4344097 1.5352571 1.3278115 1.2096817 1.3870785
1.5803467 1.5730126 1.6185565 1.4525008 1.5524502 1.5972314 1.2735236 1.3564084
1.3500583 1.3808945 1.5770988 1.4807199 1.3523902 1.3146191 1.3591055 1.7197195
1.2652721 1.580273 1.6509051 1.492748 1.4851713 1.5776044 1.4576218 1.5320379

bias f4 [64]
00000000: df95 983e 822d 833e a296 a13d ff76 903e
00000010: 4593 603e f994 c83e c094 833d 04b9 923e
00000020: f116 193e 4640 a93b 4d50 253e 9500 173e
00000030: 22f1 1f3e 975b 813e bfdd 743e 86d6 bc3e
00000040: dbb9 0c3e d53a 293e a30d df3d b009 49bc
00000050: b863 8f3e 7aa3 963e d699 f43c 6001 2b3e
00000060: d8a3 043e c1d0 c23d e6f7 393e 8f07 cc3e
00000070: 8321 b33d 81d6 383e 7f1e 003e d26a 823e
00000080: 0fd7 2d3e c61f 933e 3941 7c3e c641 06be
00000090: 20a2 ea3e 929a 413e 9e31 cf3d faf4 18ba
000000a0: 04e8 6d3d e812 953e 370e fa3d d129 b83e
000000b0: 804c 333e af3e 7f3e 109c ed3d 7cc3 8b3e
000000c0: e216 733e 6701 d83d c44f d53e 8a52 7b3e
000000d0: 4c80 243e 2b0d 523e f795 433e 217e 8f3e
000000e0: 4711 393e ca6e 7b3e e032 8e3e c3af 453e
000000f0: 8ff6 823e 6d09 4a3e 9091 093e 2023 333e
0.29801843 0.25620657 0.07890059 0.28215787 0.21931179 0.39176157 0.06424856 0.2865678
0.14950158 0.0051651327 0.16143914 0.14746316 0.15619329 0.2526519 0.23912714 0.36882418
0.13742773 0.16526349 0.10891273 -0.012270376 0.28005767 0.29421598 0.029858511 0.16699743
0.12953126 0.09512473 0.18160972 0.39849517 0.08746626 0.18050577 0.12511633 0.25472122
0.1697657 0.2873518 0.24634255 -0.13111028 0.45826817 0.1890662 0.101168856 -0.0005834844
0.058082595 0.29115987 0.122097425 0.35969403 0.17509651 0.24926256 0.11602032 0.2729758
0.23739198 0.105471425 0.4166242 0.24543205 0.16064566 0.20512836 0.19100176 0.28025916
0.18072997 0.24553981 0.2777319 0.19305329 0.25578734 0.19730158 0.13434434 0.17493868

running_mean f4 [64]
00000000: 0409 3dbe ec91 c5bb c6c4 0c3f c3a9 693e
00000010: 0422 a6be 284d 7abe 5630 42be 96d0 0fbe
00000020: ee14 c9be 7b8c dc3e 0bea bcbe 327b c0be
00000030: 38f7 a53d 3fa6 e6bd 9ee7 413c 6cc0 873e
00000040: 88da ab3e acf8 f8bd 589c 723e 6086 e4bb
00000050: aac3 883e 48ff 5bbe f178 15bf a08b 9dbe
00000060: 82ca a2be 6498 7ebd eb4e afbe 0c6a 01be
00000070: 8bd4 fa3e 53b9 583e 510d 033f 2208 0d3f
00000080: 98f2 87be 0adc c4be d123 45be b538 8b3e
00000090: 745e b8be 6653 1f3e 4eea 8abe 26fb bc3e
000000a0: 0102 13be 2da7 03be bea6 b5bc c994 6ebe
000000b0: 985d aabe b767 47bd 998f ae3e 9be8 cc3c
000000c0: c8a8 2c3d 3f88 25bd 5246 9bbe f1ed 0abd
000000d0: af17 a33d e158 953e 0569 003e cfd1 eebe
000000e0: 7a95 cd3d 4e6b 7fbe 534b d3be b5cc 2c3f
000000f0: f9e8 a8be c140 09be 358b 30be 863b 843e
-0.1846047 -0.006029358 0.5498775 0.22818665 -0.32447827 -0.24443495 -0.18963751 -0.14044413
-0.3927378 0.43075928 -0.3689731 -0.3759399 0.08103794 -0.11262178 0.011835007 0.26513994
0.33565164 -0.121568054 0.23692453 -0.0069740266 0.2671178 -0.21484101 -0.58387667 -0.30770588
-0.31795126 -0.06215705 -0.34239897 -0.1263811 0.48990282 0.21164446 0.51192194 0.55090535
-0.26552272 -0.38449126 -0.19251944 0.27191702 -0.36009562 0.15559158 -0.27131885 0.3691036
-0.14356233 -0.12856741 -0.022174235 -0.23298945 -0.3327453 -0.048682895 0.3409393 0.025013259
0.04215315 -0.040413138 -0.30327088 -0.033918325 0.07963502 0.29169372 0.12540062 -0.46644446
0.10038276 -0.24943277 -0.41268405 0.6749986 -0.32990244 -0.13403608 -0.17240603 0.25826663

running_var f4 [64]
00000000: 3e9a 8b3d 1d16 8c3d 4c33 303d 736e 893d
00000010: 03b5 3d3d 441b ff3d 0267 103e 8f3b 203d
00000020: fdd4 613d e692 2d3d 53eb 573d 291f 9a3d
00000030: 2ab4 bc3d f93d 6c3c 773b 3d3d 1d6e 153d
00000040: d874 0a3e 72c1 423d 7e67 503d fc4b 893d
00000050: 42bd 8f3d c3af 8b3c 9656 8c3d 8478 3a3d
00000060: 35a3 9d3c 633a 8b3d fd8a 9d3d 3cf2 923d
00000070: 6f8d 813d d7bb 793d f8d6 393d dce8 e23d
00000080: fb73 4f3d 6bac 6c3d 6c04 ef3d f959 343d
00000090: 438e 583d 5bf8 263d c5f0 313d 74bd 3c3d
000000a0: 2bcf 3b3d d486 bf3c dce0 733c 5636 b63d
000000b0: 53d5 c83c 84a1 cd3d 9329 b23c 37aa 9a3d
000000c0: 546c 9b3d 960c 3a3d bb97 853d b005 c33d
000000d0: 0a5b 933d 170b 1e3d d28e 563d a4bd 483d
000000e0: 4815 b43c 8e4b 543d 8a02 843d fb21 bc3d
000000f0: 8680 513d a616 0a3e 72f1 133d 95dc 913d
0.06816529 0.06840155 0.04301767 0.0671052 0.046315204 0.124563724 0.14101794 0.0391193
0.055134762 0.04237642 0.052714657 0.075254746 0.09214051 0.014419072 0.04619929 0.036481965
0.13521135 0.047547765 0.050879948 0.06703946 0.0701852 0.017051583 0.068524525 0.04552509
0.019242862 0.06798246 0.076925255 0.07175109 0.063258044 0.060970154 0.045371026 0.11079571
0.050647717 0.057781618 0.11670765 0.044031117 0.052870046 0.040764194 0.043442506 0.046079114
0.045851868 0.02337972 0.014885154 0.088970825 0.024515783 0.10040572 0.02174834 0.07551997
0.07589021 0.04542216 0.06523081 0.09522569 0.07195099 0.038584795 0.052382298 0.04900898
0.021982804 0.051829867 0.06445797 0.09186169 0.05114796 0.13485202 0.036118932 0.07122151

weight f4 [5, 64]
00000000: b66f bebe 5271 3b3e 4551 d1be 1764 1fbf
00000010: 014a 76be 007c 783e c746 8cbe 171f b53e
00000020: 7dd7 ecbc d0f5 163d 1966 9b3d c1a1 013e
00000030: 27e4 17bf 69d7 38bd c3cc c03e e19c 113e
00000040: 55de 94be 64c8 e7be 8457 2fbe f920 02bf
00000050: 705c 983d ed11 b83e 59d6 6abe b9c6 c63d
00000060: d602 04bf 5f51 02bf 59ae 1abf 9448 093e
00000070: 0ed4 c1be 551c c1bd 9b23 0abe 2aff 433e
00000080: c941 ecbe 47e7 6f3e 85b2 89be 2074 12bf
00000090: 3608 4c3e fb67 193e 5e30 33be 60cd e13d
000000a0: 7cda 1dbf 352d 15bf 38ad 02bf 525f 4b3e
000000b0: 7a73 ce3e d103 193e 10ba 7abe 6e49 483e
000000c0: ec5d 11be 7a79 d6bd 41d4 f13d 7bab f1be
000000d0: 869d 9e3e 7c86 c03e e187 b53e 3532 3f3e
000000e0: 70cc 903e 6afa 0d3e 06c9 963e b9d7 993d
000000f0: 7669 933e cbe8 c53d 5d44 d6be f798 d3be
00000100: 5325 303e 529a 803e a562 b13e a1a8 6ebe
00000110: c1fb d13e 6541 59be d446 a33e 2446 a73d
00000120: e905 ca3e 2e7f 923e 4255 11bf cf53 403e
00000130: 6c2e 6c3e 73e8 87be 50de c8bd 862b 35be
00000140: d313 89bb 04a4 8f3e f841 533e fb94 f83c
00000150: 09c8 23bf e2a1 2a3d f71f c23e 3b73 ffbe
00000160: dc1b d83e b536 843e 6862 8c3e 52d5 f8be
00000170: 0d8a 37bd ed32 c9bd 0704 99be 9992 d2be
00000180: 4a04 47bb 7907 4c3e 61c9 3f3d 1ade 2d3e
00000190: 5134 b53e 35be 0abe 060b 6d3e fc8e a63e
000001a0: b519 b23d b27b 063e 81d7 12bc 4180 03bf
000001b0: b3f7 a3be 10a2 49bc 8f30 d83c 990b 083e
000001c0: 2b91 073d b533 3bbe 0efe b7be 8e31 8c3e
000001d0: 91d8 0fbf c836 2dbe 8e56 0dbf 630c 923e
000001e0: 8273 68be 576c 09bf 0d21 553e 4c35 bbbe
000001f0: f429 553e 3081 1dbf 4960 18be 2718 363e
00000200: bb9d 2ebe 2aa9 f0be 4b91 13be 3591 7cbe
00000210: 77dd 34be 2529 00bf 82be 98be dc78 d1be
00000220: 51f4 87be c92a 33be 9dc8 bfbe ad15 c4be
00000230: bf7f d4be 9620 66be f6da cabe 0fe3 e4be
00000240: 7bea c2be e676 7dbe 90c3 dfbe 8dee efbe
00000250: 3adb 99be 05fc f0be 6b0d 2cbe eca0 abbe
00000260: 76fe d9be c251 f3bd a0f0 44be 081e 22bf
00000270: a5f9 eebe 7906 d1be 56f5 cdbe 6f79 08bf
00000280: d4b8 b4be e9fc 7ebe 6826 0abf e49d 57be
00000290: e54f 32bf 4b17 9abe 53ca 4abe 9531 fbbe
000002a0: e598 1abf cb40 e3be 45af e0bd e33e fbbe
000002b0: 6a89 9abe 9f66 c1be 6e78 6bbe c609 0dbf
000002c0: 961b dcbe e5f3 97be 2d26 0ebf 9804 e0be
000002d0: 7fca a6be 9511 70be 6ff8 d1be 629f 87be
000002e0: 491a d0be c936 cdbe d4f4 f5be 95c0 d8be
000002f0: 3ed2 f1be 568c e1be d589 53be e0ea fabe
00000300: 2c09 c03e 1317 1ebf 83ab 923e 8e9f 043f
00000310: d66b 543e 7979 73bf 358e a1bd 4b0b ecbd
00000320: dc74 a23c 702e 94be 9bf8 bf3e fdfb 3ebf
00000330: 09a5 bb3c 2fc4 003f f7cb 7fbf ece7 4abf
00000340: aad4 0dbf 592b 8a3e 3b0f a73e 1068 f33b
00000350: 2a99 153f 5db0 f5be 179f 053e 84de d33e
00000360: bb08 6f3e b332 a33d a439 b03e f038 35be
00000370: 0e02 1abf 9522 35bf d090 c3be 6304 83be
00000380: 2770 c63e c008 fabe fb20 36bf fc6e 943d
00000390: 8f30 64bf e1c1 4abf 16f4 2c3e 7235 7cbe
000003a0: 20c5 8dbe d163 9bbe fc9a 073f b539 67be
000003b0: 53da 203e cf28 b53e c029 98be 2f24 53bf
000003c0: 0e69 abbe 23be 463c 75fb 81be ce39 29be
000003d0: 6dc5 913c 403f 54bf 248d 093d 1a60 85be
000003e0: f073 cabe 2d7e 09be 5ad8 5fbe a4d0 1cbf
000003f0: 5ebc 35be 68e8 303e df35 df3e a691 99be
-0.37194604 0.18304947 -0.40882316 -0.622621 -0.24051668 0.24266052 -0.2739775 0.35375282
-0.028911347 0.03685552 0.07587833 0.1265936 -0.5933251 -0.045127306 0.3765622 0.14220001
-0.29075876 -0.45270073 -0.17123228 -0.5083156 0.07439506 0.35951176 -0.2293333 0.09705872
-0.5156683 -0.5090541 -0.60422283 0.13406593 -0.37857097 -0.09429232 -0.13490145 0.19140306
-0.4614394 0.23428069 -0.26894012 -0.5720844 0.19925007 0.14981072 -0.1749892 0.110255
-0.61661506 -0.58272105 -0.5104556 0.1986058 0.40322477 0.14942862 -0.2448504 0.19559261
-0.14195985 -0.104723886 0.11808062 -0.47201142 0.30979556 0.37602603 0.3545523 0.18671496
0.28280973 0.13865057 0.29450244 0.07511849 0.28791398 0.09663542 -0.41849032 -0.4132764
0.17201738 0.25117737 0.34645572 -0.23306514 0.41012385 -0.21216352 0.31889975 0.08167675
0.39457634 0.28612655 -0.5677072 0.1878197 0.23064584 -0.26544532 -0.09808028 -0.17692384
-0.0041832714 0.28054821 0.20630634 0.030344477 -0.63977104 0.04165829 0.37915012 -0.498926
0.42208755 0.25822988 0.27418828 -0.4860025 -0.04480939 -0.098241664 -0.29885885 -0.4112747
-0.0030367547 0.19924726 0.04682291 0.16979256 0.35391477 -0.1354912 0.23148736 0.32530963
0.086963095 0.13133124 -0.008962513 -0.51367575 -0.32024917 -0.012306705 0.026390342 0.13285674
0.033097427 -0.18281443 -0.35936016 0.27381557 -0.5618983 -0.16915429 -0.55210197 0.28525075
-0.22700313 -0.5368094 0.20813389 -0.365641 0.20816785 -0.6152525 -0.1488048 0.17782651
-0.17052357 -0.47004062 -0.14410894 -0.24664767 -0.17662607 -0.5006278 -0.29832846 -0.4091252
-0.26553586 -0.1749679 -0.37457743 -0.38297787 -0.41503713 -0.22473368 -0.3962018 -0.44704482
-0.3806952 -0.24752387 -0.4370389 -0.46861687 -0.3005007 -0.47067276 -0.16801994 -0.3352121
-0.4257695 -0.118808284 -0.19232416 -0.63327074 -0.4667484 -0.4082525 -0.4022624 -0.5331029
-0.35297263 -0.24901165 -0.53964853 -0.21056324 -0.6965316 -0.30095896 -0.19803743 -0.49061266
-0.6038955 -0.4438537 -0.1097093 -0.49071416 -0.30182964 -0.37773606 -0.22995159 -0.5509304
-0.42989796 -0.29678264 -0.55527 -0.43753505 -0.32576367 -0.23444207 -0.41009852 -0.26488787
-0.40645054 -0.4008086 -0.48038352 -0.42334428 -0.47230715 -0.4405238 -0.20658047 -0.4900732
0.37506998 -0.6175396 0.28646478 0.5180596 0.20744261 -0.9510723 -0.07888452 -0.115255915
0.019831114 -0.2894168 0.37494358 -0.74603254 0.022905843 0.5029935 -0.999206 -0.79260135
-0.55402625 0.26986197 0.32628807 0.0074281767 0.58436835 -0.47986117 0.13048969 0.41380703
0.23343174 0.079686545 0.34418976 -0.17697501 -0.60159385 -0.70755893 -0.3819642 -0.25589284
0.3875744 -0.488348 -0.71144074 0.07247731 -0.89136595 -0.79202086 0.16889986 -0.24629763
-0.27689457 -0.3034959 0.5297086 -0.22580607 0.15708284 0.35382697 -0.29719353 -0.82477087
-0.33478588 0.012130293 -0.2538716 -0.16525957 0.017794335 -0.8290901 0.033581868 -0.26049882
-0.39541578 -0.13427038 -0.21859875 -0.6125586 -0.17747638 0.17276156 0.43595788 -0.29993933

bias f4 [5]
00000000: a1df 343e cea9 633d dddc e3be 7d4c 2abd
00000010: 7041 173d
0.17663433 0.05558186 -0.44504443 -0.04157685 0.03692764
