model/reinforced.pt (torch, 221675 bytes, 26 tensors)

weight f4 [64, 10]
0.03597297 0.20678414 -0.265508 -0.053324595 -0.11689487 0.0974497 0.09120282 -0.26942262
-0.28575864 0.29777536 -0.27624717 0.10342347 -0.28955925 -0.277049 -0.021539308 0.0060575944
-0.042432997 -0.18538992 0.0156232985 0.15191515 -0.042071056 -0.08095364 0.16429085 -0.086136244
0.21039708 0.26514938 0.15399852 0.28945357 0.1994313 -0.2719235 -0.30950224 0.133142
-0.021147812 0.17837654 -0.31853178 -0.09363306 -0.2802615 0.1797295 0.083028555 -0.21995647
-0.09920096 -0.10112742 0.20322089 0.04940992 0.11896644 0.11197123 -0.1795475 -0.11979835
-0.081797734 -0.076827474 -0.023010721 0.054699384 0.10475039 -0.07764076 0.12327105 -0.28311792
0.17734751 0.13454516 -0.08637536 0.031457014 0.24888861 0.15797451 0.25597936 0.11691807
0.23767516 -0.30556 -0.09594627 -0.2797106 -0.072438054 0.2001109 0.1502149 0.03008098
0.11666228 -0.0657388 -0.21400684 0.18138309 0.27912426 0.04049457 0.12676446 0.006804719
0.18832527 -0.10104554 -0.27339286 -0.11286168 -0.10473362 -0.11396138 0.31580773 0.15161172
0.20746784 0.28873992 0.05916473 0.04082955 -0.15411831 0.030979967 -0.25706702 0.20935631
0.27219635 0.010826722 0.01847131 0.18562388 -0.1607644 0.13234952 0.24314651 -0.29209337
0.3161884 -0.09735532 -0.2524236 -0.3013797 -0.07584719 0.23340169 0.2909111 -0.14336798
-0.1829555 -0.13094397 -0.15945633 -0.17569138 -0.1604464 -0.23753582 0.0114815505 -0.23471315
0.25586078 0.18711306 -0.07557984 0.123924084 -0.081384845 0.26733744 0.20826757 -0.087856926
0.021258093 -0.19000237 -0.21327446 -0.045409106 0.17786458 0.1691153 0.20902212 0.10570035
0.021989852 -0.14446501 -0.23737742 0.14235367 -0.2278309 0.23435597 0.28197107 -0.034058336
-0.005566787 -0.05630512 0.023283048 -0.20665419 0.2901775 0.09325482 -0.03690261 -0.31447646
-0.02183303 -0.29127374 -0.3185541 -0.08114326 0.046826687 0.3055113 0.18594795 -0.15760365
-0.20539127 0.30385762 0.17078845 -0.121913664 -0.27223012 -0.19192846 0.24650052 0.011422932
-0.051665127 0.26780233 0.22357087 -0.17163827 -0.022150442 -0.0531044 -0.1316827 -0.20148501
0.24491274 0.10453654 -0.25044805 0.20855239 0.10354446 -0.19144267 0.25394097 0.042048175
-0.31240228 -0.02382316 0.067139864 -0.13711512 0.2113539 0.07241905 0.15731329 0.09767278
-0.15544613 -0.2986719 -0.30657953 0.21280661 -0.119116314 -0.25926343 0.16450728 0.216667
-0.29122353 0.17991802 0.24142617 0.040789086 -0.119275995 -0.2275819 0.0959694 0.17099994
0.058593165 0.24176507 0.07709756 -0.18568939 0.28181392 -0.13264017 0.2439662 -0.19723333
0.0124101695 0.16461532 0.26578698 0.25359896 0.23666891 -0.0016786059 0.02027981 0.062303253
-0.19313338 -0.06659409 -0.19565125 -0.1722164 0.21343924 -0.24171111 -0.037689716 0.031555314
0.049841836 -0.17386705 -0.14689891 0.20355295 -0.29692233 -0.12516242 0.12400029 -0.032139417
0.22309536 0.14705418 0.16870816 -0.037215818 0.23958302 -0.1812611 -0.20630012 -0.27565485
0.04911755 -0.018534305 0.24422248 0.1668851 0.04295128 -0.059155297 0.1256387 -0.26289916
00000000: 6558 133d 39bf 533e aaf0 87be e46a 5abd
00000010: 9466 efbd b593 c73d 8bc8 ba3d c3f1 89be
00000020: f54e 92be 0376 983e 4570 8dbe afcf d33d
00000030: 1c41 94be 5ed9 8dbe 3473 b0bc c97e c63b
00000040: 39ce 2dbd dbd6 3dbe ddf8 7f3c a58f 1b3e
00000050: b352 2cbd 06cb a5bd dc3b 283e 3368 b0bd
00000060: 5572 573e a9c1 873e cab1 1d3e 4233 943e
00000070: b837 4c3e 8f39 8bbe 1477 9ebe 6056 083e
00000080: 2d3e adbc 57a8 363e 9916 a3be b1c2 bfbd
00000090: 6f7e 8fbe 030b 383e e00a aa3d 453c 61be
000000a0: df29 cbbd e51b cfbd 2319 503e 0e62 4a3d
000000b0: ada4 f33d 2c51 e53d 4ddb 37be d658 f5bd
000000c0: 9285 a7bd b957 9dbd fb80 bcbc 760c 603d
000000d0: 5f87 d63d 1e02 9fbd 8875 fc3d d5f4 90be
000000e0: 969a 353e 35c6 093e 91e5 b0bd 12d9 003d
000000f0: a8dc 7e3e 12c4 213e ba0f 833e be72 ef3d
00000100: 1e61 733e 5c72 9cbe 7a7f c4bd 3a36 8fbe
00000110: 675a 94bd dfe9 4c3e efd1 193e 636c f63c
00000120: a2ec ee3d 10a2 86bd 9c24 5bbe 7dbc 393e
00000130: 60e9 8e3e a2dd 253d 8bce 013e 1ffa de3b
00000140: 57d8 403e f7f0 cebd 26fa 8bbe 0624 e7bd
00000150: 957e d6bd 9664 e9bd 8db1 a13e 1a40 1b3e
00000160: 7372 543e b8d5 933e b756 723d e33c 273d
00000170: 31d1 1dbe b3c9 fd3c 4a9e 83be 8061 563e
00000180: 525d 8b3e 9062 313c 2551 973c 3014 3e3e
00000190: 6c9f 24be a286 073e 66fb 783e 438d 95be
000001a0: 72e3 a13e 3a62 c7bd ab3d 81be 714e 9abe
000001b0: c655 9bbd da00 6f3e 4df2 943e 0ecf 12be
000001c0: b058 3bbe 2d16 06be 8548 23be 71e8 33be
000001d0: 104c 24be 973c 73be 1d1d 3c3c a558 70be
000001e0: 2f00 833e 919a 3f3e 9ac9 9abd e9cb fd3d
000001f0: 19ad a6bd 74e0 883e 1844 553e 55ee b3bd
00000200: 7425 ae3c fb8f 42be 9f64 5abe e6fe 39bd
00000210: 2222 363e 902c 2d3e e509 563e 6d79 d83d
00000220: 1024 b43c a3ee 13be 1113 73be 29c5 113e
00000230: 814c 69be 03fb 6f3e 835e 903e c180 0bbd
00000240: 9869 b6bb 33a0 66bd 17bc be3c 289d 53be
00000250: 2592 943e 62fc be3d 3127 17bd 0f03 a1be
00000260: 2fdb b2bc d521 95be 8619 a3be 702e a6bd
00000270: 57cd 3f3d fa6b 9c3e 2469 3e3e da62 21be
00000280: 1752 52be 3a93 9b3e 2be3 2e3e dfad f9bd
00000290: bf61 8bbe e588 44be a26a 7c3e 4027 3b3c
000002a0: d09e 53bd 631d 893e c3ef 643e f1c1 2fbe
000002b0: d874 b5bc 0084 59bd d4d7 06be 1652 4ebe
000002c0: 68ca 7a3e 4117 d63d ba3a 80be c28e 553e
000002d0: 1e0f d43d 8c09 44be 8d04 823e b53a 2c3d
000002e0: 31f3 9fbe ca28 c3bc a080 893d e867 0cbe
000002f0: 286d 583e 7050 943d bc16 213e ab08 c83d
00000300: 452d 1fbe 86eb 98be fef7 9cbe fae9 593e
00000310: 41f3 f3bd 2dbe 84be 9974 283e f4dd 5d3e
00000320: 401b 95be 6e3c 383e 6c38 773e 7512 273d
00000330: f946 f4bd 3b0b 69be 9b8b c43d 9c1a 2f3e
00000340: 63ff 6f3d 4391 773e 53e5 9d3d 5c25 3ebe
00000350: ea49 903e d3d2 07be 47d2 793e 89f7 49be
00000360: 0654 4b3c eb90 283e 3b15 883e b9d7 813e
00000370: 5659 723e ab04 dcba d821 a63c b231 7f3d
00000380: c2c4 45be 7b62 88bd cd58 48be 7f59 30be
00000390: d18f 5a3e 1e83 77be 8860 1abd 2540 013d
000003a0: f426 4c3d 340a 32be ab6c 16be 2f70 503e
000003b0: 3406 98be 942a 00be ddf3 fd3d 9fa4 03bd
000003c0: 1c73 643e 5f95 163e d5c1 2c3e 9d6f 18bd
000003d0: 4055 753e 839c 39be 5740 53be a222 8dbe
000003e0: 7c2f 493d 41d5 97bc 7515 7a3e ede3 2a3e
000003f0: aeed 2f3d d34c 72bd 6ea7 003e b89a 86be

bias f4 [64]
-0.024109917 0.14931694 -0.29447165 0.0731763 -0.031809524 0.19650824 0.14035305 -0.24551949
0.22657284 0.0073631234 -0.17441146 -0.1794067 -0.20903972 0.004291311 0.11827741 0.004019453
0.03605229 0.31536 -0.29001662 -0.17408203 -0.1005144 0.23981214 0.035648577 -0.2724928
-0.047902472 0.16742997 -0.07889567 0.12820204 0.13173923 -0.0011541967 0.13556536 0.005846204
-0.01968148 0.22274317 0.108151205 0.14086704 -0.2745782 0.2852108 0.086269744 -0.15403569
-0.06959379 -0.21416388 -0.23689617 -0.11893137 -0.10384945 -0.09507874 0.28058565 0.025530152
0.2904464 -0.26832476 -0.0874716 -0.2955302 0.15284543 -0.018187106 0.02934453 0.18599151
-0.13201515 0.28402784 0.31633422 0.30754447 -0.24452035 -0.30177712 -0.11327245 0.31314576
00000000: 2982 c5bc 8ae6 183e fdc4 96be 75dd 953d
00000010: b44a 02bd 7539 493e b6b8 0f3e 7669 7bbe
00000020: b602 683e 5b46 f13b eb98 32be 64b6 37be
00000030: 820e 56be 209e 8c3b 6d3b f23d 9eb5 833b
00000040: 91ab 133d de76 a13e 0f7d 94be 8f42 32be
00000050: 7eda cdbd 5091 753e 3e04 123d 2d84 8bbe
00000060: 6235 44bd c372 2b3e 0e94 a1bd 6547 033e
00000070: a6e6 063e 6a48 97ba a5d1 0a3e 8391 bf3b
00000080: 0e3b a1bc c916 643e 617e dd3d 733f 103e
00000090: 8495 8cbe 2607 923e 31ae b03d 88bb 1dbe
000000a0: 3087 8ebd c74d 5bbe e994 72be 4a92 f3bd
000000b0: 05af d4bd a4b8 c2bd eca8 8f3e 9c24 d13c
000000c0: 64b5 943e dd61 89be 4f24 b3bd bc4f 97be
000000d0: 8383 1c3e 20fd 94bc f163 f03c 8f74 3e3e
000000e0: fb2e 07be 196c 913e 8ff6 a13e 7876 9d3e
000000f0: 8b63 7abe 8882 9abe 63fb e7bd a454 a03e

weight f4 [64]
0.9961165 0.99595857 0.9999132 0.9992906 0.9974364 1.0006382 1.0001606 1.0048783
0.9979939 1.0004497 0.9992194 1.0018082 1.0024343 1.0019289 1.0030417 1.002797
1.002254 1.0006418 0.99417496 1.0026106 1.0015153 0.9979197 0.9982139 1.000192
1.0025663 1.0138773 1.0072615 0.9960214 0.99195564 0.9974616 1.0004517 0.9963419
1.0024778 0.9986351 1.0000935 0.9917678 0.9973273 0.9966982 1.004596 0.9992725
1.0029702 0.9988313 1.0022011 0.9975728 0.9966724 0.99961853 1.0077372 1.0041782
0.9985308 0.9938944 1.0027746 1.0003107 1.0023311 1.0003936 0.99548143 0.9958673
1.0038483 1.0041577 1.0004289 1.0013074 1.0002517 0.99798757 0.995066 1.0002657
00000000: 7e01 7f3f 24f7 7e3f 50fa 7f3f 82d1 7f3f
00000010: fe57 7f3f ea14 803f 4305 803f da9f 803f
00000020: 877c 7f3f bc0e 803f d8cc 7f3f 403b 803f
00000030: c44f 803f 353f 803f ac63 803f a75b 803f
00000040: dc49 803f 0815 803f 4082 7e3f 8b55 803f
00000050: a731 803f aa77 7f3f f28a 7f3f 4b06 803f
00000060: 1854 803f bbc6 813f f2ed 803f 42fb 7e3f
00000070: cef0 7d3f a559 7f3f cd0e 803f 4310 7f3f
00000080: 3151 803f 8da6 7f3f 1003 803f 7fe4 7d3f
00000090: d850 7f3f 9d27 7f3f 9a96 803f 53d0 7f3f
000000a0: 5461 803f 68b3 7f3f 2048 803f ee60 7f3f
000000b0: ec25 7f3f 00e7 7f3f 88fd 803f e988 803f
000000c0: b79f 7f3f dd6f 7e3f eb5a 803f 2e0a 803f
000000d0: 634c 803f e60c 803f dfd7 7e3f 29f1 7e3f
000000e0: 1a7e 803f 3d88 803f 0e0e 803f d72a 803f
000000f0: 3f08 803f 1d7c 7f3f a5bc 7e3f b508 803f

bias f4 [64]
-0.0037713663 -0.004151299 -0.00022615593 0.0046501197 -0.00076088135 0.0013278854 -0.0003198068 0.002336619
0.00012568866 0.0020280855 -0.0071999 -0.0012624582 0.006244348 0.0013533925 0.0019644958 0.006745231
0.0028934618 0.0024471912 -0.007078762 0.0014550751 -0.0022178183 0.0008478103 0.0006956487 0.0022136355
0.0027538855 0.002141334 0.011525212 -0.0046937056 -0.0037852807 0.0041385265 0.0016971454 -0.004964369
0.0019044299 -0.0017484239 0.001143178 0.00077285874 -0.00024831327 0.0019664788 -5.829776e-05 0.0037359258
0.002420531 -0.0006452461 0.0022724124 -0.0036051767 -0.000109584296 0.00057687203 0.00727957 0.0067897746
-0.006096503 0.002046517 0.004966151 -0.00055177335 0.0003728988 0.0074994205 0.00082858116 -0.0072364844
0.002862899 0.0039157746 0.005584188 -0.00042097218 0.0018102875 0.00035010919 -0.006124166 -0.0002795239
00000000: 0729 77bb 9f07 88bb 4524 6db9 0860 983b
00000010: e275 47ba 710c ae3a beab a7b9 f621 193b
00000020: 4bcb 0339 a1e9 043b 24ed ebbb 1179 a5ba
00000030: 639d cc3b 5164 b13a c5be 003b 1907 dd3b
00000040: 3ca0 3d3b 0e61 203b f6f4 e7bb 38b8 be3a
00000050: d158 11bb 963f 5e3a 325c 363a a412 113b
00000060: 887a 343b 9f55 0c3b 3ed4 3c3c a8cd 99bb
00000070: 7912 78bb 7a9c 873b c072 de3a 25ac a2bb
00000080: 109e f93a 5f2b e5ba b0d6 953a ac99 4a3a
00000090: 0b30 82b9 0ae0 003b be84 74b8 6fd6 743b
000000a0: c5a1 1e3b bc25 29ba c1ec 143b d444 6cbb
000000b0: 9fd0 e5b8 3a39 173a 7689 ee3b c27c de3b
000000c0: 2dc5 c7bb dc1e 063b 18bb a23b e2a4 10ba
000000d0: a181 c339 b3bd f53b 2435 593a 0820 edbb
000000e0: 7a9f 3b3b e64f 803b 90fb b63b eeb5 dcb9
000000f0: 2b47 ed3a dc8e b739 3aad c8bb 108d 92b9

running_mean f4 [64]
35.15731 15.48324 -82.091805 47.24479 13.244136 -12.996827 33.60149 -39.589905
-64.4191 -37.337112 18.345062 101.13907 4.5195603 -20.303596 -23.532715 -12.02295
-10.788955 -0.14076257 -7.19821 24.605783 -41.371456 -82.515564 65.54461 28.670523
47.793804 59.48424 -57.748665 77.03164 25.928438 15.521849 -37.440357 -31.208776
49.027073 -8.749374 -30.78976 2.7673044 -4.689411 4.269423 14.478556 -25.885712
-24.582066 73.42432 17.513226 26.920256 51.72157 -3.872693 -23.802698 69.98957
-20.383682 20.60092 68.21735 12.301965 -89.35099 -55.721687 11.868725 -18.712803
42.431953 -29.94611 39.901394 -14.342919 -103.18631 -0.2158457 -8.635219 23.02811
00000000: 16a1 0c42 5abb 7741 012f a4c2 aafa 3c42
00000010: fbe7 5341 01f3 4fc1 ed67 0642 105c 1ec2
00000020: 94d6 80c2 3459 15c2 b0c2 9241 3447 ca42
00000030: 3da0 9040 c46d a2c1 0043 bcc1 015e 40c1
00000040: 8f9f 2cc1 1024 10be bc57 e6c0 a5d8 c441
00000050: 5f7c 25c2 f807 a5c2 d716 8342 3b5d e541
00000060: db2c 3f42 ddef 6d42 a2fe 66c2 3310 9a42
00000070: 716d cf41 7e59 7841 edc2 15c2 93ab f9c1
00000080: b91b 4442 70fd 0bc1 6e51 f6c1 841b 3140
00000090: a80f 96c0 1d9f 8840 2aa8 6741 f015 cfc1
000000a0: 12a8 c4c1 40d9 9242 161b 8c41 af5c d741
000000b0: e3e2 4e42 34da 77c0 ed6b bec1 a9fa 8b42
000000c0: c811 a3c1 afce a441 486f 8842 d9d4 4441
000000d0: b5b3 b2c2 02e3 5ec2 4ce6 3d41 d2b3 95c1
000000e0: 52ba 2942 a291 efc1 079b 1f42 997c 65c1
000000f0: 645f cec2 a806 5dbe db29 0ac1 9239 b841

running_var f4 [64]
270.8781 922.5247 440.6878 283.79712 318.59457 49.087566 360.11462 30.956882
586.9753 69.037994 95.85725 669.7081 125.430504 676.58673 159.13736 870.31714
453.79587 234.03265 299.48187 780.04425 317.35703 56.51685 125.50277 85.91007
91.20218 43.709656 20.167768 173.74734 426.54608 439.91296 788.72406 185.06805
451.322 727.7812 295.9099 117.48971 1001.287 638.58234 684.06946 726.06964
808.4576 589.8949 65.15148 392.41428 712.035 303.69318 567.42596 224.36403
56.125618 44.132942 194.83533 158.32863 912.8398 515.2848 341.3669 170.41667
459.74344 208.10942 20.792543 97.71724 49.569294 485.3127 781.1571 944.5963
00000000: 6670 8743 95a1 6644 0a58 dc43 08e6 8d43
00000010: 1b4c 9f43 ab59 4442 ac0e b443 b2a7 f741
00000020: 6bbe 1244 7413 8a42 e9b6 bf42 526d 2744
00000030: 6bdc fa42 8d25 2944 2a23 1f43 4c94 5944
00000040: dfe5 e243 5c08 6a43 aebd 9543 d502 4344
00000050: b3ad 9e43 4111 6242 6b01 fb42 f5d1 ab42
00000060: 8467 b642 b0d6 2e42 9757 a141 52bf 2d43
00000070: e645 d543 dcf4 db43 572e 4544 6c11 3943
00000080: 37a9 e143 fff1 3544 78f4 9343 bbfa ea42
00000090: 5e52 7a44 45a5 1f44 7204 2b44 7584 3544
000000a0: 491d 4a44 4679 1344 8f4d 8242 0735 c443
000000b0: 3d02 3244 bad8 9743 43db 0d44 315d 6043
000000c0: a280 6042 2288 3042 d8d5 4243 2154 1e43
000000d0: bf35 6444 3ad2 0044 f7ae aa43 ab6a 2a43
000000e0: 29df e543 031c 5043 2157 a641 3a6f c342
000000f0: f546 4642 07a8 f243 0e4a 4344 2a26 6c44

weight f4 [128, 64]
-0.01915129 0.02853556 0.07944876 0.11563516 0.038714547 -0.0040446687 -0.11429678 0.04815748
-0.04274603 0.057374023 0.0359929 0.10407634 -0.100935094 0.115381196 0.10350225 0.05591152
-0.0931916 -0.019616494 0.06618248 0.06294918 -0.07971045 0.05194109 -0.037772875 -0.0055356417
-0.08061117 0.12174928 0.08147887 0.00578966 -0.02341056 0.03870949 0.04577788 -0.008690581
0.104111455 -0.025158148 -0.05566163 -0.048297063 -0.0845811 0.08683089 -0.017266164 -0.08303692
-0.042118054 0.044798143 0.07517178 0.04962342 0.039776362 -0.039260052 -0.098963134 0.029158156
0.010080075 0.020024419 0.058648944 0.017835384 0.06597049 0.04651656 0.03017957 -0.044156283
0.08707292 -0.052890934 -0.045369674 -0.119332656 0.04538777 0.019526344 0.04904654 0.0026320063
0.0415522 0.07576622 0.11828295 -0.05949008 0.032434553 0.0017418116 0.08402819 -0.029672638
0.1041274 -0.0008800628 0.1140162 0.11206186 0.10774265 -0.11370859 -0.05039482 0.05899817
-0.047823824 0.023510272 0.045079038 0.1132172 0.03829507 -0.023621418 -0.045031454 0.025622793
0.06553479 0.0866551 -0.11677285 0.07897239 -0.016072363 0.09416443 -0.026053134 -0.081584126
0.011211518 0.05736682 0.051405896 0.037428495 0.061966028 -0.08422487 0.08949135 -0.054294806
-0.072297595 0.09429858 -0.107451074 0.059358384 -0.10644816 0.08752588 0.056613367 -0.05614559
-0.05241964 -0.06965937 0.027776783 -0.010901936 -0.0022023476 0.08042645 -0.0014703136 0.05688099
0.07531809 0.052899133 -0.06754047 -0.08256457 0.06598712 0.031615313 0.06781608 -0.08856853
-0.04484181 -0.12253959 -0.03333386 0.1126928 0.095280595 -0.10641982 0.041525383 -0.05581685
-0.035666764 -0.114350334 0.012586188 -0.035516217 0.023582874 -0.029641649 -0.07405247 -0.040729556
-0.091367215 0.09501604 0.0014155938 -0.11709772 -0.08857684 -0.11288679 -0.055459596 -0.03859425
0.021296546 0.119189955 0.0574379 0.11024442 0.028493669 0.09984344 0.08682938 -0.0047434503
0.05987556 0.005703168 -0.04506004 -0.009440716 0.0018357852 0.09318614 -0.047730234 -0.10174645
-0.119321704 -0.109721996 -0.02924733 -0.04745065 -0.08958639 -0.11198753 0.078794345 0.06042383
-0.09983195 0.095218234 -0.04780648 -0.014773126 -0.07665561 0.09404427 0.12325913 -0.09376238
0.10259166 -0.1252812 0.11969326 -0.011648382 0.042646073 0.076265745 0.10692358 -0.041650128
-0.058502592 0.02646288 0.02697447 0.07542791 0.08148571 -0.115059584 -0.078454934 0.073920995
0.081402905 -0.0033776881 -0.0073716654 -0.057552975 0.040070985 -0.07983175 0.09654165 -0.08776608
-0.06819982 -0.0013540416 -0.10149477 0.01528745 0.073717766 -0.0103849005 -0.07303646 -0.09723247
-0.0076624895 -0.020731138 0.05477461 0.007381716 0.002107714 0.0010210727 0.017628074 0.011206392
-0.0047167693 0.052425515 0.11445376 0.0052811466 0.10922002 0.047886413 0.007931373 -0.06336696
0.003958476 -0.07212092 0.07737338 -0.04913826 -0.02256901 -0.004239697 0.057718787 0.11407055
0.049390487 0.027700437 0.1319626 -0.08798493 0.106307864 -0.0031876985 0.042306088 0.096395455
0.12333548 -0.068633 -0.11647075 -0.027911067 0.101025686 0.024603428 -0.09058162 0.08591306
00000000: 2be3 9cbc 68c3 e93c 08b6 a23d 20d2 ec3d
00000010: 2593 1e3d 2489 84bb 6e14 eabd c740 453d
00000020: 7616 2fbd 0601 6b3d 4b6d 133d fa25 d53d
00000030: 0fb7 cebd fa4c ec3d fdf8 d33d 7a03 653d
00000040: 3ddb bebd c5b2 a0bc ae8a 873d 80eb 803d
00000050: 3b3f a3bd 2ec0 543d bbb7 1abd 5464 b5bb
00000060: 7817 a5bd b057 f93d 65de a63d 30b7 bd3b
00000070: 81c7 bfbc d88d 1e3d 9681 3b3d f062 0ebc
00000080: 6338 d53d 7618 cebc 73fd 63bd 24d3 45bd
00000090: db38 adbd 65d4 b13d c571 8dbc 430f aabd
000000a0: fb83 2cbd 427e 373d aaf3 993d ed41 4b3d
000000b0: 8aec 223d 26cf 20bd 2fad cabd 16dd ee3c
000000c0: e626 253c 400a a43c e039 703d 831b 923c
000000d0: 891b 873d 2688 3e3d 253b f73c 38dd 34bd
000000e0: 4953 b23d 2aa4 58bd 8dd5 39bd ae64 f4bd
000000f0: 87e8 393d b6f5 9f3c 06e5 483d bd7d 2c3b
00000100: a432 2a3d 522b 9b3d 553e f23d dfab 73bd
00000110: 18da 043d 804d e43a f916 ac3d 0814 f3bc
00000120: bf40 d53d 04b4 66ba 5381 e93d b080 e53d
00000130: 2ea8 dc3d 0de0 e8bd cc6a 4ebd 11a8 713d
00000140: eae2 43bd 9d98 c03c cca4 383d 6bde e73d
00000150: 4bdb 1c3d b481 c1bc e772 38bd e4e6 d13c
00000160: 1b37 863d 3b78 b13d 9b26 efbd 47bc a13d
00000170: 30aa 83bc 48d9 c03d 626d d5bc 9415 a7bd
00000180: 84b0 373c 78f9 6a3d fd8e 523d 9f4e 193d
00000190: 17d0 7d3d 177e acbd 3e47 b73d 3b64 5ebd
000001a0: c310 94bd 9d1f c13d 4f0f dcbd c721 733d
000001b0: 7e01 dabd c540 b33d 6be3 673d ebf8 65bd
000001c0: fab5 56bd 92a9 8ebd 238c e33c 099e 32bc
000001d0: 4355 10bb 9fb6 a43d 8ab7 c0ba 0afc 683d
000001e0: 5f40 9a3d c3ac 583d a852 8abd 9d17 a9bd
000001f0: 4124 873d 0f7f 013d 28e3 8a3d 6b63 b5bd
00000200: 0cac 37bd 09f6 fabd 1689 08bd 7ccb e63d
00000210: 7922 c33d a2f2 d9bd 8516 2a3d 36a0 64bd
00000220: 5017 12bd 8230 eabd 4c36 4e3c 7479 11bd
00000230: df30 c13c 0bd3 f2bc d2a8 97bd 09d4 26bd
00000240: bc1e bbbd c597 c23d 728b b93a eed0 efbd
00000250: c667 b5bd 3031 e7bd 9a29 63bd 0115 1ebd
00000260: 1876 ae3c dd19 f43d 0144 6b3d d4c7 e13d
00000270: 8e6b e93c b87a cc3d 9ad3 b13d f26e 9bbb
00000280: 1340 753d a4e1 ba3b e090 38bd 3cad 1abc
00000290: bb9e f03a 60d8 be3d c780 43bd 7160 d0bd
000002a0: f05e f4bd edb5 e0bd 1998 efbc 9d5b 42bd
000002b0: 1279 b7bd b859 e5bd ee5e a13d fa7e 773d
000002c0: b274 ccbd c701 c33d bad0 43bd fb0a 72bc
000002d0: 9efd 9cbd 489a c03d 486f fc3d 7e06 c0bd
000002e0: 941b d23d b749 00be bd21 f53d dbd8 3ebc
000002f0: a6ad 2e3d 3731 9c3d c0fa da3d 5399 2abd
00000300: 6aa0 6fbd afc8 d83c 90f9 dc3c f379 9a3d
00000310: fbe1 a63d 5ca4 ebbd fbac a0bd e463 973d
00000320: 91b6 a63d 345c 5dbb 038e f1bb abbc 6bbd
00000330: 7921 243d d47e a3bd a1b7 c53d b4be b3bd
00000340: 59ac 8bbd 197a b1ba 7ddc cfbd 3678 7a3c
00000350: 57f9 963d 6e25 2abc 2494 95bd d121 c7bd
00000360: 9f15 fbbb 59d4 a9bc 575b 603d 52e2 f13b
00000370: 9321 0a3b 84d5 853a c068 903c 049b 373c
00000380: 218f 9abb 23bc 563d bc66 ea3d 780d ad3b
00000390: bfae df3d 8b24 443d 97f2 013c 89c6 81bd
000003a0: 1ab6 813b 22b4 93bd ef75 9e3d 3345 49bd
000003b0: a5e2 b8bc 28ed 8abb 896a 6c3d d29d e93d
000003c0: ae4d 4a3d 07ec e23c 3421 073e 7131 b4bd
000003d0: f0b7 d93d b5e8 50bb 2649 2d3d fb6a c53d
000003e0: 5097 fc3d 758f 8cbd 3788 eebd c0a5 e4bc
000003f0: 8ee6 ce3d 218d c93c db82 b9bd 30f3 af3d

bias f4 [128]
-0.11377046 -0.006394444 0.06579924 -0.02206732 0.041819453 0.004706878 0.07197907 0.07404658
-0.04648683 0.037189823 -0.0013031339 -0.007536323 0.080005236 -0.110733084 0.051265027 0.0392017
-0.04270641 0.0007842961 -0.06753539 -0.08696008 0.11207147 0.02920811 -0.04345379 0.05096252
-0.080634415 -0.083573684 0.107230924 0.044547938 0.052608203 -0.052374654 -0.090579495 -0.048209175
0.07567593 0.08648798 -0.12383191 -0.06554113 0.005685285 0.08609445 -0.08895519 0.124141954
0.03243344 -0.040549032 -0.09648002 -0.04259035 0.075320914 0.122006476 0.008487582 0.005137175
-0.03125925 -0.094987325 0.03334374 -0.09680696 -0.055402894 0.12137764 0.027138324 0.074212655
-0.045541074 0.0959312 0.115679234 -0.043837857 0.060710456 -0.026153872 -0.010826888 -0.017712407
0.06327882 0.056547813 0.0475855 0.07021107 0.0899821 -0.01460212 -0.094332725 -0.10276914
0.12082607 -0.04245134 0.06992812 0.118785955 -0.1233408 -0.06736061 -0.09345116 -0.07263416
-0.11275939 -0.030205362 0.010818993 -0.03821245 -0.02402737 -0.018064562 -0.020273818 0.10857822
0.035483006 0.013191681 -0.106292404 -0.018719701 0.08987213 -0.051227666 0.080635995 -0.090367645
0.12214317 0.019891413 -0.013078222 0.12224952 0.022606604 -0.091607094 -0.02023696 -0.11806123
-0.0643171 0.0129596405 -0.098720446 -0.014098866 -0.058534347 0.0827489 -0.09074235 0.06887858
-0.097091034 -0.07684826 -0.016501484 -0.12108912 -0.020118903 0.11231417 -0.07055488 0.1071743
0.046322476 -0.081758365 -0.043524664 0.120675884 -0.08352241 0.057642207 -0.10282884 0.04335208
00000000: 7d00 e9bd 7c88 d1bb c0c1 863d 86c6 b4bc
00000010: e04a 2b3d 283c 9a3b c369 933d bca5 973d
00000020: f968 3ebd 5b54 183d ebcd aaba 42f3 f6bb
00000030: c9d9 a33d 07c8 e2bd 47fb 513d f691 203d
00000040: ebec 2ebd 3899 4d3a ff4f 8abd 2018 b2bd
00000050: ba85 e53d d945 ef3c 9afc 31bd 13be 503d
00000060: a823 a5bd ae28 abbd e39b db3d e677 363d
00000070: b37b 573d ce86 56bd be81 b9bd fc76 45bd
00000080: fbfb 9a3d 9c20 b13d 969b fdbd 6e3a 86bd
00000090: a14b ba3b 4952 b03d 232e b6bd 233e fe3d
000000a0: edd8 043d be16 26bd 5197 c5bd 3873 2ebd
000000b0: da41 9a3d 88de f93d 800f 0b3c bf55 a83b
000000c0: b309 00bd b788 c2bd 7293 083d ba42 c6bd
000000d0: 25ee 62bd d794 f83d 3151 de3c cefc 973d
000000e0: 4789 3abd 9477 c43d 3ce9 ec3d 538f 33bd
000000f0: 87ab 783d a540 d6bc 4263 31bc 9c19 91bc
00000100: 5398 813d ae9e 673d 03e9 423d d2ca 8f3d
00000110: 8948 b83d bb3d 6fbc 8431 c1bd a078 d2bd
00000120: a973 f73d 75e1 2dbd 7936 8f3d 0d46 f33d
00000130: 1a9a fcbd 5cf4 89bd 5263 bfbd 38c1 94bd
00000140: 65ee e6bd 3c71 f7bc 2542 313c a884 1cbd
00000150: 0cd5 c4bc 22fc 93bc 4715 a6bc 425e de3d
00000160: a156 113d ec21 583c d5af d9bd 0f5a 99bc
00000170: e10e b83d 1ad4 51bd 7c24 a53d ac12 b9bd
00000180: 3326 fa3d 51f3 a23c 0a46 56bc f55d fa3d
00000190: 7c31 b93c 809c bbbd fbc7 a5bc 16ca f1bd
000001a0: afb8 83bd ac54 543c f22d cabd eefe 66bc
000001b0: b6c1 6fbd 4178 a93d 20d7 b9bd 3710 8d3d
000001c0: aad7 c6bd 9f62 9dbd 1f2e 87bc 93fd f7bd
000001d0: 66d0 a4bc f904 e63d 147f 90bd 337e db3d
000001e0: a3bc 3d3d ee70 a7bd eb46 32bd eb24 f73d
000001f0: cc0d abbd 3c1a 6c3d ed97 d2bd f391 313d

weight f4 [128]
0.9932014 0.9918841 0.99413764 0.996805 0.9952413 0.9962708 1.0060718 1.0005177
1.0038106 1.0013937 1.0036222 0.99522203 0.99518853 0.99683034 0.9967901 0.99809724
1.009417 0.9972653 1.0008768 0.9939497 1.0070729 1.0045487 1.0024505 1.0021828
1.0100322 0.99847543 1.0028198 1.0039284 0.99778134 1.0036749 0.9944548 0.99893343
1.0011601 1.0061563 0.9984894 1.0185541 0.99270636 0.9971186 1.0050826 0.99937546
0.99991286 0.9975905 0.993604 1.0007124 0.9912758 1.0035137 0.9998067 0.9957441
1.0033658 0.99534625 0.9902074 1.005457 0.99866563 1.0062869 1.0006353 1.010349
0.9986382 0.995664 1.0056825 0.99840045 0.99634516 0.99814016 0.992694 1.002483
0.99908113 0.9998571 0.99368906 0.9984422 0.99961394 0.9935016 0.99650687 1.0103762
1.0004209 1.000873 1.0071405 0.9950827 1.0091245 0.99462783 1.0011415 1.0024011
0.99256575 0.99984705 1.001184 1.0012805 0.9979079 0.99478215 1.007316 1.0054971
0.9999553 1.0009593 0.9987124 1.0013862 0.99434024 1.0015045 1.001476 0.999006
1.0061402 1.0025096 1.0127383 0.9958569 1.001248 0.9997634 0.99561745 1.0004017
0.99383134 1.0034847 0.9944078 0.9932349 0.99448925 0.99646145 1.0029448 0.99951106
0.99811375 0.9966158 1.0034763 1.0042552 1.0094275 0.9963108 1.0056028 1.0019262
0.9979113 1.0002317 0.9981723 1.0058712 1.0018234 0.9983276 0.99799657 0.99661714
00000000: 7242 7e3f 1eec 7d3f ce7f 7e3f 9d2e 7f3f
00000010: 22c8 7e3f 9a0b 7f3f f6c6 803f f710 803f
00000020: de7c 803f ab2d 803f b176 803f dfc6 7e3f
00000030: adc4 7e3f 4630 7f3f a32d 7f3f 4d83 7f3f
00000040: 9434 813f c74c 7f3f bb1c 803f 7d73 7e3f
00000050: c4e7 803f 0d95 803f 4c50 803f 8747 803f
00000060: bc48 813f 169c 7f3f 665c 803f ba80 803f
00000070: 996e 7f3f 6b78 803f 9794 7e3f 1aba 7f3f
00000080: 0426 803f bbc9 803f 009d 7f3f fb5f 823f
00000090: 0122 7e3f 2a43 7f3f 8ca6 803f 12d7 7f3f
000000a0: 4afa 7f3f 1762 7f3f d55c 7e3f 5817 803f
000000b0: 40c4 7d3f 2373 803f 55f3 7f3f 16e9 7e3f
000000c0: 4a6e 803f 03cf 7e3f 3b7e 7d3f d1b2 803f
000000d0: 8da8 7f3f 02ce 803f d114 803f 1e53 813f
000000e0: c1a6 7f3f d6e3 7e3f 34ba 803f 2c97 7f3f
000000f0: 7a10 7f3f 1d86 7f3f 3221 7e3f 5d51 803f
00000100: c8c3 7f3f a3f6 7f3f 6862 7e3f e899 7f3f
00000110: b3e6 7f3f 1f56 7e3f 131b 7f3f 0254 813f
00000120: cb0d 803f 9b1c 803f fbe9 803f bdbd 7e3f
00000130: fe2a 813f ee9f 7e3f 6825 803f ae4e 803f
00000140: ca18 7e3f faf5 7f3f cc26 803f f629 803f
00000150: e476 7f3f 0baa 7e3f bbef 803f 21b4 803f
00000160: 12fd 7f3f 6f1f 803f 9eab 7f3f 6c2d 803f
00000170: 158d 7e3f 4d31 803f 5e30 803f dbbe 7f3f
00000180: 34c9 803f 3c52 803f 69a1 813f 7af0 7e3f
00000190: e528 803f 7ff0 7f3f c9e0 7e3f 2a0d 803f
000001a0: bb6b 7e3f 3072 803f 8291 7e3f a444 7e3f
000001b0: d996 7e3f 1918 7f3f 7f60 803f f5df 7f3f
000001c0: 6284 7f3f 3722 7f3f e971 803f 6f8b 803f
000001d0: ec34 813f 390e 7f3f 98b7 803f 1e3f 803f
000001e0: 1d77 7f3f 9807 803f 3888 7f3f 63c0 803f
000001f0: c03b 803f 6692 7f3f b47c 7f3f 4d22 7f3f

bias f4 [128]
-0.0033401751 -0.005520905 0.0016429414 -0.0003630715 -0.0051140497 -0.002661111 0.0037983353 -0.0023587712
0.0028353191 0.0037552055 0.00042436563 -0.0006391708 0.0011868996 0.0044216616 -0.005229184 -0.004964797
0.003193631 -0.007905291 0.0110715665 -0.005469175 0.0019448559 0.0021804173 0.00094424945 -0.00028866774
0.008081706 -0.0034616017 0.002086206 0.0033386464 -0.0064992853 0.002299061 -0.0015327581 -0.00086872693
0.009139955 0.0067063924 0.0010571177 0.008065049 -0.0017343716 -0.002027803 -0.0051377355 -0.0005271867
0.0006221594 0.0002309412 -0.009401693 0.005011457 -0.005510314 0.0026871287 0.0014315343 -0.00034450451
-0.0016898545 0.001619066 -0.011154544 0.0062219854 -0.0032648183 0.0045367233 -0.001604005 -0.0013502534
-0.0038660183 0.001645051 0.0044021765 -0.005196358 -0.005767593 0.0024885882 0.00058868824 0.0029118408
-0.006723004 0.0001422691 -0.000758897 -0.0016742742 -0.002808225 -0.0017746183 -0.0028912884 -0.0016127388
0.00036460042 -0.0030724872 0.0061180266 0.0051506646 0.008534079 -0.0051093483 -0.0003186244 0.002558626
-0.0050127245 0.0025554823 -7.360055e-05 -0.004691459 -0.0018067484 -0.0036009764 0.0058351555 0.012661464
0.002208502 0.0016910438 -0.0072850026 0.0007106557 -0.00556314 -0.0009290374 0.0032628486 2.8705375e-05
0.0046615223 0.002200186 0.0064785955 -0.0015290014 0.002730958 0.00017843855 0.0011666819 0.0010519949
-0.0043765064 0.0061065946 -0.0042359675 -0.0058823335 -0.0019322473 -0.0029945485 0.0020403725 0.0031312986
-0.0017569512 -0.008339096 0.0027081878 0.0003726111 0.0027152384 -0.0069184215 -0.0018083608 0.00029309254
-0.002499725 0.0005452246 -0.0018658519 0.007242846 0.010253994 0.0024852538 0.003582955 -0.0069391625
00000000: d7e6 5abb b5e8 b4bb f757 d73a a25a beb9
00000010: c293 a7bb 0966 2ebb 7eed 783b 9d95 1abb
00000020: c3d0 393b e519 763b 647d de39 078e 27ba
00000030: be91 9b3a 96e3 903b 9359 abbb bcaf a2bb
00000040: 3d4c 513b 3285 01bc 8465 353c c436 b3bb
00000050: 89ea fe3a 55e5 0e3b 8287 773a 5458 97b9
00000060: 2269 043c 0adc 62bb bbb8 083b 31cd 5a3b
00000070: f5f7 d4bb d8ab 163b d4e6 c8ba 47bb 63ba
00000080: c0bf 153c 4cc1 db3b fc8e 8a3a 4423 043c
00000090: db53 e3ba e4e4 04bb 735a a8bb e732 0aba
000000a0: 6918 233a ce28 7239 8f09 1abc 2637 a43b
000000b0: dd8f b4bb 8a1a 303b 52a2 bb3a 9d9e b4b9
000000c0: 1c7e ddba d736 d43a 8cc1 36bc cce1 cb3b
000000d0: 90f6 55bb cba8 943b 7a3d d2ba fcfa b0ba
000000e0: 065d 7dbb c09e d73a 2240 903b 3646 aabb
000000f0: 14fe bcbb 9517 233b 3352 1a3a 95d4 3e3b
00000100: a54c dcbb 122e 1539 b7f0 46ba 5273 dbba
00000110: 330a 38bb 4f9a e8ba c57b 3dbb 8962 d3ba
00000120: d727 bf39 c85b 49bb ba79 c83b e8c6 a83b
00000130: 86d2 0b3c 526c a7bb 0b0d a7b9 9fae 273b
00000140: c841 a4bb e179 273b ff59 9ab8 cfba 99bb
00000150: 6bd0 ecba 5cfe 6bbb d534 bf3b 0772 4f3c
00000160: 84bc 103b 04a6 dd3a 08b7 eebb 4c4b 3a3a
00000170: 004b b6bb a58a 73ba 84d5 553b 53cc f037
00000180: afbf 983b ff30 103b 664a d43b c668 c8ba
00000190: dff9 323b 3c1b 3b39 59eb 983a 17e3 893a
000001a0: cc68 8fbb d419 c83b dfcd 8abb 97c0 c0bb
000001b0: 7643 fdba 3040 44bb c5b7 053b 7936 4d3b
000001c0: 8049 e6ba b4a0 08bc da7b 313b 045b c339
000001d0: 24f2 313b edb3 e2bb 8506 edba 37aa 9939
000001e0: 6dd2 23bb 67ed 0e3a 9a8f f4ba 6555 ed3b
000001f0: 5e00 283c a4df 223b 03d0 6a3b ea61 e3bb

running_mean f4 [128]
0.22342649 0.44581032 -0.12992254 0.25048232 -0.047680818 -0.018315332 0.34844527 0.5070185
-0.00066206546 0.38061422 -0.03602088 0.027793866 0.3019531 -0.23768212 0.07004678 -0.060615722
-0.2666211 -0.4928831 0.08495624 -0.049843255 0.18523276 -0.039312094 0.15515774 0.25557792
0.20244545 -0.2901649 0.14677487 -0.35696793 0.09051918 0.16020006 0.13902938 -0.30394632
0.46758446 -0.1493892 0.0031209951 -0.071773395 0.34470123 -0.16289805 -0.29076257 0.45371443
-0.22681572 -0.1359072 -0.41196656 0.30665082 0.35326228 0.40196323 -0.11816006 -0.22088456
0.44882387 0.02820224 0.45949388 -0.024244199 -0.4017128 2.1314947e-05 -0.01094967 -0.28082097
0.033883967 0.6138181 0.09469672 -0.06883886 0.12576844 -0.4847317 -0.24716687 -0.26741865
0.18189031 0.15006422 0.50687015 -0.11112555 0.10035509 -0.2332488 -0.4786851 -0.006672133
-0.28920874 -0.07547585 0.053108335 0.19846159 -0.13698389 0.05529734 0.0037591094 0.057005115
0.2524782 0.020726068 0.04038876 0.119505286 0.09664152 0.13639955 0.26113266 -0.033348337
-0.20061196 0.04357688 0.02978037 0.14468236 -0.557668 -0.08183653 0.25603828 0.09082046
0.21303451 -0.064978644 -0.21081771 0.66351736 -0.11776468 -0.0817065 -0.21941558 -0.20534691
0.16315211 -0.71296406 0.10197012 -0.32614097 -0.26864633 0.042039044 0.2286899 -0.22335532
0.096660696 -0.5719634 0.24368587 0.2641868 -0.19874512 0.15553972 -0.10503086 -0.08340043
0.31600147 -0.273978 0.0668784 0.282979 0.0447796 -0.43723276 0.13794622 -0.15935124
00000000: eac9 643e 4041 e43e 6a0a 05be 383f 803e
00000010: f64c 43bd 090a 96bc 6b67 b23e f7cb 013f
00000020: 768e 2dba dedf c23e a18a 13bd f6af e33c
00000030: 9999 9a3e f162 73be b074 8f3d 3148 78bd
00000040: 9082 88be 2c5b fcbe 8afd ad3d 7128 4cbd
00000050: a8ad 3d3e b805 21bd ace1 1e3e 1cdb 823e
00000060: dc4d 4f3e 7e90 94be 274c 163e 80c4 b6be
00000070: 1f62 b93d 7c0b 243e b85d 0e3e da9e 9bbe
00000080: 3b67 ef3e 7cf9 18be 9c89 4c3b eefd 92bd
00000090: ae7c b03e bfce 26be d5de 94be 424d e83e
000000a0: 6142 68be 422b 0bbe 48ed d2be 5601 9d3e
000000b0: cbde b43e 20ce cd3e e7fd f1bd 902f 62be
000000c0: 3ecc e53e 6208 e73c c842 eb3e c59b c6bc
000000d0: 4dad cdbe 80cd b237 3f66 33bc c4c7 8fbe
000000e0: eac9 0a3d 2f23 1d3f 5bf0 c13d 63fb 8cbd
000000f0: 71c9 003e c12e f8be 5019 7dbe 19eb 88be
00000100: 7441 3a3e 6faa 193e 3ec2 013f cb95 e3bd
00000110: f886 cd3d c6d8 6ebe 3716 f5be e9a1 dabb
00000120: 2b13 94be 1593 9abd 2088 593d 8439 4b3e
00000130: 8145 0cbe 777f 623d 645b 763b 327e 693d
00000140: d344 813e b7c9 a93c af6e 253d 30bf f43d
00000150: fdeb c53d 53ac 0b3e 2eb3 853e 4498 08bd
00000160: 396d 4dbe ac7d 323d f6f5 f33c 9d27 143e
00000170: 54c3 0ebf e999 a7bd 7317 833e 1400 ba3d
00000180: b825 5a3e 8613 85bd 99e0 57be 46dc 293f
00000190: 9c2e f1bd bd55 a7bd 7aae 60be 7646 52be
000001a0: 5911 273e d084 36bf b6d5 d03d f3fb a6be
000001b0: 038c 89be 2231 2c3d af2d 6a3e 42b7 64be
000001c0: 0bf6 c53d 326c 12bf ca88 793e 7e43 873e
000001d0: d783 4bbe ce45 1f3e 6b1a d7bd d8cd aabd
000001e0: f2ca a13e d846 8cbe 8bf7 883d a0e2 903e
000001f0: d06a 373d f9dc dfbe c641 0d3e f92c 23be

running_var f4 [128]
0.025442647 0.070683405 0.5080588 0.05972779 0.13759868 0.05531715 0.12429874 0.44422677
0.2407865 0.030514834 0.040246803 0.046961434 0.0373602 0.01932795 0.07290253 0.025705136
0.046092883 0.07350196 0.037036657 0.058688678 0.11262037 0.046571232 0.107908174 0.05390704
0.10370076 0.044115223 0.17776117 0.11340791 0.053097524 0.17968908 0.41714346 0.10364285
0.0765056 0.056687053 0.18490987 0.065423295 0.01828894 0.20413361 0.0469676 0.082758255
0.117803566 0.27082565 0.35560867 0.14331265 0.056919884 0.09055618 0.19167104 0.07342312
0.080159396 0.025556097 0.13257083 0.07065538 0.13786098 0.060310446 0.28895175 0.039810758
0.2503564 0.17181174 0.059298135 0.083968304 0.021477615 0.15376708 0.04546716 0.061169237
0.04912143 0.23918279 0.14715795 0.435542 0.14507984 0.06660309 0.24470413 0.056631695
0.41553754 0.13173474 0.04594849 0.075017415 0.14457674 0.022206355 0.1134251 0.11166074
0.038920656 0.08869612 0.05542893 0.066029906 0.1828572 0.0887618 0.03802123 0.06377225
0.043993782 0.020238712 0.12505585 0.11633093 0.07772614 0.25672734 0.2944398 0.051720317
0.042535074 0.07974626 0.020277949 0.183847 0.022233348 0.2677035 0.06542977 0.074032284
0.15279146 0.23211499 0.2533454 0.022933919 0.04702986 0.5965176 0.13565692 0.13501848
0.31488377 0.13263 0.05666354 0.06746878 0.026529433 0.03983684 0.035618022 0.14646895
0.15109438 0.028499225 0.15539436 0.37455377 0.058746856 0.10671112 0.101255946 0.1684237
00000000: 196d d03c 76c2 903d 2410 023f 21a5 743d
00000010: abe6 0c3e 3c94 623d 5690 fe3d b171 e33e
00000020: bc90 763e 3ffa f93c d5d9 243d a25a 403d
00000030: 0207 193d a655 9e3c ec4d 953d 9493 d23c
00000040: e4cb 3c3d 3288 963d c0b3 173d 8a63 703d
00000050: 82a5 e63d 7ac1 3e3d f6fe dc3d a1cd 5c3d
00000060: 1061 d43d 2ab2 343d 0607 363e 6842 e83d
00000070: ca7c 593d 6a00 383e d493 d53e b442 d43d
00000080: f8ae 9c3d af30 683d 0359 3d3e a6fc 853d
00000090: b0d2 953c 6708 513e 1961 403d 297d a93d
000000a0: ff42 f13d a9a9 8a3e 5712 b63e 8dc0 123e
000000b0: d324 693d 8575 b93d 6a45 443e dc5e 963d
000000c0: 9c2a a43d 055b d13c a6c0 073e c5b3 903d
000000d0: 6e2b 0d3e 1608 773d 7cf1 933e 9b10 233d
000000e0: b72e 803e 6bef 2f3e 9ae2 723d 93f7 ab3d
000000f0: d3f1 af3c 1e75 1d3e c63b 3a3d 988c 7a3d
00000100: 8d33 493d 55ec 743e 93b0 163e 5cff de3e
00000110: cf8f 143e 3367 883d b893 7a3e a3f6 673d
00000120: 56c1 d43e 79e5 063e 7c34 3c3d bba2 993d
00000130: ed0b 143e 1aea b53c 6b4b e83d 63ae e43d
00000140: 446b 1f3d 50a6 b53d 7209 633d b03a 873d
00000150: eb3e 3b3e bfc8 b53d 26bc 1b3d 079b 823d
00000160: d332 343d a8cb a53c a40e 003e e93e ee3d
00000170: e22e 9f3d c471 833e d0c0 963e afd8 533d
00000180: 4239 2e3d 0252 a33d f11d a63c 6342 3c3e
00000190: b622 b63c 6f10 893e 0b00 863d 3d9e 973d
000001a0: 5d75 1c3e 8daf 6d3e 7db6 813e eadf bb3c
000001b0: 62a2 403d 61b5 183f a6e9 0a3e 4942 0a3e
000001c0: 7238 a13e 29d0 073e 0718 683d 122d 8a3d
000001d0: 4154 d93c f42b 233d 34e4 113d f5fb 153e
000001e0: 7cb8 1a3e 3577 e93c b31f 1f3e 83c5 bf3e
000001f0: 8ba0 703d 5c8b da3d 475f cf3d 4377 2c3e

weight f4 [256, 128]
-0.048160795 -0.04155386 0.07363653 0.014835852 -0.08555721 -0.08520465 0.023784772 -0.06499124
-0.0015695841 -0.04916888 0.04277065 0.08834753 0.059197173 -0.078408375 -0.030036695 -0.048257142
-0.06326632 0.090908915 0.07800017 0.05072363 -0.010428731 -0.060499568 -0.03496406 0.04047944
-0.047264542 0.05376844 0.04507343 -0.06290669 -0.078894675 -0.048510443 -0.08418551 -0.07874283
0.053457823 0.022888994 0.019898318 0.03466549 -0.018807366 0.047283106 0.047658075 0.050553136
0.09174089 -0.055234075 0.0053292527 0.025480526 0.075323015 -0.047146633 0.008045873 0.087540194
-0.062930994 -0.01817646 -0.034256537 -0.09132114 -0.040158633 0.032176007 -0.074831136 -0.056451768
0.021010432 0.043795396 0.049292468 0.0223249 0.038248815 0.059189107 -0.035756607 0.022527013
-0.016325396 0.006874091 0.010007118 -0.08176575 0.008495666 0.008381985 -0.06712901 0.016636038
0.032722045 -0.025218906 0.06548221 0.06586476 0.0077815508 -0.021397928 -0.050411686 0.035431575
0.0750722 6.5540204e-05 -0.063952684 -0.032111276 -0.06683156 -0.02289026 -0.02030069 -0.057084654
0.01097041 0.023357967 0.02754182 0.035991486 0.015637511 -0.018705994 -0.02442819 0.066831134
0.070533514 0.027697688 -0.006925025 -0.036647145 -0.044564825 0.027739754 0.06108977 0.07523697
0.066758014 0.08411553 -0.02752491 0.020043954 -0.06656912 -0.0062853307 0.030019516 -0.00695039
0.0032283464 -0.018052587 -0.055301763 -0.043780286 0.06797119 0.04576013 0.04896088 0.03921829
0.038643934 -0.012743037 -0.05495586 -0.0443963 -0.04214657 -0.032261554 0.007871646 0.025758984
-0.085758746 0.06857372 0.026375184 -0.093946055 0.067911305 -0.054411232 -0.054765522 -0.010934419
-0.04789121 -0.0040926626 0.06657006 0.06136024 0.059212364 0.0032941215 0.05802965 -0.017521203
0.020243729 0.021332165 0.08044766 0.037809424 0.05713225 -0.0071355347 0.04844239 0.0070997067
0.026255408 0.015844433 -0.037112534 0.04694149 0.011580953 0.049515538 -0.06785475 0.06398157
0.0640636 0.06482037 0.07791206 0.004376629 -0.0591834 0.06182696 0.05916713 0.011090313
-0.06544168 0.07810846 -0.013073637 0.009968783 -0.04019481 0.07628158 0.0051081004 -0.005278796
0.012189824 -0.07288487 0.03746804 0.02428461 -0.007918053 0.06862546 -0.03310812 -0.07062763
0.029194543 0.05091129 -0.035165884 -0.02925081 0.0029983022 -0.01951521 0.03176318 -0.047012836
0.08535905 -0.046657715 0.043314233 -0.059798345 -0.020714587 0.06012055 -0.084451266 -0.08032392
0.0846646 0.02948437 -0.011871315 -0.010906731 -0.047829337 -0.018990878 -0.03409824 0.008845214
0.07640236 -0.0439153 0.008459289 0.04395144 0.045326516 0.06254557 -0.08458547 0.017002868
0.035756215 -0.036289964 -0.08401859 0.008638066 -0.055139165 -0.087795496 -0.070706025 0.0043784827
-0.07306764 0.04027688 -0.07686084 0.06839748 0.024675744 -0.08858338 0.05376729 -0.09241211
-0.033963677 -0.06829505 0.022846524 0.07835986 0.07266368 -0.048856754 -0.043153744 -0.07042931
-0.061089486 0.00075429305 -0.011247394 -0.07780163 -0.08033568 -0.03778925 0.023568496 -0.051650178
-0.083293736 -0.07622204 -0.01591199 -0.07233211 -0.036767144 0.00634918 0.018441893 -0.005969059
00000000: 4144 45bd 6134 2abd c0ce 963d 1312 733c
00000010: 9e38 afbd c77f aebd 48d8 c23c 211a 85bd
00000020: 81ba cdba 4f65 49bd 4730 2f3d 8def b43d
00000030: bc78 723d 9294 a0bd 840f f6bc 48a9 45bd
00000040: c691 81bd 742e ba3d 8ebe 9f3d 95c3 4f3d
00000050: 45dd 2abc 65ce 77bd 7936 0fbd c5cd 253d
00000060: 7798 41bd 4c3c 5c3d eb9e 383d 39d5 80bd
00000070: 8893 a1bd e3b2 46bd 7469 acbd ec43 a1bd
00000080: 97f6 5a3d b381 bb3c cc01 a33c 67fd 0d3d
00000090: e811 9abc eeab 413d 1d35 433d ce10 4f3d
000000a0: a6e2 bb3d 203d 62bd 03a1 ae3b 89bc d03c
000000b0: f442 9a3d d41c 41bd d6d2 033c 4648 b33d
000000c0: f7e1 80bd cde6 94bc 9550 0cbd 9406 bbbd
000000d0: 617d 24bd fdca 033d 1141 99bd f839 67bd
000000e0: 121e ac3c cd62 333d e6e6 493d b5e2 b63c
000000f0: caaa 1c3d 4770 723d 8575 12bd 928a b83c
00000100: d6bc 85bc 0e40 e13b e5f4 233c cd74 a7bd
00000110: 6831 0b3c 9854 093c ef7a 89bd 4d48 883c
00000120: 8d07 063d e197 cebc 891b 863d 1ae4 863d
00000130: 61fc fe3b b54a afbc 7c7c 4ebd b320 113d
00000140: 74bf 993d a172 8938 a0f9 82bd 1d87 03bd
00000150: fcde 88bd 5b84 bbbc a24d a6bc 99d1 69bd
00000160: 3cbd 333c 3559 bf3c 629f e13c cf6b 133d
00000170: 3d1a 803c 503d 99bc a11d c8bc c3de 883d
00000180: e073 903d 43e6 e23c 52eb e2bb 511b 16bd
00000190: 9b89 36bd 7b3e e33c 4439 7a3d d715 9a3d
000001a0: 6db8 883d c344 ac3d ec7b e1bc 3833 a43c
000001b0: 6455 88bd 2df5 cdbb 7deb f53c 19c0 e3bb
000001c0: aa92 533b 05e3 93bc 1a84 62bd f552 33bd
000001d0: 7b34 8b3d f96e 3b3d 348b 483d 5ca3 203d
000001e0: 1a49 1e3d 2cc8 50bc 6519 61bd e5d8 35bd
000001f0: e2a1 2cbd b124 04bd 14f8 003c 8104 d33c
00000200: 48a2 afbd 6170 8c3d c510 d83c ca66 c0bd
00000210: 1515 8b3d 50de 5ebd d051 60bd 4726 33bc
00000220: 9329 44bd be1b 86bb e255 883d e054 7b3d
00000230: aa88 723d 30e2 573b 80b0 6d3d a088 8fbc
00000240: 2dd6 a53c cbc0 ae3c bec1 a43d 0ede 1a3d
00000250: 8203 6a3d 34d1 e9bb 876b 463d a8a4 e83b
00000260: 9515 d73c 2fcc 813c 5003 18bd b845 403d
00000270: 0abe 3d3c ced0 4a3d 6ef7 8abd c508 833d
00000280: c733 833d 8bc0 843d 5c90 9f3d d369 8f3b
00000290: 4b6a 72bd 443e 7d3d 3c59 723d 25b4 353c
000002a0: 4a06 86bd 54f7 9f3d cf32 56bc 1b54 233c
000002b0: 50a3 24bd 8439 9c3d da61 a73b c0f9 acbb
000002c0: d4b7 473c aa44 95bd 1678 193d 85f0 c63c
000002d0: b9ba 01bc 818b 8c3d 619c 07bd 38a5 90bd
000002e0: 6529 ef3c 5b88 503d 1a0a 10bd 659f efbc
000002f0: 2a7f 443b 5dde 9fbc 1c1a 023d 8890 40bd
00000300: bad0 ae3d 291c 3fbd 446a 313d 1cef 74bd
00000310: a3b1 a9bc f740 763d c9f4 acbd de80 a4bd
00000320: a264 ad3d 3589 f13c e77f 42bc 25b2 32bc
00000330: b2e8 43bd c292 9bbc 99aa 0bbd 84eb 103c
00000340: d778 9c3d 88e0 33bd d498 0a3c 6d06 343d
00000350: 4ca8 393d e417 803d 263b adbd 9949 8b3c
00000360: 1c75 123d c9a4 14bd f011 acbd ad86 0d3c
00000370: 9bd9 61bd 20ce b3bd 52ce 90bd 6079 8f3b
00000380: 7da4 95bd 5ff9 243d 3769 9dbd fa13 8c3d
00000390: c924 ca3c 346b b5bd 173b 5c3d 8f42 bdbd
000003a0: 7f1d 0bbd 46de 8bbd a228 bb3c 227b a03d
000003b0: b2d0 943d 051e 48bd fbc1 30bd 3e3d 90bd
000003c0: f838 7abd c0bb 453a fd46 38bc 7656 9fbd
000003d0: 0887 a4bd e7c8 1abd b812 c13c 238f 53bd
000003e0: e895 aabd 4d1a 9cbd dd59 82bc db22 94bd
000003f0: 2599 16bd c80c d03b 7413 973c 1998 c3bb

bias f4 [256]
0.0012881146 0.041851167 0.054173235 0.051498502 -0.030126458 -0.050003946 0.057717808 -0.019618802
-0.06413519 0.07489683 -0.072305106 -0.047160864 -0.012378883 0.06910761 0.0175251 -0.013309296
0.013099953 -0.060416058 -0.06989772 0.01274707 -0.018874682 0.04356346 0.08829998 -0.04346524
0.08932504 0.049553487 -0.020931065 -0.0024065264 -0.009196232 0.042221818 -0.012216935 -0.085614964
-0.085414015 0.084096655 0.072424255 -0.055678837 0.03677311 -0.03852705 0.017763989 -0.037612922
0.06656859 0.014751577 0.08217751 -0.0067904703 -0.0020107343 0.028448442 0.023005346 -0.066461384
-0.066563606 0.0631163 -0.086745605 0.02568693 0.03281328 0.014971862 0.061163794 0.028903663
0.069020905 0.062685005 -0.0041722334 0.06082259 -0.0051033683 0.04262138 0.0041992264 0.016382463
0.0016883982 0.055238273 -0.027544029 -0.06505921 -0.0853611 -0.023168422 -0.040742487 -0.010450889
0.07962852 -0.08370933 0.015189841 -0.015438613 -0.020103319 0.051772464 -0.0044630016 0.08567939
0.020007862 -0.005405611 4.0558632e-05 0.023179306 -0.057879727 0.017906984 0.080628686 -0.04831582
0.027728677 0.025277607 -0.055183627 0.07583171 -0.068053424 -0.04366432 0.013698401 0.05856456
0.073970206 0.06301454 0.05824076 -0.075052075 0.05605296 -0.040545378 0.027564777 0.047012508
-0.029015435 -0.0056434353 -0.08583047 0.05277087 -0.022951249 0.0738376 0.05545827 -0.05127778
-0.08492058 -0.031441685 -0.036837146 0.009572987 0.018073926 -0.051654726 0.015410144 0.003884347
-0.028018467 0.06724419 0.04500069 -0.056761026 0.049122736 -0.065125495 0.063499786 0.063077666
-0.08253391 -0.07862785 0.06251853 0.074373074 -0.047384176 -0.037814956 0.080318354 0.013187989
-0.024340041 0.06889943 0.021272168 -0.0382341 -0.030398147 -0.07339802 0.06674997 -0.059775572
-0.02786343 0.025711913 0.08349649 -0.066607885 0.035093147 -0.046318367 0.08674704 0.0063621113
0.0641468 -0.053190365 0.03806281 -0.08566907 -0.016715715 -0.06657174 -0.06813374 -0.0055364985
-0.03095943 0.014209638 -0.014165494 -0.03176447 -0.0271524 0.011772064 -0.06561298 -0.011749723
0.01576327 0.053020876 -0.06284298 -0.0827621 0.011485033 -0.04369081 0.047380313 -0.086540215
-0.027063847 -0.0839477 0.061192468 0.03360146 -0.0752831 -0.06951327 -0.056424774 -0.054815263
-0.058200985 -0.0020131837 0.03244198 0.004864889 0.027953913 0.0013313949 -0.07956823 0.013366541
0.01487586 -0.0692099 0.058681425 -0.07236334 0.05685645 0.07034212 -0.07723727 -0.07541349
0.03136504 -0.072241016 0.07413378 -0.06047324 -0.08893279 -0.005195325 0.067849845 -0.026845053
0.08106142 -0.027911045 -0.06387057 0.01783809 0.04889164 0.029909687 -0.04364566 -0.068800114
0.018341871 -0.0110632805 -0.06476245 0.0012513149 -0.07190958 -0.07976629 -0.0132090915 -0.06712489
0.01526739 -0.0067644147 0.023345891 -0.038147565 0.04097304 0.015487434 0.062152438 0.062535115
0.027275497 0.06612599 0.07620213 0.0770166 -0.07916105 0.07948842 0.02007869 -3.8502236e-05
0.079857625 -0.06628562 -0.082209356 0.04126344 0.05117656 -0.076986104 -0.076496296 -0.06371438
0.048167996 0.019996298 0.008005218 -0.07851031 -0.0070445742 -0.0031401361 0.0010166718 0.05733413
00000000: f4d5 a83a 216c 2b3d c1e4 5d3d 18f0 523d
00000010: c3cb f6bc f0d0 4cbd 8269 6c3d 9cb7 a0bc
00000020: 4f59 83bd 8263 993d b314 94bd c02b 41bd
00000030: ccd0 4abc 4a88 8d3d cc90 8f3c 3c0f 5abc
00000040: 2fa1 563c d476 77bd 8926 8fbd 16d9 503c
00000050: 149f 9abc 996f 323d 9fd6 b43d 9c08 32bd
00000060: 0cf0 b63d 99f8 4a3d a077 abbc d0b6 1dbb
00000070: cbab 16bc c9f0 2c3d 8a29 48bc e656 afbd
00000080: 8bed aebd de3a ac3d 2b53 943d 7e0f 64bd
00000090: 679f 163d 8ace 1dbd c985 913c 0210 1abd
000000a0: 1d55 883d 99b0 713c af4c a83d 9882 debb
000000b0: 86c6 03bb b50c e93c b575 bc3c e81c 88bd
000000c0: 8052 88bd 1e43 813d aea7 b1bd 666d d23c
000000d0: 3867 063d 8a4c 753c e386 7a3d 60c7 ec3c
000000e0: d55a 8d3d ff60 803d 3bb7 88bb 1c21 793d
000000f0: 283a a7bb c293 2e3d aa99 893b 8434 863c
00000100: 3e4d dd3a 8741 623d 04a4 e1bc c33d 85bd
00000110: cdd1 aebd b4cb bdbc 98e1 26bd 353a 2bbc
00000120: 4714 a33d cc6f abbd d0de 783c 3cf2 7cbc
00000130: b7af a4bc 5d0f 543d 5f3e 92bb ad78 af3d
00000140: 87e7 a33c 8d21 b1bb 801d 2a38 87e2 bd3c
00000150: 4b13 6dbd abb1 923c a720 a53d cfe6 45bd
00000160: 4027 e33c fc12 cf3c 3a08 62bd a84d 9b3d
00000170: 985f 8bbd 5cd9 32bd 426f 603c 64e1 6f3d
00000180: b17d 973d c40d 813d dd8d 6e3d e7b4 99bd
00000190: ca97 653d e912 26bd 87cf e13c 3090 403d
000001a0: c7b1 edbc 91ec b8bb e3c7 afbd 4526 583d
000001b0: 4204 bcbc 2b38 973d 3628 633d a608 52bd
000001c0: d7ea adbd ffc8 00bd 8ce2 16bd 05d8 1c3c
000001d0: c50f 943c e893 53bd d47a 7c3c 8790 7e3b
000001e0: fc86 e5bc 52b7 893d a552 383d 407e 68bd
000001f0: ec34 493d 8460 85bd 2d0c 823d dd2e 813d
00000200: 8a07 a9bd a307 a1bd b709 803d e950 983d
00000210: e915 42bd dbe3 1abd f37d a43d 6f12 583c
00000220: c464 c7bc 251b 8d3d f842 ae3c 5c9b 1cbd
00000230: 8905 f9bc b351 96bd 35b4 883d 3bd7 74bd
00000240: d941 e4bc caa1 d23c 3500 ab3d b769 88bd
00000250: d5bd 0f3d 54b8 3dbd 6fa8 b13d 4279 d03b
00000260: 665f 833d 24de 59bd c0e7 1b3d 4473 afbd
00000270: 65ef 88bc c456 88bd b489 8bbd 846b b5bb
00000280: a19e fdbc 8bcf 683c 6316 68bc 761b 02bd
00000290: b66e debc 9ddf 403c 1960 86bd e981 40bc
000002a0: f921 813c 6b2c 593d d2b3 80bd 2d7f a9bd
000002b0: b82b 3c3c 23f5 32bd dc11 423d ff3b b1bd
000002c0: 00b5 ddbc c6ec abbd f4a4 7a3d afa1 093d
000002d0: 072e 9abd f95c 8ebd aa1d 67bd f885 60bd
000002e0: 2864 6ebd 9eef 03bb e2e1 043d a669 9f3b
000002f0: 9bff e43c 3382 ae3a abf4 a2bd 56ff 5a3c
00000300: e1b9 733c ecbd 8dbd ef5b 703d 3b33 94bd
00000310: 4fe2 683d 880f 903d 932e 9ebd 6372 9abd
00000320: a178 003d 19f3 93bd 74d3 973d cab2 77bd
00000330: 6522 b6bd 8b3d aabb dcf4 8a3d 28ea dbbc
00000340: 8803 a63d b4a5 e4bc 93ce 82bd 3021 923c
00000350: 9a42 483d 2905 f53c cbc5 32bd 13e7 8cbd
00000360: b141 963c c342 35bc 2da2 84bd 2903 a43a
00000370: 5445 93bd 825c a3bd f26a 58bc c678 89bd
00000380: 1324 7a3c 06a8 ddbb e23f bf3c 9f40 1cbd
00000390: 59d3 273d 02bf 7d3c 8e93 7e3d 6912 803d
000003a0: dd70 df3c 106d 873d dd0f 9c3d e1ba 9d3d
000003b0: 301f a2bd d3ca a23d 117c a43c 767d 21b8
000003c0: 658c a33d c1c0 87bd 615d a8bd da03 293d
000003d0: 839e 513d e4aa 9dbd 17aa 9cbd af7c 82bd
000003e0: ce4b 453d 47cf a33c 5128 033c 03ca a0bd
000003f0: 2cd6 e6bb beca 4dbb d841 853a 31d7 6a3d
