model/reinforced.pt (torch, 14957 bytes, 8 tensors)

weight f4 [32, 10]
0.22896096 -0.03179589 0.15492842 -0.23454037 -0.1985012 0.2142838 0.2526457 0.14278391
0.027164578 0.12121242 -0.31216726 0.25669938 -0.09015043 0.0915778 0.17306912 0.2962622
0.007819597 0.112213135 -0.04002977 0.09229323 0.24064025 0.06249303 -0.038902394 0.22515222
0.04276169 0.16409099 0.2615797 0.18768069 -0.24233717 0.16669893 -0.19191432 0.054024838
0.28896326 0.09626201 0.22779438 0.13924351 -0.17103922 0.113328904 -0.21883464 0.25512874
-0.2345837 0.09061791 -0.098258734 -0.25046936 -0.30150336 0.3085631 -0.020748574 0.027461696
-0.10265829 -0.27814335 0.21181867 -0.2661857 -0.1432573 0.072303206 -0.18783133 0.24534938
0.25454476 0.060049176 0.29211387 0.05917847 0.21245275 -0.059512842 -0.066365 0.10673705
0.119621 0.043366592 -0.18671118 0.05078114 -0.084236555 -0.0788034 0.074563324 -0.19877753
0.097031355 -0.25594229 0.043615073 0.23779085 0.25343475 -0.29953447 0.23842523 0.056637347
0.1689052 -0.06781002 -0.19703405 0.035713844 0.025588747 -0.26338688 0.051529314 -0.10872547
-0.15712306 0.29867038 0.25156376 0.15673292 -0.20575659 0.22535641 -0.20096637 -0.25137922
0.051878314 -0.23972495 0.19671968 -0.014349315 -0.15462303 0.015707586 0.28093052 0.04908765
0.29617596 -0.0016357556 0.11617762 0.08615655 0.014174905 -0.27239087 -0.051364668 0.20809612
0.18285885 0.067338705 0.14174765 0.086586446 0.09605181 0.16532114 0.23768345 0.15061417
0.022993483 -0.026768778 -0.1134138 0.2823475 0.05706605 -0.086300634 0.095193855 -0.24283478
0.021606108 0.14939333 -0.2859461 0.026221553 0.05692767 0.10788357 -0.26042894 -0.25984117
-0.19007368 -0.10280164 -0.09501151 0.2684695 0.11186591 -0.12138331 0.05602479 -0.121848986
-0.24082422 0.27655956 0.25735864 0.0034299493 -0.06078425 0.2859126 0.15217116 -0.031204335
-0.28573593 -0.17710178 -0.20368877 0.119131215 0.08461241 -0.036299728 0.26568878 -0.21570835
-0.30854407 -0.12379013 -0.08468281 0.124794304 -0.11632523 0.20684478 -0.30682424 0.092087805
-0.008567095 0.20591208 0.28159901 -0.12589733 0.15655917 -0.0042057433 0.31609806 -0.022766858
-0.1329854 0.017504077 -0.25159103 -0.021651749 -0.12150997 -0.14927116 -0.30161798 -0.24060026
0.2446349 0.027695775 -0.05209434 0.23713669 -0.06990279 0.24823698 -0.29753748 0.16020608
-0.0030487927 -0.05573692 -0.11665652 -0.10725112 0.21402538 0.11679068 -0.11535833 -0.2934514
0.20398821 0.16457304 -0.04286964 0.04995296 0.059767645 -0.18016294 -0.21188293 -0.23229024
0.18863481 -0.27506942 0.06883255 -0.11826073 -0.114350006 -0.24449274 0.12434301 -0.08147353
-0.15554354 -0.02466616 0.23989245 0.26606962 -0.18374912 -0.1304035 0.2398558 -0.13584542
-0.13384908 0.114124954 0.24614826 -0.012523979 0.0059628785 0.22213861 -0.23200893 0.103530765
-0.0025781142 0.18156317 0.10667592 0.051278137 0.19094881 0.27136463 -0.099931315 -0.30383313
0.30324942 -0.1559416 0.042034358 -0.18938687 -0.16635111 0.2608456 -0.012979852 -0.31403473
0.09517042 -0.19154413 0.11609095 -0.10387559 -0.21238078 -0.24865898 0.12888956 0.2562578
00000000: be74 6a3e 683c 02bd 8ea5 1e3e 5a2b 70be
00000010: e643 4bbe 366d 5b3e c75a 813e f235 123e
00000020: 4088 de3c 383e f83d 63d4 9fbe 1a6e 833e
00000030: caa0 b8bd 248d bb3d 0839 313e aeaf 973e
00000040: c41d 003c 00d0 e53d 42f6 23bd 3c04 bd3d
00000050: 666a 763e b1f8 7f3d 1e58 1fbd 4e8e 663e
00000060: e226 2f3d 7807 283e c6ed 853e 5e2f 403e
00000070: 3c27 78be 20b3 2a3e 3085 44be 2649 5d3d
00000080: fef2 933e 0425 c53d ee42 693e da95 0e3e
00000090: e824 2fbe fc18 e83d 3016 60be 3ca0 823e
000000a0: b636 70be e295 b93d e03b c9bd 853d 80be
000000b0: a65e 9abe fcfb 9d3e eaf8 a9bc 5af7 e03c
000000c0: 823e d2bd ce68 8ebe fee6 583e 7e49 88be
000000d0: 0bb2 12be b413 943d db56 40be de3c 7b3e
000000e0: b153 823e 20f6 753d f38f 953e 2065 723d
000000f0: 378d 593e bdc3 73bd 60ea 87bd f498 da3d
00000100: dbfb f43d 2ba1 313d 3731 3fbe e2ff 4f3d
00000110: 3784 acbd ad63 a1bd a8b4 983d 568c 4bbe
00000120: 60b8 c63d de0a 83be b8a5 323d 727f 733e
00000130: 33c2 813e 955c 99be be25 743e 90fc 673d
00000140: 7cf5 2c3e fbdf 8abd 4bc3 49be ae48 123d
00000150: 7e9f d13c a5da 86be 6710 533d 76ab debd
00000160: dee4 20be 53eb 983e f7cc 803e 987e 203e
00000170: dbb1 52be d5c3 663e 21ca 4dbe c7b4 80be
00000180: 5b7e 543d 757a 75be e270 493e 6419 6bbc
00000190: 8055 1ebe 32ad 803c 20d6 8f3e 2210 493d
000001a0: 60a4 973e da66 d6ba 88ee ed3d d872 b03d
000001b0: dc3d 683c d176 8bbe c263 52bd 2617 553e
000001c0: 5a3f 3b3e e0e8 893d 4c26 113e 3c54 b13d
000001d0: d0b6 c43d f249 293e 4a63 733e 9a3a 1a3e
000001e0: d45c bc3c 324a dbbc 7f45 e8bd da8f 903e
000001f0: 17be 693d 63be b0bd fff4 c23d aea9 78be
00000200: 4bff b03c 91fa 183e 8767 92be 95ce d63c
00000210: fd2c 693d 10f2 dc3d f156 85be e709 85be
00000220: ada2 42be ab89 d2bd 6595 c2bd d674 893e
00000230: f419 e53d d097 f8bd 407a 653d f68b f9bd
00000240: a09a 76be 3799 8d3e 83c4 833e 00c9 603b
00000250: e8f8 78bd 2363 923e c2d2 1b3e 3ca0 ffbc
00000260: fb4b 92be 2b5a 35be ca93 50be 11fb f33d
00000270: 4549 ad3d 06af 14bd 5c08 883e a6e2 5cbe
00000280: 7df9 9dbe ae85 fdbd 2e6e adbd 2894 ff3d
00000290: ec3b eebd 1ecf 533e 1118 9dbe 8898 bc3d
000002a0: 005d 0cbc 9eda 523e bf2d 903e 3beb 00be
000002b0: 0c51 203e 55d0 89bb 9bd7 a13e 9081 babc
000002c0: 532d 08be b664 8f3c 8ad0 80be 025f b1bc
000002d0: 38da f8bd 8ada 18be ac6d 9abe ea5f 76be
000002e0: 9281 7a3e 40e2 e23c e060 55bd f6d3 723e
000002f0: 3229 8fbd d631 7e3e d556 98be 100d 243e
00000300: 41ce 47bb 664c 64bd 9de9 eebd 7aa6 dbbd
00000310: 7829 5b3e f42f ef3d fd40 ecbd 433f 96be
00000320: 49e2 503e d685 283e 1398 2fbd 7a9b 4c3d
00000330: ebce 743d a27c 38be d7f7 58be 7edd 6dbe
00000340: 7c29 413e e6d5 8cbe 14f8 8c3d ae32 f2bd
00000350: 5630 eabd 4e5c 7abe 8ca7 fe3d 98db a6bd
00000360: ce46 1fbe b010 cabc 5ea6 753e 473a 883e
00000370: bb28 3cbe 7f88 05be c29c 753e 101b 0bbe
00000380: bc0f 09be 58ba e93d 4a0e 7c3e 6031 4dbc
00000390: 4064 c33b 4e78 633e c093 6dbe f007 d43d
000003a0: 94f5 28bb b2eb 393e e878 da3d 0609 523d
000003b0: 1688 433e 4ef0 8a3e caa8 ccbd 0490 9bbe
000003c0: 8243 9b3e 28af 1fbe 382c 2c3d a2ee 41be
000003d0: f257 2abe 8e8d 853e 72a9 54bc 29c9 a0be
000003e0: b6e8 c23d 2524 44be 18c1 ed3d babc d4bd
000003f0: 597a 59be 76a0 7ebe a0fb 033e 3934 833e

bias f4 [32]
0.20505396 0.3078907 -0.0116694495 -0.0612059 -0.034285065 0.24740973 -0.26753148 -0.122553736
0.26939353 0.0765971 -0.26168233 -0.3141159 -0.10226955 -0.23654734 -0.14199694 0.09280001
-0.21254382 0.17804766 0.13170913 -0.08508923 0.043531995 -0.16621745 0.29914477 0.022636406
-0.21185379 0.025103986 0.07724196 -0.06845146 0.05340188 -0.00388753 0.14872952 0.14600988
00000000: aaf9 513e daa3 9d3e 3831 3fbc 0ab3 7abd
00000010: 7f6e 0cbd fa58 7d3e e3f9 88be 74fd fabd
00000020: f3ed 893e f1de 9c3d 3afb 85be cdd3 a0be
00000030: b372 d1bd 7739 72be a567 11be ef0d be3d
00000040: 16a5 59be 2052 363e c2de 063e 4343 aebd
00000050: 9b4e 323d e834 2abe 8129 993e fc6f b93c
00000060: 33f0 58be e0a6 cd3c 0831 9e3d 4730 8cbd
00000070: eebb 5a3d eec5 7ebb 8d4c 183e 9d83 153e

weight f4 [32, 32]
-0.12953377 -0.104580656 -0.10100439 -0.13353363 0.009607493 -0.000488922 -0.05192835 0.12362184
0.03656386 0.0011399966 -0.17605883 0.042297527 -0.07997233 0.033606064 -0.057437174 0.11536445
0.034013048 0.06482822 -0.10218811 0.046674337 -0.08416452 -0.05036138 0.17128398 -0.09900539
0.09085502 -0.09156866 -0.15702163 0.057910487 0.14238715 -0.16718215 0.040084936 -0.11727312
0.0071774125 0.11846618 -0.14454684 -0.072166204 0.06802076 0.064693704 -0.0843578 0.05907774
-0.073080376 -0.06450201 0.15381245 -0.15888357 -0.15254998 -0.15417406 -0.15447398 -0.016408231
-0.05255895 -0.05357255 -0.0326948 0.16322003 -0.020042907 0.14731179 0.0014278144 0.124128535
-0.080197215 0.057222232 0.090294436 -0.13471821 0.16853024 0.027889075 -0.013476952 -0.02290003
-0.05011207 0.04723478 0.010891456 -0.013854485 0.037664365 0.05136533 0.06394316 0.008603796
-0.041945893 0.04894415 0.037007667 0.1647387 0.09110766 -0.03427234 0.06894034 0.082825586
0.040834248 -0.026971487 0.13586272 0.09093752 0.06467298 -0.08269336 -0.032899633 -0.17401318
-0.037768353 0.101030305 0.08391772 -0.16049905 0.009777327 0.032480594 0.078232154 0.12060159
0.12948062 -0.10511154 -0.10473949 0.12477632 0.15186699 -0.078663975 -0.051396325 -0.16141482
0.05815801 -0.09637408 -0.14230059 -0.08830117 0.05934061 0.09842913 0.04194981 0.06046492
-0.12627944 0.0625063 -0.05960135 -0.058618113 -0.14187002 0.17347653 0.1598237 -0.008103639
-0.0034553707 -0.06264263 -0.058621123 -0.03412187 0.023303807 -0.14062968 -0.031120807 0.09660421
0.007895753 -0.037174918 -0.13430262 0.16876663 0.08943812 -0.11561053 -0.058386866 -0.010616198
0.13438301 -0.17761229 0.14470224 0.019046828 0.10972553 0.16930676 0.17345943 -0.07514356
-0.115811124 0.03859031 -0.15987715 -0.05481014 0.14872058 0.05018623 -0.050403565 -0.03517712
0.089041084 0.17129861 -0.04376076 -0.03754331 -0.16093484 0.006663232 -0.13133983 -0.026924884
-0.062035926 0.041801967 -0.10775917 -0.16558035 -0.12261068 -0.06536685 0.16523495 0.017323598
0.09283594 0.0866182 -0.12345122 -0.13474476 0.124158174 0.17228091 -0.13665262 -0.16676809
0.15289225 0.089259036 0.1636173 0.07157619 -0.1498414 -0.07471414 -0.0785341 0.010351818
0.13102724 -0.02320671 -0.07787302 -0.050210133 -0.10731114 0.05687511 0.1549145 0.079397835
-0.06956839 0.05171872 0.07798286 -0.12771183 0.05846148 0.118588164 -0.13844953 0.12676202
0.01282984 0.056238912 -0.029689346 0.093817726 0.14653482 -0.030492038 -0.08284197 0.065092534
-0.12474146 0.14628865 -0.17254865 0.026313346 -0.17124797 0.027713642 0.15338083 -0.05354786
-0.031424895 -0.13399503 -0.14007834 -0.17298521 0.014818858 -0.1638447 0.14564373 0.096379
0.15022628 -0.08547754 -0.1559505 -0.08193657 -0.1076309 -0.034032047 0.046404075 -0.0016099662
0.17474873 -0.06630055 -0.1303609 0.06059286 0.123389676 -0.17362876 -0.14833492 0.060377277
-0.07093403 -0.15627794 -0.14586413 -0.06387388 0.1754442 -0.14939623 0.08684476 0.06370014
0.115854345 0.034833252 0.09309749 -0.042828992 -0.11350436 0.14849395 -0.1350549 -0.046816614
00000000: 80a4 04be 622e d6bd 64db cebd 0abd 08be
00000010: bf68 1d3c 002b 00ba d2b2 54bd 722d fd3d
00000020: fcc3 153d f06b 953a c448 34be 2c40 2d3d
00000030: 88c8 a3bd 83a6 093d 3e43 6bbd 3244 ec3d
00000040: 4451 0b3d a8c4 843d 0048 d1bd 972d 3f3d
00000050: 735e acbd bc47 4ebd 1165 2f3e 57c3 cabd
00000060: 3212 ba3d 5a88 bbbd 47ca 20be 8c33 6d3d
00000070: f0cd 113e cc31 2bbe 1a30 243d e42c f0bd
00000080: 8030 eb3b 669e f23d 1604 14be e0cb 93bd
00000090: 784e 8b3d 227e 843d c8c3 acbd 80fb 713d
000000a0: 2aab 95bd a119 84bd 0381 1d3e 60b2 22be
000000b0: 1036 1cbe cedf 1dbe 6d2e 1ebe 8e6a 86bc
000000c0: 0e48 57bd e46e 5bbd fcea 05bd 2723 273e
000000d0: 0631 a4bc e7d8 163e 8025 bb3a 1a37 fe3d
000000e0: 703e a4bd dc61 6a3d 4aec b83d 92f3 09be
000000f0: 3193 2c3e a177 e43c 6fce 5cbc d898 bbbc
00000100: 5042 4dbd 4279 413d 1472 323c ecfd 62bc
00000110: f345 1a3d 7464 523d a2f4 823d f0f6 0c3c
00000120: 75cf 2bbd a979 483d 5a95 173d 43b1 283e
00000130: a796 ba3d 2761 0cbd 9830 8d3d 76a0 a93d
00000140: d041 273d 4ff3 dcbc 991f 0b3e 733d ba3d
00000150: 4473 843d 235b a9bd c4c1 06bd 8330 32be
00000160: fdb2 1abd fae8 ce3d 0edd ab3d dd59 24be
00000170: 1531 203c 5f0a 053d 2e38 a03d f7fd f63d
00000180: 9196 043e b844 d7bd a881 d6bd ba8a ff3d
00000190: 0583 1b3e 941a a1bd f484 52bd ed49 25be
000001a0: 1837 6e3d c65f c5bd 3fb7 11be 3ed7 b4bd
000001b0: 240f 733d 3695 c93d 90d3 2b3d 10aa 773d
000001c0: 664f 01be 4e03 803d 8c20 74bd 8c19 70bd
000001d0: 6046 11be d5a3 313e d3a8 233e 20c5 04bc
000001e0: 8073 62bb c74a 80bd b41c 70bd 60c3 0bbd
000001f0: a0e7 be3c 3a01 10be 10f1 febc 6ed8 c53d
00000200: 305d 013c ba44 18bd a086 09be 29d1 2c3e
00000210: 552b b73d 37c5 ecbd 1127 6fbd 90ef 2dbc
00000220: b39b 093e ffdf 35be d32c 143e 1808 9c3c
00000230: c7b7 e03d c05e 2d3e 599f 313e dee4 99bd
00000240: 622e edbd df10 1e3d d6b6 23be 9980 60bd
00000250: 354a 183e 1490 4d3d f873 4ebd e215 10bd
00000260: 2c5b b63d e768 2f3e 7c3e 33bd 04c7 19bd
00000270: 1acc 24be 3e57 da3b f37d 06be 9391 dcbc
00000280: 6219 7ebd 8a38 2b3d d7b0 dcbd e58d 29be
00000290: 4f1b fbbd 0edf 85bd 5a33 293e 38ea 8d3c
000002a0: c520 be3d e264 b13d fed3 fcbd 88fa 09be
000002b0: a446 fe3d 686a 303e aaee 0bbe 41c5 2abe
000002c0: c98f 1c3e 71cd b63d 4b8b 273e 8a96 923d
000002d0: 0670 19be ba03 99bd 7cd6 a0bd ac9a 293c
000002e0: 012c 063e 001c bebc e47b 9fbd 24a9 4dbd
000002f0: f1c5 dbbd e0f5 683d e8a1 1e3e 559b a23d
00000300: df79 8ebd 02d7 533d 7ab5 9f3d e4c6 02be
00000310: 4e75 6f3d 5ade f23d b7c5 0dbe e7cd 013e
00000320: 4034 523c c65a 663d 1237 f3bc 8223 c03d
00000330: 390d 163e 70ca f9bc 0da9 a9bd 3c4f 853d
00000340: 7378 ffbd b1cc 153e 98b0 30be 168f d73c
00000350: a15b 2fbe b807 e33c dd0f 1d3e 0055 5bbd
00000360: 64b7 00bd fe35 09be b270 0fbe 0923 31be
00000370: ccca 723c e8c6 27be a123 153e 5a62 c53d
00000380: ebd4 193e d90e afbd 7db1 1fbe 5cce a7bd
00000390: 976d dcbd 3065 0bbd 3312 3e3d 8005 d3ba
000003a0: 55f1 323e 95c8 87bd 547d 05be 3830 783d
000003b0: bab3 fc3d bdcb 31be 1ce5 17be 2a4e 773d
000003c0: dc45 91bd 5307 20be 685d 15be 4fd0 82bd
000003d0: a5a7 333e 53fb 18be aadb b13d 3875 823d
000003e0: 0b45 ed3d 50ad 0e3d e6a9 be3d 746d 2fbd
000003f0: f974 e8bd cc0e 183e d54b 0abe c7c2 3fbd

bias f4 [32]
0.017253967 0.07213382 -0.022746658 0.083941504 0.024047779 -0.092204146 -0.06280815 0.11366551
0.15835759 0.03849955 0.04154513 0.12885848 0.035332307 0.07299046 0.061451092 -0.1531519
0.17175485 -0.030771885 -0.168166 0.13621639 -0.11204613 -0.052304003 0.17430304 0.1269518
0.15741949 0.14682864 -0.13366625 -0.1754008 -0.1402371 0.1105115 -0.17744096 -0.17345656
00000000: 3158 8d3c e5ba 933d 3357 babc 86e9 ab3d
00000010: d9ff c43c 87d5 bcbd 8fa1 80bd 77c9 e83d
00000020: 7e28 223e b4b1 1d3d 3a2b 2a3d 7af3 033e
00000030: 9cb8 103d 067c 953d 24b4 7b3d dad3 1cbe
00000040: 81e0 2f3e 5215 fcbc b533 2cbe 4f7c 0b3e
00000050: 7178 e5bd b93c 56bd 7f7c 323e a7ff 013e
00000060: 9332 213e 3f5a 163e cedf 08be 449c 33be
00000070: 509a 0fbe da53 e23d 15b3 35be 999e 31be

weight f4 [32, 32]
-0.13593116 0.1492068 -0.08688627 -0.040339068 0.12979628 0.15093257 -0.16407949 0.013926253
-0.037064493 -0.06254428 -0.09142756 -0.15987405 -0.045608282 0.045422584 0.1523536 -0.10475698
0.031963244 0.036195025 0.11124642 0.014722168 -0.13575761 -0.12931938 -0.08728384 0.016485006
0.13606067 -0.039135814 -0.15932594 0.16550119 -0.00049446523 -0.029159144 -0.07493349 -0.12426604
0.00017734934 -0.070881024 0.14811975 -0.14331749 0.09966313 -0.07075604 0.040509447 -0.0986102
0.08412033 0.09984921 0.0009357376 -0.1528284 -0.048246328 -0.07235946 -0.026797622 -0.04346367
0.14546688 0.03273921 0.14760642 0.15912093 -0.13479197 -0.059699997 -0.1437814 -0.12713149
0.0025401912 0.11130233 -0.10302986 -0.12111777 -0.11281166 -0.042388033 -0.0054520215 0.07355264
-0.089374796 -0.07556158 -0.12337765 -0.13030069 -0.095369086 -0.0345228 0.08693354 0.06878935
0.06469792 0.0878254 0.14959405 -0.14875384 0.16494115 0.010839835 -0.13924092 0.17421179
0.17158775 0.16031791 0.021192387 -0.027875602 -0.12748247 -0.13657784 -0.15523818 0.05555661
-0.16997842 -0.015115038 -0.03839089 -0.05352039 0.04969667 -0.16686518 -0.07061055 -0.14453088
-0.15088628 -0.12518105 0.029278602 -0.14074528 -0.11094011 0.14928217 0.15167223 0.025396243
-0.076106444 -0.036602646 0.0607396 -0.10072402 -0.13417062 -0.029187664 -0.10501572 0.042143457
-0.05906198 0.056963027 0.13215263 0.17464168 0.08695947 -0.008845244 -0.0013982104 -0.062490698
-0.07917623 -0.16153508 -0.17080295 -0.0870258 0.022993185 0.17002957 -0.057076275 -0.020390809
0.082961634 -0.13312063 0.104565635 -0.112545066 -0.06646551 -0.08627419 0.09916727 -0.15557328
-0.068976894 -0.070602626 0.018177714 0.055647027 0.12683068 0.13146283 -0.16842356 -0.092651464
0.113787144 0.13687626 -0.04687006 0.09729139 0.008308775 -0.058974564 -0.0072966516 -0.0628583
-0.027998943 0.17261997 -0.15611216 0.006233871 -0.093328655 -0.15232477 -0.17613879 0.10502082
0.11178444 0.039126605 -0.08705699 -0.16227396 0.027078057 -0.055304337 0.089570686 0.09774334
0.13121802 0.033704832 -0.15951343 -0.09091035 -0.16843459 0.15583776 0.11787324 0.0005507767
-0.02019656 -0.0043774173 0.17841616 -0.02106911 -0.07776328 -0.07683853 0.10809539 -0.15536526
-0.0505511 -0.10848329 0.13543394 -0.108130224 0.04102096 -0.07036858 0.044029552 0.17369829
-0.09532848 -0.034129955 0.116364785 0.019367397 0.16385727 0.12555788 -0.116069615 -0.13801731
0.0028231244 0.16815831 -0.03112967 -0.08026963 0.04303419 0.03518164 0.09537564 0.07782428
-0.116905585 0.106943846 0.034651063 -0.09024279 -0.12136779 0.11692852 0.14560167 -0.1781437
-0.16635694 0.15999702 -0.12153132 -0.068533644 -0.12907317 -0.007400132 0.17182884 0.08718275
0.09223835 -0.075757064 0.13397224 -0.026931688 -0.0011615361 0.04992884 0.0035214722 -0.09059936
-0.06620528 0.08716814 -0.13061549 0.04066637 0.06260297 0.053170666 -0.011099473 -0.13914466
-0.054284513 0.11886344 0.15447739 0.17564656 -0.15831967 0.024954578 0.048520625 -0.02741395
-0.090549454 -0.15312994 0.0058248835 -0.17295037 0.14873348 -0.11681072 0.09790899 0.0031254808
00000000: 8a31 0bbe abc9 183e 6ef1 b1bd 943a 25bd
00000010: 51e9 043e 118e 1a3e 7404 28be f02a 643c
00000020: f0d0 17bd 3717 80bd 5f3e bbbd 06b6 23be
00000030: c0cf 3abd 080d 3a3d 9502 1c3e d48a d6bd
00000040: e4eb 023d 3c41 143d 2ad5 e33d 4035 713c
00000050: 0b04 0bbe 4d6c 04be dfc1 b2bd 900b 873c
00000060: 7d53 0b3e e04c 20bd 5726 23be 2579 293e
00000070: 009f 01ba 28df eebc bb76 99bd 327f febd
00000080: daf6 3939 122a 91bd b4ac 173e d2c1 12be
00000090: 2f1c cc3d 8be8 90bd 3ced 253d 25f4 c9bd
000000a0: 4847 ac3d be7d cc3d 4a4c 753a 0c7f 1cbe
000000b0: f19d 45bd 3231 94bd b086 dbbc f606 32bd
000000c0: 45f5 143e 8d19 063d 2326 173e 99f0 223e
000000d0: e806 0abe fc87 74bd 6e3b 13be c22e 02be
000000e0: 5679 263b 7af2 e33d 5201 d3bd 980c f8bd
000000f0: cd09 e7bd 139f 2dbd dfa6 b2bb c4a2 963d
00000100: 220a b7bd 08c0 9abd 6cad fcbd 8b6d 05be
00000110: de50 c3bd c867 0dbd 360a b23d 6ee1 8c3d
00000120: 5880 843d cedd b33d 2f2f 193e ed52 18be
00000130: 55e6 283e 9099 313c 2c95 0ebe 9364 323e
00000140: b3b4 2f3e 612a 243e a89b ad3c 605b e4bc
00000150: c48a 02be 10db 0bbe c2f6 1ebe 548f 633d
00000160: d30e 2ebe 10a5 77bc c43f 1dbd 3238 5bbd
00000170: bc8e 4b3d b5de 2abe 449c 90bd e7ff 13be
00000180: ef81 1abe 762f 00be aed9 ef3c 881f 10be
00000190: 9234 e3bd 6ddd 183e f74f 1b3e c80b d03c
000001a0: b2dd 9bbd a8ec 15bd 16ca 783d 6548 cebd
000001b0: 0664 09be f81a efbc 7b12 d7bd 9e9e 2c3d
000001c0: faea 71bd 1052 693d 0553 073e 45d5 323e
000001d0: ce17 b23d a4eb 10bc 2844 b7ba 3ff6 7fbd
000001e0: 2627 a2bd 7469 25be f8e6 2ebe 953a b2bd
000001f0: 345c bc3c 3b1c 2e3e d0c8 69bd a00a a7bc
00000200: cae7 a93d c650 08be 8226 d63d 077e e6bd
00000210: 121f 88bd 86b0 b0bd 3618 cb3d 9a4e 1fbe
00000220: c243 8dbd 1c98 90bd 6ee9 943c 23ee 633d
00000230: e7df 013e 319e 063e 3a77 2cbe 0dc0 bdbd
00000240: 3c09 e93d 4a29 0c3e d2fa 3fbd b540 c73d
00000250: 8721 083c 508f 71bd c018 efbb dabb 80bd
00000260: 0a5e e5bc 4ac3 303e dedb 1fbe 8045 cc3b
00000270: 1823 bfbd 06fb 1bbe ba5d 34be 2815 d73d
00000280: 3eef e43d 3843 203d ef4a b2bd 252b 26be
00000290: cdd2 dd3c cd86 62bd d670 b73d a92d c83d
000002a0: 045e 063e 140e 0a3d 7d57 23be 352f babd
000002b0: 1e7a 2cbe ef93 1f3e 8667 f13d 0062 103a
000002c0: 4273 a5bc 7070 8fbb bab2 363e 2099 acbc
000002d0: 5b42 9fbd 855d 9dbd 1e61 dd3d 1218 1fbe
000002e0: ac0e 4fbd 7d2c debd 32af 0a3e 6173 ddbd
000002f0: 9805 283d 671d 90bd 5558 343d f7dd 313e
00000300: 943b c3bd dacb 0bbd a950 ee3d 60a8 9e3c
00000310: 33ca 273e 3f92 003e e8b5 edbd 6954 0dbe
00000320: 2b04 393b b131 2c3e a603 ffbc 6764 a4bd
00000330: 9e44 303d a01a 103d 4e54 c33d 5662 9f3d
00000340: 326c efbd 6005 db3d 46ee 0d3d 36d1 b8bd
00000350: ad8f f8bd 3878 ef3d 9b18 153e 4d6b 36be
00000360: 7959 2abe 42d6 233e 6ae5 f8bd 5e5b 8cbd
00000370: c22b 04be ce7c f2bb e6f3 2f3e df8c b23d
00000380: 76e7 bc3d 8526 9bbd 0530 093e d89f dcbc
00000390: af3e 98ba 2f82 4c3d 80c8 663b 288c b9bd
000003a0: a296 87bd 3685 b23d 11c0 05be c891 263d
000003b0: fc35 803d 7cc9 593d 90da 35bc f07b 0ebe
000003c0: 7059 5ebd ad6e f33d 522f 1e3e b1dc 333e
000003d0: 8d1e 22be 8b6d cc3c 90bd 463d 3893 e0bc
000003e0: fe71 b9bd 18ce 1cbe aade be3b e719 31be
000003f0: 974d 183e 753a efbd 8284 c83d ded4 4c3b

bias f4 [32]
-0.012614474 0.14732847 -0.025295615 0.14886786 0.105023965 0.16155416 0.08365366 0.11152162
-0.04753372 0.026737677 0.0015425168 0.1709497 0.13379882 0.071212076 -0.10096364 0.051809788
0.058016196 0.108214915 -0.06305099 0.15691681 0.03273344 -0.111078225 -0.087165885 0.049114216
-0.07273239 0.015481089 -0.15136154 -0.1452089 -0.050658062 0.004786832 0.13808866 0.107599646
00000000: f0ac 4ebc 46dd 163e c038 cfbc d170 183e
00000010: ce16 d73d 746e 253e 9c52 ab3d 7265 e43d
00000020: b8b2 42bd f908 db3c 462e ca3a 700d 2f3e
00000030: 8f02 093e a3d7 913d 06c6 cebd 8036 543d
00000040: 64a2 6d3d c89f dd3d e120 81bd cdae 203e
00000050: 8013 063d fb7c e3bd 0784 b2bd fd2b 493d
00000060: b8f4 94bd 65a4 7d3c 85fe 1abe a4b1 14be
00000070: d47e 4fbd dbda 9c3b 1d67 0d3e 345d dc3d

weight f4 [5, 32]
-0.10899727 0.15333991 -0.05056405 -0.030121583 -0.03079786 0.018190807 -0.002661512 0.1212909
0.08437951 -0.03996631 -0.08405571 0.0077591725 0.047732614 0.1524619 0.1154141 -0.0046498924
-0.015661344 0.02859628 -0.058684587 -0.1023283 0.15578665 -0.0747852 0.09281423 -0.06910458
0.11586874 0.0071151317 0.051939808 -0.046040095 -0.087737806 -0.07383022 -0.1141733 -0.09675649
-0.02470918 0.0955481 -0.03991641 0.12905304 0.17415123 -0.08134059 -0.07018389 -0.050799742
-0.073482014 0.07336938 -0.05148035 -0.062771164 0.110834494 -0.1282484 -0.14196835 -0.15923935
0.08434571 -0.04177502 0.094434425 0.057893824 -0.15511416 0.015526023 0.1366646 0.0038945735
-0.12611999 0.1303926 0.008530951 -0.10698792 -0.16284461 0.040764652 -0.012910217 -0.00067849323
-0.064074546 0.06022757 -0.17124145 -0.17470735 -0.028145082 -0.051090818 -0.15332544 0.1379743
-0.009120613 0.15129043 -0.17016503 -0.09249978 0.081164576 0.1724119 -0.13465396 0.12184094
0.12928678 -0.13715596 0.16917263 0.14677766 -0.15790713 0.031337596 -0.15475787 -0.11445645
0.10107758 -0.15113826 -0.07689083 -0.072156064 0.014683187 -0.16608077 0.022006705 -0.09054757
-0.105321415 0.15478596 0.17101215 0.072953776 -0.14274843 0.04798093 0.054169346 -0.14341739
0.033664748 0.045169834 0.009583181 -0.052916665 -0.05984965 -0.14590046 0.004963417 -0.14389814
0.098373875 -0.0861281 0.15623598 0.14098735 0.008403951 0.042816915 0.15769726 -0.091634244
-0.15019564 0.07225575 0.1747654 0.0791737 0.024084643 0.05946253 0.11939354 0.0113628525
-0.004123375 0.09152695 0.0437831 -0.17623174 0.05840915 0.0025613387 -0.04455815 0.15237099
-0.14706998 -0.012276239 -0.08873219 0.15196463 -0.039464585 -0.011807717 0.12211524 0.13534157
0.032847553 -0.09023691 -0.08506839 -0.15677522 0.10757788 -4.927919e-06 -0.038474895 -0.13047846
0.13341807 -0.13434112 -0.024129448 -0.019900378 -0.10203461 -0.1412279 -0.0795495 -0.07806301
00000000: f639 dfbd 2305 1d3e 401c 4fbd 8ac1 f6bc
00000010: cb4b fcbc e304 953c c36c 2ebb 5d67 f83d
00000020: 2acf ac3d b7b3 23bd 6625 acbd a840 fe3b
00000030: 4683 433d f91e 1c3e 3a5e ec3d 205e 98bb
00000040: 384c 80bc bf42 ea3c 405f 70bd 8091 d1bd
00000050: 8986 1f3e fc28 99bd 6315 be3d b486 8dbd
00000060: 974c ed3d 0d26 e93b d6be 543d 8a94 3cbd
00000070: e1af b3bd 4c34 97bd b1d3 e9bd 4428 c6bd
00000080: e86a cabc b9ae c33d 647f 23bd 7b26 043e
00000090: b354 323e e595 a6bd 92bc 8fbd 6413 50bd
000000a0: bd7d 96bd af42 963d 0fdd 52bd 2b8e 80bd
000000b0: 32fd e23d 8c53 03be 2760 11be a40f 23be
000000c0: 72bd ac3d 491c 2bbd d666 c13d 1322 6d3d
000000d0: 3fd6 1ebe dc60 7e3c cef1 0b3e 1a3c 7f3b
000000e0: 9925 01be a385 053e 67c5 0b3c 7c1c dbbd
000000f0: bdc0 26be d6f8 263d 6085 53bc e9dc 31ba
00000100: 8439 83bd 2fb1 763d eb59 2fbe 7ce6 32be
00000110: 8490 e6bc 9b44 51bd 5801 1dbe 2349 0d3e
00000120: a06e 15bc e1eb 1a3e be3f 2ebe 8670 bdbd
00000130: 9d39 a63d bf8c 303e bae2 09be be87 f93d
00000140: c163 043e 9d72 0cbe 973b 2d3e e24c 163e
00000150: 68b2 21be da5b 003d d978 1ebe 2568 eabd
00000160: c301 cf3d fdc3 1abe f178 9dbd 8fc6 93bd
00000170: c091 703c 1411 2abe 6847 b43c 0171 b9bd
00000180: c1b2 d7bd 3680 1e3e cf1d 2f3e ca68 953d
00000190: a52c 12be a787 443d ade0 5d3d 02dc 12be
000001a0: 0ce4 093d 0104 393d c602 1d3c 25bf 58bd
000001b0: e824 75bd ee66 15be 29a4 a23b 095a 13be
000001c0: 3e78 c93d ee63 b0bd 53fc 1f3e fd5e 103e
000001d0: bab0 093c ca60 2f3d 647b 213e bcaa bbbd
000001e0: e3cc 19be d3fa 933d b3f5 323e d225 a23d
000001f0: 284d c53c fb8e 733d 9a84 f43d 422b 3a3c
00000200: 601d 87bb 7b72 bb3d e855 333d 1876 34be
00000210: 6f3e 6f3d 22dc 273b 9b82 36bd 2407 1c3e
00000220: 8399 16be 4722 49bc 39b9 b5bd 9e9c 1b3e
00000230: 9ea5 21bd 2875 41bc 8e17 fa3d fb96 0a3e
00000240: 288b 063d 21ce b8bd 5638 aebd af89 20be
00000250: cb51 dc3d 805a a5b6 da97 1dbd 259c 05be
00000260: bf9e 083e b890 09be 1fab c5bc 1e06 a3bc
00000270: 86f7 d0bd 0c9e 10be d9ea a2bd 80df 9fbd

bias f4 [5]
-0.15178744 0.11820678 0.1246015 -0.09962862 0.13693292
00000000: 2b6e 1bbe 6516 f23d 122f ff3d 170a ccbd
00000010: 2538 0c3e
