imitator.pt (torch, 19399 bytes, 14 tensors)

weight f4 [32, 8]
0	0xbdfa24b4	-0.12214032
1	0xbef6f662	-0.4823485
2	0xbc0f5b11	-0.008749739
3	0x3efa32b7	0.48866817
4	0x3dbf6ded	0.093471386
5	0x3dadd445	0.08487753
6	0xbe8df6ea	-0.27727443
7	0x3e49008c	0.19629115
8	0xbea82a29	-0.32844666
9	0x3dc052b1	0.09390772
10	0x3e2deeaa	0.16985574
11	0x3e1e54ef	0.15462087
12	0xbea03c26	-0.3129589
13	0xbd4ccbfe	-0.04999923
14	0xbecbc3c9	-0.3979781
15	0xbeaafb8b	-0.33395037
16	0xbdc74109	-0.09729201
17	0x3dea681a	0.11445637
18	0x3e28c6df	0.16482113
19	0x3ecbf901	0.39838412
20	0x3cc42b99	0.02394657
21	0x3cd869fb	0.026417723
22	0x3e52cf80	0.20586967
23	0x3eab7cc2	0.3349362
24	0x3d91a2fd	0.07111166
25	0xbd0c3150	-0.034226716
26	0x3d6d870e	0.057990126
27	0xbd3774b1	-0.04478902
28	0xbe85ccc2	-0.2613278
29	0x3e708ce4	0.23491246
30	0xbb8f7c8d	-0.0043788613
31	0xba14fce9	-0.00056834385
32	0x3e97908c	0.29602468
33	0x3e67df9d	0.22643895
34	0x3e77f29d	0.24213643
35	0xbe5fc479	-0.21852292
36	0x3d4310b3	0.047623347
37	0x3e417292	0.18891361
38	0xbea108c1	-0.3145199
39	0x3e7ec3d9	0.24879397
40	0xbd87fa9c	-0.06639597
41	0xbf59a3c0	-0.8501549
42	0xbe48b39c	-0.19599766
43	0x3e1df45a	0.15425244
44	0x3dbb5ca7	0.091485314
45	0x3dc7d939	0.09758229
46	0xbe8e814a	-0.27833015
47	0x3d1ab68d	0.03777175
48	0x3b808850	0.0039224997
49	0x3cafd413	0.02146343
50	0xbe1584cb	-0.14601438
51	0xbee33996	-0.44379872
52	0x3eb274cf	0.34854743
53	0x3e05597d	0.13022418
54	0x3b80d028	0.003931064
55	0x3e37e4de	0.179584
56	0x3e89b7aa	0.26897937
57	0xbea4c5fe	-0.32182306
58	0x3e30e3c3	0.17274384
59	0x3e9ad5c6	0.3024122
60	0x3de87bf3	0.113517664
61	0xbe91b774	-0.28460276
62	0x3e23f97b	0.16013138
63	0xbe89f72c	-0.2694639
64	0x3f0874d3	0.5330326
65	0xbefdc3e3	-0.49563512
66	0xbe1118b9	-0.14169587
67	0xbcdafdc2	-0.02673233
68	0xbd17f296	-0.037096582
69	0xbe015893	-0.12631445
70	0x3e598d55	0.2124532
71	0x3dd5d37d	0.10440729
72	0x3d165461	0.036701564
73	0xbe445d84	-0.19176298
74	0xbe87f11b	-0.26551136
75	0x3ea7df4d	0.32787552
76	0xbccba42b	-0.024858555
77	0xbe6c2b25	-0.23063333
78	0xbe5e2876	-0.21695122
79	0xbe113746	-0.14181241
80	0xbe66a6f6	-0.22524628
81	0xbcf1a0ea	-0.029495675
82	0xbd445d87	-0.047940757
83	0x3e8901c4	0.2675916
84	0xbeaa23fe	-0.33230585
85	0xbe707aa6	-0.23484287
86	0x3e0782a4	0.13233429
87	0x3e8955b2	0.26823193
88	0xbd58564e	-0.05281668
89	0x3f26b46b	0.65119046
90	0xbc87e620	-0.016589224
91	0xbd9a9baf	-0.075492255
92	0x3e8c961c	0.27458274
93	0xbdceabf6	-0.10091393
94	0xbe7a1445	-0.24421795
95	0xbcb3c4d3	-0.021944439
96	0x3ece6aea	0.40315944
97	0x3d998467	0.07495957
98	0xbd14827c	-0.036257252
99	0x3ba49133	0.005022192
100	0xbe82ec93	-0.25571117
101	0x3e56f489	0.2099172
102	0x3d9ff539	0.078104444
103	0xbe042775	-0.12905677
104	0xbd5fa186	-0.0545974
105	0xbd445d27	-0.0479404
106	0x3d7083ee	0.058719568
107	0xbd9d8e5b	-0.07693168
108	0xbe437c86	-0.1909047
109	0x3e54a77e	0.20767018
110	0xbe2000ec	-0.15625352
111	0xbdc89d39	-0.09795613
112	0xbe2aa740	-0.16665363
113	0xbdd5fe2e	-0.104488716
114	0xbe706dfc	-0.23479456
115	0xbdec75d1	-0.11545909
116	0xbe4e2066	-0.20129547
117	0xbe10bfba	-0.14135638
118	0xbd9633f2	-0.073341265
119	0xbe794c6b	-0.24345557
120	0xbe9f7bb6	-0.3114907
121	0x3d1254f4	0.03572555
122	0x3e0ce1af	0.13757966
123	0xbe8d2031	-0.27563623
124	0x3e4cae01	0.19988252
125	0x3e85a0ad	0.26099148
126	0x3def6443	0.11689045
127	0xbd9ce157	-0.07660168
128	0x3e78ac1d	0.24284406
129	0xbe1ec8d9	-0.15506305
130	0x3e958013	0.29199275
131	0xbe9c4dc2	-0.30528075
132	0x3e37c9dd	0.17948098
133	0xbe1f8f12	-0.1558192
134	0xbda97a42	-0.08275272
135	0x3e903524	0.28165543
136	0x3f3c76e4	0.7361891
137	0x3a83a23d	0.0010042858
138	0xbe7285ab	-0.23683803
139	0x3e38552a	0.18001238
140	0x3b90d802	0.0044202814
141	0xbe7117fd	-0.23544307
142	0xbe20b8c2	-0.1569548
143	0x3e63a705	0.22231682
144	0x3ced0e36	0.02893744
145	0x3d9deabd	0.077107884
146	0xbeb57005	-0.35437027
147	0x3eae549f	0.34048936
148	0xbe611bd5	-0.21983273
149	0x3cfbdade	0.030744012
150	0xbdd4fe31	-0.10400046
151	0x3dcbead4	0.09956899
152	0x3dd0e31a	0.10199566
153	0xbdd7924a	-0.10525949
154	0x3e84965f	0.25895974
155	0x3d23581b	0.039878946
156	0x3efaa379	0.48952845
157	0xbd00b128	-0.03141895
158	0x3e0b6be6	0.13615379
159	0xbd53c7bb	-0.05170415
160	0xbe39e30d	-0.18153019
161	0xbebb18f1	-0.36542466
162	0x3ea9fbe5	0.33199993
163	0x3e82efef	0.2557368
164	0xbd6ae43e	-0.057346575
165	0xbcd40874	-0.025882937
166	0xbe7a281f	-0.24429367
167	0x3d7450b0	0.059647262
168	0xbe391e32	-0.18077925
169	0xbef58db0	-0.4795966
170	0x3e9c9f7b	0.30590424
171	0x3d9e6d78	0.07735723
172	0x3ddfb9f5	0.1092414
173	0x3e6864c6	0.22694692
174	0x3dc2babb	0.09508272
175	0xbdd0d1df	-0.1019628
176	0xbe4828e3	-0.19546847
177	0xbe9b9f29	-0.30394867
178	0x3ef847e0	0.48492336
179	0x3df284fb	0.1184177
180	0xbe64577d	-0.22298999
181	0x3d6294e9	0.055317793
182	0x3c3a1492	0.011357443
183	0x3c83333a	0.016015638
184	0x3e8d27e1	0.27569488
185	0xbe352e59	-0.17693461
186	0xbe71e6e9	-0.23623241
187	0x3ec72c3e	0.38900942
188	0xbce1a28d	-0.02754333
189	0x3dd4225e	0.103581175
190	0xbdf931f9	-0.12167735
191	0xbd48e644	-0.049047723
192	0xbf1270c2	-0.57203305
193	0x3db86376	0.09003346
194	0xbe87e04f	-0.2653832
195	0x3e73c4a3	0.2380548
196	0xbbaafc5e	-0.005218073
197	0xbe51738b	-0.20454232
198	0x3cfdcda9	0.030981855
199	0xbe2c27b6	-0.16812024
200	0xbe1cea36	-0.1532372
201	0xbefbbc52	-0.49167114
202	0xbcdbafc9	-0.02681722
203	0x3ebfe45f	0.3747892
204	0x3e99eee7	0.3006508
205	0xbc6b6b69	-0.01436887
206	0xbe25a799	-0.16177215
207	0x3e19323e	0.14960572
208	0xbede641e	-0.43435758
209	0xbe894dc1	-0.26817134
210	0x3e9d7043	0.3074971
211	0xbe830d8b	-0.2559627
212	0x3da25f5c	0.079283446
213	0xbdba2c25	-0.09090451
214	0xbc976715	-0.01848177
215	0x3d931769	0.071821995
216	0xbe2a959e	-0.16658637
217	0xbe93404c	-0.28759992
218	0xbdb46e41	-0.08810092
219	0xbd8008e8	-0.06251699
220	0xbe33d8b2	-0.17563131
221	0xbd732973	-0.0593657
222	0xbee3d815	-0.44500795
223	0x3e2dcf10	0.1697352
224	0xbdbf4c40	-0.093407154
225	0x3e0a6ae2	0.13517335
226	0xbeb6d4cd	-0.3570923
227	0xbd2f6e8b	-0.04283003
228	0xbe9a93f4	-0.30191004
229	0xbca14166	-0.019684505
230	0x3eaeb43f	0.34121892
231	0x3e6fd9c9	0.23422922
232	0x3e1e72ed	0.15473528
233	0x3eaf13a5	0.34194675
234	0xbe3c5e67	-0.18395387
235	0xbe25bcf2	-0.16185358
236	0x3e30d884	0.17270094
237	0xbe96168c	-0.29314077
238	0x3dda6cfc	0.10665318
239	0xbe4333b6	-0.19062695
240	0x3e27975e	0.16366336
241	0xbf0468dd	-0.5172251
242	0xbe7f54b4	-0.24934655
243	0x3e9396f2	0.288261
244	0x3e822ccf	0.2542481
245	0x3e12c1a7	0.14331685
246	0x3e8a5691	0.2701917
247	0xbeb69813	-0.35662898
248	0x3e07ef56	0.13274893
249	0xbf4ce6c1	-0.800396
250	0x3e5f41e8	0.21802485
251	0x3f015570	0.5052099
252	0xbc2eb6ab	-0.010663669
253	0x3d2e1d59	0.042508457
254	0xbcaa5b39	-0.020795451
255	0xbd72bb32	-0.059260555

bias f4 [32]
0	0x3e7595a1	0.2398286
1	0x3dcfd5ad	0.10148177
2	0xbdf107d4	-0.11769071
3	0x3bf642e4	0.007515298
4	0x3d340c66	0.043957137
5	0xbe9601b8	-0.29298186
6	0x3ded8df2	0.115993395
7	0xbe6fc20e	-0.2341387
8	0x3e659546	0.22420225
9	0x3ea1c5ef	0.31596324
10	0x3d480f33	0.04884262
11	0x3e93ec68	0.288913
12	0x3beb25a8	0.00717612
13	0x3e60b38a	0.21943489
14	0x3e345d07	0.17613612
15	0xbe9690dd	-0.29407397
16	0xbe916d28	-0.28403592
17	0xbdacf415	-0.084449925
18	0x3e0ffabf	0.14060496
19	0xbd87afb0	-0.066253066
20	0xbd9105d6	-0.07081191
21	0x3e59f274	0.21283895
22	0x3ea201af	0.3164191
23	0x3e1a5519	0.15071525
24	0x3dd4ad67	0.10384636
25	0x3e386a1c	0.18009228
26	0x3d559654	0.052145317
27	0xbea2cec5	-0.31798378
28	0xbeb3ce63	-0.35118398
29	0xbea9c9e5	-0.33161846
30	0xbe9ee04d	-0.31030503
31	0x3e888928	0.26667142

weight f4 [32]
0	0x3f9a2e60	1.2045403
1	0x3f45ef80	0.77318573
2	0x3f35c2cb	0.71000355
3	0x3f9c5453	1.2213234
4	0x3f81a5f9	1.0128776
5	0x3f6590fb	0.8967435
6	0x3f73ef2e	0.95286834
7	0x3f8c6643	1.0968708
8	0x3f646c4d	0.89227754
9	0x3f635314	0.8879864
10	0x3f4e395d	0.8055628
11	0x3f6f9105	0.9358066
12	0x3f90c034	1.1308656
13	0x3f5e07e5	0.86730796
14	0x3f534102	0.8252107
15	0x3f60d413	0.878236
16	0x3f7d0005	0.98828155
17	0x3fa1e4ba	1.2647927
18	0x3f67707a	0.90406
19	0x3f594590	0.8487177
20	0x3f7bd9bf	0.9837913
21	0x3f803bca	1.0018246
22	0x3f774882	0.96595013
23	0x3f6f3692	0.9344264
24	0x3f6805a0	0.90633583
25	0x3f8ea151	1.114298
26	0x3f8eed95	1.1166254
27	0x3f4e5fb1	0.80614763
28	0x3f3ac309	0.7295385
29	0x3f5d4278	0.8642955
30	0x3f8d2a01	1.1028444
31	0x3f743f0d	0.9540871

bias f4 [32]
0	0xbe419278	-0.1890353
1	0xbe68de55	-0.22741063
2	0xbe60cc8d	-0.2195303
3	0xbe44aeef	-0.19207357
4	0x3d1fd8c3	0.03902508
5	0x3bac5738	0.0052594207
6	0xbe2fe0f1	-0.17175652
7	0xbe44fa6a	-0.1923615
8	0x3d45b2cf	0.04826623
9	0xbab0f7a4	-0.0013501537
10	0xbdd96588	-0.10615069
11	0x3d1d6144	0.038422838
12	0xbe3d7878	-0.18502986
13	0x3dde90a1	0.108674295
14	0xbdc8a08e	-0.097962484
15	0xbe038fb5	-0.12847789
16	0xbe466c71	-0.19377305
17	0xbe3410a2	-0.1758447
18	0x3c55ec70	0.013056859
19	0xbe0a3ad0	-0.13498998
20	0xbd0ed592	-0.034871645
21	0xbd74621e	-0.059663884
22	0xbe899752	-0.2687326
23	0x3bf86e2c	0.007581493
24	0xbcab105f	-0.02088183
25	0xbe2e06c7	-0.16994773
26	0xbdde0729	-0.108412094
27	0xbdd1ac0a	-0.10237892
28	0xbe5bea6b	-0.21476142
29	0x3e4e5492	0.20149449
30	0xbe3acb62	-0.18241647
31	0xbea2a6da	-0.31767923

running_mean f4 [32]
0	0xc0c48e26	-6.142352
1	0x428846da	68.13838
2	0xc110a85b	-9.041102
3	0xbf8259b4	-1.0183625
4	0x41cb9ac9	25.450579
5	0xc23a7d97	-46.622646
6	0xc223ac22	-40.9181
7	0x4144685f	12.275481
8	0xc25ef8dd	-55.74303
9	0x41d5f584	26.74488
10	0xc1f2cfdb	-30.351492
11	0x4289077a	68.5146
12	0x41b66e1f	22.80377
13	0x41449255	12.285726
14	0xc01a5e98	-2.4120235
15	0xc1a20d07	-20.256361
16	0xc20c151e	-35.020622
17	0x41a01f3b	20.01525
18	0x419aa600	19.331055
19	0xbfa7a88c	-1.3098311
20	0x3fbc02af	1.4688319
21	0xc1ea52d1	-29.290438
22	0xc1721bd8	-15.131798
23	0x41d93e36	27.155376
24	0x410eef13	8.933368
25	0xc1a245c3	-20.284063
26	0xc243ded0	-48.96759
27	0xc1722bb7	-15.135673
28	0xc24b9985	-50.89992
29	0x41c02e9a	24.022755
30	0xc1692f4a	-14.574045
31	0xc1922d43	-18.2721

running_var f4 [32]
0	0x441c1b3c	624.42554
1	0x44a2f31f	1303.5975
2	0x44bc4817	1506.2528
3	0x41dff45f	27.994322
4	0x42eed470	119.41492
5	0x4340913e	192.56735
6	0x43894f77	274.62082
7	0x42f2e873	121.454
8	0x43c633c4	396.40442
9	0x43a853fd	336.65616
10	0x4411ac1b	582.68915
11	0x4385864c	267.0492
12	0x428ab5fb	69.35543
13	0x42e8b6b4	116.35684
14	0x44875afe	1082.8435
15	0x4395e04f	299.7524
16	0x42a2cce0	81.40015
17	0x438406de	264.05365
18	0x42936d8e	73.713974
19	0x4461331f	900.79877
20	0x438f00cf	286.00632
21	0x4413e7a3	591.6193
22	0x439210c6	292.13104
23	0x4366156f	230.08372
24	0x4301e78b	129.90446
25	0x44266e8f	665.7275
26	0x4319bb30	153.7312
27	0x4425d0de	663.26355
28	0x447d527a	1013.2887
29	0x43a08a59	321.08084
30	0x442410f8	656.26514
31	0x44081039	544.2535

weight f4 [64, 32]
0	0xbd60d0dc	-0.054886684
1	0xbdc759c7	-0.097339205
2	0x3cf688e3	0.03009457
3	0xbe09152a	-0.1338698
4	0xbdd5731c	-0.10422346
5	0xbe493a09	-0.19651045
6	0xbda2e8ef	-0.07954585
7	0x3dc30d5f	0.09524035
8	0xbdbb27c0	-0.09138441
9	0x3d543bf8	0.051815003
10	0x3cf59bbf	0.029981492
11	0x3e10892d	0.14114828
12	0xbe9c9835	-0.30584875
13	0xbe6a07fc	-0.22854608
14	0xbd386678	-0.045019597
15	0x3dd646c9	0.1046272
16	0xbe1a5ff7	-0.1507567
17	0x3dece7ee	0.115676746
18	0xbda362cd	-0.07977829
19	0x3d61813a	0.05505488
20	0x3d6bf43c	0.057605967
21	0xbe220e9f	-0.1582589
22	0x3e0afb15	0.13572343
23	0x3e21c356	0.15797171
24	0x3d9048dc	0.07045147
25	0x3e83255f	0.2561445
26	0xbdeda2e7	-0.11603337
27	0x3e202664	0.15639645
28	0xbdc6f75b	-0.09715148
29	0x3bf75333	0.00754776
30	0x3da3fe9b	0.080075465
31	0xbd03dae9	-0.03219119
32	0x3e4755a8	0.19466269
33	0x3cfc3d34	0.030790903
34	0x3d9521be	0.072818264
35	0x3df75089	0.12075908
36	0x3de85388	0.11344057
37	0x3ccc04a2	0.024904553
38	0xbdb5eabc	-0.08882663
39	0x3e1c0ddc	0.15239662
40	0x3d21d71b	0.03951178
41	0xbcbbe49d	-0.02293616
42	0x3a72ca2e	0.00092616945
43	0xbe7028d7	-0.23453079
44	0xbe2c47e5	-0.168243
45	0x3c8cf29f	0.017205535
46	0x3e006fe1	0.12542678
47	0xbcb18aba	-0.021672595
48	0xbcdcb616	-0.026942294
49	0xbe585cda	-0.2112917
50	0xbd516d27	-0.051129486
51	0x3bbcf926	0.0057670055
52	0x3dfa03ec	0.12207779
53	0x3e2e4681	0.17019083
54	0xbdef032f	-0.11670529
55	0x3e349987	0.17636691
56	0xbd310d54	-0.0432256
57	0x3e2f7dcd	0.17137833
58	0xbe51fc60	-0.2050643
59	0x3e9d75f9	0.30754068
60	0xbd990075	-0.0747079
61	0x3d9fb59c	0.07798311
62	0xbd2b3fe6	-0.041808985
63	0x3c67521b	0.014118697
64	0xbe8ed0f1	-0.27893785
65	0xbe41bfd9	-0.1892084
66	0x3d08438a	0.033267535
67	0xbc2a3d6c	-0.010390621
68	0x3dda8419	0.10669727
69	0xbe0a19bb	-0.13486378
70	0x3dc7a8a5	0.09748963
71	0xbd913ddb	-0.07091876
72	0xbc23574a	-0.009969542
73	0xbda7ff2f	-0.08202969
74	0xbdf48399	-0.11939163
75	0xbc47cb33	-0.012194443
76	0x3de15ed5	0.11004416
77	0x3d659164	0.05604686
78	0x3cc79226	0.024361681
79	0xbd222392	-0.039584704
80	0x3e2ec419	0.17066993
81	0xbddcf2cf	-0.107884996
82	0xbd16f80a	-0.036857642
83	0x3d70ac22	0.05875791
84	0xbd839d58	-0.06426495
85	0xbe45ff76	-0.19335732
86	0xbe857046	-0.2606222
87	0xbc282b82	-0.010264279
88	0xbe05be5b	-0.13060896
89	0xbc61a4da	-0.013772214
90	0xbd4dcf3e	-0.05024647
91	0x3d0fe3e2	0.035129435
92	0x3d04ac1c	0.0323907
93	0xbd583569	-0.05278531
94	0xbe54486a	-0.20730749
95	0xbe81adf1	-0.2532802
96	0xbe8d1d25	-0.27561298
97	0x3e239435	0.15974505
98	0xbde5ce4f	-0.11220991
99	0xbe8bef7e	-0.27331156
100	0x3d8e3ee5	0.0694559
101	0xbdeb0c3d	-0.11476944
102	0x3e425105	0.18976219
103	0xbe486181	-0.19568445
104	0xbd1e2070	-0.038605154
105	0xbe3d20c7	-0.18469535
106	0xbd976648	-0.073925555
107	0x3da30420	0.07959771
108	0x3e2c5473	0.1682909
109	0x3d189fa7	0.03726163
110	0x3cdb60ce	0.026779559
111	0xbe41ca9d	-0.18924947
112	0x3d3c8781	0.046027664
113	0x3e5d6e1b	0.21624033
114	0x3dd23f48	0.10265976
115	0xbd20d3f7	-0.039264645
116	0xbdd95640	-0.10612154
117	0xbe168b0d	-0.14701481
118	0xbd452051	-0.048126522
119	0x3e1b43f0	0.15162635
120	0x3e0d4a12	0.13797787
121	0xbe9044fa	-0.28177625
122	0x3cd1b989	0.025601165
123	0xb8b9cee9	-8.8600274e-05
124	0xbcb64913	-0.022251641
125	0xbd241354	-0.040057495
126	0x3dcb348f	0.09922134
127	0xbe86c517	-0.26322243
128	0x3df11272	0.11771096
129	0x3e43bba9	0.19114555
130	0xbe9dc493	-0.30814037
131	0xbdd608c0	-0.10450888
132	0xbe9b02dd	-0.30275622
133	0x3d989e99	0.07452125
134	0xbd70d79c	-0.05879937
135	0xbddd00ff	-0.107912056
136	0xbd5a9462	-0.053364165
137	0xbc967dca	-0.018370528
138	0x3d093387	0.033496406
139	0xbe092372	-0.13392428
140	0xbe456292	-0.19275883
141	0x3e5b9ebb	0.2144727
142	0x3e1ae33a	0.15125743
143	0xbd8bffa4	-0.06835869
144	0x3dab5ddc	0.08367512
145	0x3908898c	0.00013021211
146	0x3e580a9d	0.21097799
147	0x3dc4cc84	0.09609321
148	0x3d8cb759	0.06870908
149	0xbd9718a3	-0.07377746
150	0x3d153eee	0.036436968
151	0xbda5d6a0	-0.08097577
152	0x3e249183	0.16071133
153	0x3cc8fb91	0.024534019
154	0x3db0d747	0.08634811
155	0x3dc73dc3	0.09728577
156	0xbd25f731	-0.040518943
157	0xbe5e22e6	-0.21693
158	0xbdc60248	-0.09668404
159	0xbd1d6161	-0.038422946
160	0xbe116689	-0.1419927
161	0xbe20c04d	-0.15698357
162	0x3e06ca21	0.13163044
163	0xbe512195	-0.20422967
164	0x3e583feb	0.21118133
165	0x3b155e8b	0.0022791948
166	0x3d61dfab	0.055144947
167	0x3c64bf31	0.013961599
168	0x3da0a4c8	0.078439295
169	0xbdefe70d	-0.11713991
170	0x3dabc316	0.08386819
171	0x3df33ac2	0.118764415
172	0xbe684285	-0.22681625
173	0xbe310317	-0.17286335
174	0xbd1f2b8f	-0.0388599
175	0x3e18bb80	0.14915276
176	0x3d4168e9	0.04721919
177	0xbe4d7216	-0.20063052
178	0x3dfc90ee	0.12332331
179	0xbc7fb4b3	-0.015607047
180	0xbdb9f245	-0.09079412
181	0xbe363667	-0.1779419
182	0x3e3e530b	0.18586366
183	0xbc5f9d47	-0.013648338
184	0x3e843491	0.25821355
185	0xbe321afa	-0.17393103
186	0x3e066aaa	0.13126627
187	0xbd47ea6d	-0.04880755
188	0x3de6eb2e	0.11275326
189	0x3de9351f	0.11387085
190	0xbe8015ff	-0.25016782
191	0x3d50fcf9	0.051022504
192	0xbd0cbe73	-0.034361314
193	0xbe34b623	-0.17647605
194	0xbe2dc41d	-0.16969343
195	0xbdfd159b	-0.123576365
196	0xbe4aa1bc	-0.1978826
197	0x3e006835	0.12539752
198	0xbdb433ac	-0.08798918
199	0x3ca8b58b	0.020594379
200	0x3e7830ca	0.24237362
201	0xbbff0a19	-0.007783186
202	0xbe822f56	-0.2542674
203	0x3da8621c	0.08221838
204	0xbe74f948	-0.23923218
205	0xbdd653c3	-0.10465195
206	0x3e2153b4	0.15754586
207	0x3d03ddc0	0.0321939
208	0x3d02e9c8	0.031961232
209	0x3e3efd37	0.18651281
210	0x3dadcfac	0.08486876
211	0x3de0a57b	0.10969063
212	0xbb9e5daa	-0.004832943
213	0x3cca6b53	0.02470938
214	0xbd5c4000	-0.053771973
215	0xbde2cc00	-0.11074066
216	0x3df3cf94	0.11904827
217	0x3e9f49ea	0.3111108
218	0x3db32a57	0.0874831
219	0x3cff95af	0.031199304
220	0xbdbbf1ad	-0.09176955
221	0x3d8cc572	0.06873597
222	0x3ddd9a32	0.10820426
223	0xbcac2d85	-0.0210178
224	0xbe3cf1b6	-0.1845158
225	0xbcd45535	-0.025919536
226	0x3dd79614	0.10526672
227	0x3e2003ad	0.15626402
228	0xbc22c1a5	-0.009933864
229	0x3d171956	0.036889397
230	0xbdc69b75	-0.0969762
231	0xbdcc64b0	-0.09980142
232	0xbdcb83a3	-0.09937217
233	0xbdce0d63	-0.10061147
234	0xbe1f5921	-0.15561344
235	0x3d380011	0.04492194
236	0x3e65a42c	0.22425908
237	0x3c8ccb6a	0.01718684
238	0xbe1e7f2c	-0.154782
239	0xbdd03742	-0.101667896
240	0x3de87fde	0.11352514
241	0xbe318d16	-0.17338976
242	0x3d123f99	0.035705183
243	0x3cf87ecd	0.0303339
244	0x3ce9d56f	0.028544156
245	0x3d151862	0.036400206
246	0xbe689e81	-0.22716714
247	0xbe1242f4	-0.14283353
248	0x3da8734e	0.082251176
249	0xbdbf8361	-0.093512304
250	0xbddb52e6	-0.10709171
251	0xbdc5ceb7	-0.09658568
252	0x3d977965	0.07396201
253	0x3d0c658d	0.034276534
254	0xbdc9da48	-0.09856087
255	0xbe4dc634	-0.2009514

bias f4 [64]
0	0x3d7f52db	0.062334877
1	0xbd1a6c4d	-0.03770094
2	0xbe176bd0	-0.14787221
3	0xbd642306	-0.055697463
4	0x3d5f37fc	0.05449675
5	0xbe2157be	-0.15756127
6	0xbd936fcd	-0.07199059
7	0x3e076a89	0.13224234
8	0x3d3f3651	0.04668266
9	0xbd9f78fb	-0.07786747
10	0x3e361a4d	0.1778347
11	0xbcc99947	-0.024609221
12	0x3d9aadef	0.075527065
13	0xbc69fbeb	-0.014281253
14	0xbc8a77d0	-0.016902834
15	0x3e23d593	0.15999441
16	0xbe28b122	-0.16473821
17	0x3dbf6956	0.09346263
18	0xbde8b16b	-0.11361965
19	0xbd76fa27	-0.060297158
20	0x3de93239	0.11386532
21	0xbe27a9c6	-0.16373357
22	0xbd00d839	-0.031456206
23	0xbcaa388b	-0.020778915
24	0x3deb5b53	0.11492028
25	0xbe29c905	-0.16580589
26	0xbce21a28	-0.027600363
27	0xbdbd4e96	-0.09243505
28	0x3e1c2b96	0.15251002
29	0x3dd39f12	0.10333075
30	0x3ca04e65	0.019568631
31	0x3d9a3086	0.07528786
32	0x3e41faba	0.18943301
33	0xbe053ad6	-0.13010725
34	0x3d01196c	0.031518385
35	0x3e2cf4c4	0.16890246
36	0x3bd75c56	0.0065722866
37	0xbdede3d1	-0.11615718
38	0x3e53a036	0.20666584
39	0x3e31a8af	0.17349504
40	0x3dc29256	0.095005676
41	0x3e069fdb	0.13146918
42	0xbbda9a8f	-0.006671257
43	0xbe21e96a	-0.15811697
44	0xbe0b774d	-0.13619728
45	0x3db1b367	0.086767964
46	0xbd230cea	-0.039807238
47	0x3e30d37e	0.17268178
48	0x3cc7d5bf	0.024393914
49	0x3e060936	0.13089451
50	0x3d0d7a0c	0.03454022
51	0xbd3ebdb8	-0.04656765
52	0xbdadb624	-0.08482006
53	0xbe1904eb	-0.14943282
54	0xbe37d064	-0.17950588
55	0xbc9d8980	-0.019230604
56	0xbe033853	-0.12814455
57	0xbe4a2e04	-0.19744116
58	0x3d3e337b	0.046435814
59	0xbd9319e6	-0.07182674
60	0xbbb312d1	-0.0054648896
61	0xbd64c158	-0.05584845
62	0xbe18b19a	-0.149115
63	0xbd251c0f	-0.040309962

weight f4 [64]
0	0x3fcbdb2b	1.592626
1	0x3fac5208	1.3462534
2	0x3fdcf02d	1.7260796
3	0x3fb90527	1.4454697
4	0x3faf888a	1.3713543
5	0x3fb6a833	1.427008
6	0x3fc3cf90	1.5297718
7	0x3fca6a75	1.5813738
8	0x3fa52012	1.2900412
9	0x3fc8e2b2	1.5694182
10	0x3fc85255	1.5650126
11	0x3fceef54	1.6166787
12	0x3fc5e6df	1.5461081
13	0x3fdeb4bb	1.7398905
14	0x3ffde2ca	1.9834836
15	0x3ffa89a3	1.9573253
16	0x400091d1	2.0089
17	0x3fda7794	1.7067742
18	0x3fd54612	1.6662009
19	0x3fa59641	1.2936479
20	0x3fe27de9	1.7694675
21	0x3fc4907b	1.5356592
22	0x3fbd5995	1.4792963
23	0x3fcf5289	1.6197063
24	0x3fbec573	1.4904007
25	0x3fc1cd50	1.5140781
26	0x3fdaf369	1.7105533
27	0x3fb3ce93	1.4047416
28	0x3ff56404	1.9171147
29	0x3fcadfe7	1.584958
30	0x3fc204d2	1.5157721
31	0x3fd45ea1	1.6591378
32	0x3fc90388	1.5704203
33	0x3fd875f1	1.6910993
34	0x3fb634b9	1.423484
35	0x3feb2088	1.8369303
36	0x4008633a	2.1310563
37	0x3fd07cfe	1.6288145
38	0x3fcea5e7	1.6144379
39	0x3fb610eb	1.4223913
40	0x3faa49bb	1.3303751
41	0x3fdf6aa0	1.7454414
42	0x40008739	2.0082533
43	0x3fdb62ce	1.7139528
44	0x3fb6b2eb	1.4273351
45	0x3fca38ff	1.5798644
46	0x3fd602ca	1.6719601
47	0x3fb5ebcb	1.4212583
48	0x3fb8d06e	1.4438608
49	0x3fb2bf06	1.3964546
50	0x3fb7031e	1.4297826
51	0x3fb36fbb	1.4018472
52	0x3fc932f6	1.5718677
53	0x3fb017ae	1.3757226
54	0x3fc127b0	1.5090237
55	0x3fd63a38	1.6736517
56	0x3ff29531	1.895178
57	0x3fab0411	1.3360616
58	0x3fbb5f92	1.4638541
59	0x3fbba450	1.4659519
60	0x3fecaed6	1.8490856
61	0x3fc729b1	1.5559598
62	0x3ffe1947	1.9851464
63	0x3fe85527	1.8150986

bias f4 [64]
0	0x3e1d9591	0.15389086
1	0x3e46fcb7	0.1943234
2	0x3e18aa15	0.14908631
3	0x3eb263b7	0.348417
4	0x3ebcf14b	0.36902842
5	0x3d744038	0.059631556
6	0x3e32693e	0.17422959
7	0x3de4ab04	0.11165431
8	0x3e88c9e8	0.26716542
9	0x3ea10472	0.31448704
10	0x3d5f9122	0.05458177
11	0x3d326f31	0.04356307
12	0x3e79d0d4	0.24396068
13	0x3e9bb2c9	0.3040984
14	0x3efe10dd	0.4962224
15	0x3d841c25	0.06450681
16	0x3e4f68c1	0.20254804
17	0x3e21ac41	0.15788366
18	0x3eaa0e27	0.33213922
19	0x3e7c3e54	0.24633151
20	0x3e05b8b4	0.1305874
21	0x3cb09e66	0.021559905
22	0x3e5fdc34	0.21861345
23	0x3e8ec9d1	0.2788835
24	0x3e89b902	0.26898962
25	0x3e95e215	0.2927405
26	0x3e124476	0.14283928
27	0x3c36bf6c	0.011154037
28	0x3ea9b3dc	0.33145034
29	0x3de931ea	0.113864735
30	0xbdccf893	-0.10008349
31	0x3f073ba1	0.5282536
32	0xbaad1264	-0.0013204333
33	0x3da60360	0.081061125
34	0x3ea08e11	0.31358388
35	0x3e3cdfa6	0.1844469
36	0x3ecf2d2b	0.40464148
37	0xbe344904	-0.17605978
38	0x3e486e5f	0.19573353
39	0x3e4bf380	0.19917107
40	0x3ddae472	0.10688104
41	0xbc8fdd3b	-0.017561546
42	0x3f221d6a	0.6332613
43	0x3eee57d8	0.46551394
44	0xbdba37d1	-0.090926774
45	0x3eb1f96d	0.3476061
46	0xbd71e75f	-0.059058543
47	0x3e8764d8	0.26444125
48	0x3ea0b80e	0.31390423
49	0xbd9716bd	-0.07377384
50	0xbd7dd5e5	-0.061971564
51	0x3ea3f6c3	0.32024202
52	0x3e9ded04	0.3084489
53	0x3e51b6dd	0.20479913
54	0x3ea3c4ab	0.31985983
55	0xbe0c4dff	-0.13701628
56	0x3e80f77a	0.2518881
57	0x3df1c0b5	0.11804334
58	0x3e3476c6	0.17623433
59	0x3e45e6db	0.19326346
60	0x3eb9fa97	0.36323997
61	0x3dd20322	0.10254504
62	0x3eace751	0.3377023
63	0x3eb89d89	0.3605769

running_mean f4 [64]
0	0xbe097da0	-0.13426828
1	0x3dcb0d34	0.09914628
2	0xbf1f2900	-0.62171936
3	0xbe873a13	-0.26411495
4	0xbd86e578	-0.065867364
5	0xbe685232	-0.22687605
6	0x3d2be51d	0.041966546
7	0xbe3fc307	-0.18726741
8	0x3eac5e2c	0.33665597
9	0xbe8b9fc4	-0.2727033
10	0x3be510bd	0.0069905207
11	0xbedf10b2	-0.43567425
12	0x3e081e87	0.13292895
13	0x3ead7399	0.33877257
14	0x3e684ef5	0.2268637
15	0x3c9f134a	0.019418377
16	0x3de54b17	0.11195963
17	0x3e819009	0.25305203
18	0xbec50fc7	-0.384886
19	0xbdc778a8	-0.0973981
20	0x3f1809eb	0.59390134
21	0x3e6d62c8	0.23182213
22	0x3dfb8ff4	0.12283316
23	0xbe8c1c9b	-0.27365574
24	0x3ef32330	0.47487783
25	0xbf24d86d	-0.6439274
26	0xbf0a4afc	-0.5402067
27	0xbdb430c0	-0.08798361
28	0x3d705440	0.058674097
29	0xbd90d82f	-0.07072484
30	0xbf06e698	-0.5269561
31	0xbd610180	-0.05493307
32	0x3eff9419	0.49917677
33	0xba338c68	-0.000684923
34	0x3c76c462	0.01506147
35	0x3f2e694a	0.6812941
36	0xbe49b9b8	-0.19699752
37	0xbd371cb2	-0.0447051
38	0x3e8c15af	0.27360293
39	0x3eee3174	0.46522105
40	0x3ee51f4d	0.44750443
41	0x3f18ad0d	0.59639055
42	0xbddeb5e5	-0.108745374
43	0xbf39beb0	-0.7255659
44	0xbeec10dc	-0.46106613
45	0xbeeaca2e	-0.45857376
46	0x3ebaeb26	0.3650753
47	0xbd23468f	-0.03986221
48	0xbe6d1586	-0.23152742
49	0x3e9ddc97	0.3083236
50	0x3f058f35	0.5217164
51	0x3ecd517d	0.40101233
52	0xbefe5514	-0.49674284
53	0xbed2fd9b	-0.4120911
54	0x3e29d1a5	0.1658388
55	0x3ef9aa09	0.4876254
56	0xbdf25a61	-0.11833645
57	0xbe787e00	-0.24266815
58	0x3ebc27f6	0.36749238
59	0xbeaae47f	-0.33377454
60	0xbeaa3b0e	-0.3324818
61	0x3eb18668	0.34672856
62	0xbeedf884	-0.46478665
63	0xbde3007a	-0.11084075

running_var f4 [64]
0	0x3ded9940	0.11601496
1	0x3d5cc053	0.053894352
2	0x3df5bb1a	0.119985774
3	0x3e7d3306	0.24726495
4	0x3e4b922a	0.19879976
5	0x3e149623	0.14510398
6	0x3e1798f9	0.14804448
7	0x3d865e64	0.06560972
8	0x3da64f6a	0.08120616
9	0x3dfdf1e2	0.12399651
10	0x3dfda9d2	0.12385906
11	0x3dbb1b5d	0.091360785
12	0x3e01abca	0.12663189
13	0x3d638322	0.05554498
14	0x3d51f8d7	0.051262703
15	0x3dcc01db	0.099612914
16	0x3e07a0b5	0.13244899
17	0x3d33a8a6	0.043862008
18	0x3df465e8	0.119334996
19	0x3e6300a5	0.22168215
20	0x3e0ed121	0.13946964
21	0x3da688b1	0.081315406
22	0x3df781b7	0.12085288
23	0x3dc41c5e	0.09575723
24	0x3dcfdba8	0.10149318
25	0x3e804ac8	0.25057054
26	0x3e2b3b8c	0.16721934
27	0x3d90aedd	0.070646025
28	0x3db4c2cf	0.08826219
29	0x3d8a6f94	0.06759563
30	0x3e2f5786	0.17123231
31	0x3e6afecf	0.22948764
32	0x3d9fc9f8	0.07802194
33	0x3df9244b	0.121651255
34	0x3d9add58	0.07561749
35	0x3de1e814	0.110305935
36	0x3d96c28e	0.07361327
37	0x3db770be	0.08957051
38	0x3d7145d1	0.058904473
39	0x3e23c8a7	0.15994512
40	0x3e215b0e	0.15757391
41	0x3db2856b	0.08716854
42	0x3db31f1c	0.08746168
43	0x3d88db5a	0.06682463
44	0x3e176838	0.1478585
45	0x3e569030	0.2095344
46	0x3dc00367	0.09375649
47	0x3e3df336	0.18549809
48	0x3e5bc96f	0.2146356
49	0x3de53396	0.1119148
50	0x3dba28ae	0.0908979
51	0x3e46d33e	0.1941652
52	0x3e2cd88d	0.16879483
53	0x3eadc35a	0.33938104
54	0x3dae86ee	0.085218295
55	0x3dff7457	0.12473362
56	0x3da4e5ce	0.08051644
57	0x3d71a0cf	0.05899125
58	0x3de49aef	0.11162364
59	0x3df76d3a	0.1208138
60	0x3e23d610	0.15999627
61	0x3da3fac5	0.08006815
62	0x3e283583	0.16426663
63	0x3e097617	0.13423954

weight f4 [5, 64]
0	0x3d1ac1fc	0.037782654
1	0xbe818fa5	-0.25304905
2	0x3f14f3e2	0.58184636
3	0xbef4a7d1	-0.47784284
4	0xbdd214f5	-0.102579035
5	0x3e5132f2	0.2042959
6	0xbd33f40e	-0.04393392
7	0x3f156d26	0.5836967
8	0xbe4af90d	-0.19821568
9	0x3df5284c	0.11970577
10	0x3e6c0f27	0.23052655
11	0x3e8b9f25	0.27269855
12	0x3e941bcf	0.28927466
13	0xbea415a5	-0.32047763
14	0x3e0fc3fe	0.14039609
15	0xbf216c98	-0.63056326
16	0x3e24fbb0	0.16111636
17	0x3e5c2f42	0.21502402
18	0xbe22d536	-0.15901646
19	0xbe3a4d30	-0.18193507
20	0x3e9af5dc	0.302657
21	0x3ecee4f6	0.40409058
22	0xbf05e663	-0.5230467
23	0x3e497026	0.19671687
24	0xbf038121	-0.5136891
25	0xbf61cbee	-0.88201797
26	0xbe2c12d0	-0.16804051
27	0xbf0acb91	-0.5421687
28	0x3eae7966	0.34076995
29	0x3efdfd19	0.4960716
30	0xbe9bae5e	-0.3040647
31	0xbde759bc	-0.11296412
32	0x3ed5a09e	0.41724104
33	0x3ea37fbf	0.319334
34	0x3e1f4576	0.15553841
35	0xbed230ff	-0.41053006
36	0xbf793be2	-0.97357
37	0x3f0ec1ef	0.5576467
38	0x3ec08a2f	0.37605426
39	0xbddb3b2d	-0.10704646
40	0xbe5ce0cd	-0.2157013
41	0xbe94f62e	-0.2909407
42	0x3e821830	0.2540908
43	0x3f140510	0.57820225
44	0xbd72938b	-0.05922274
45	0x3dbe5564	0.09293631
46	0xbf2f7f23	-0.6855337
47	0xbe5da52f	-0.21645044
48	0xbda68124	-0.081301
49	0xbe9535b3	-0.29142532
50	0x3e860c1b	0.2618111
51	0xbec5d6d6	-0.3864047
52	0x3e64aee5	0.22332342
53	0xbe701b1f	-0.23447846
54	0xbee20ede	-0.44151968
55	0x3e926e82	0.28599936
56	0xbf63cddc	-0.8898599
57	0xbe69b437	-0.22822653
58	0xbf12ac8f	-0.57294554
59	0xbe5c8d17	-0.21538197
60	0xbf6e49ce	-0.93081367
61	0x3efe161b	0.4962624
62	0xbf67e674	-0.9058602
63	0xbe5716ab	-0.21004741
64	0xbf061df5	-0.5238946
65	0x3cc26ff5	0.023735026
66	0x3e7705ee	0.24123356
67	0x3e01c83d	0.12674041
68	0xbec46992	-0.38361794
69	0x3e6c4d87	0.2307645
70	0xbeff51bf	-0.49867055
71	0xbf09ab0f	-0.5377664
72	0xbe800b08	-0.25008416
73	0xbdf5208d	-0.11969099
74	0x3dbadf79	0.09124655
75	0x3ece1564	0.40250695
76	0xbf30578e	-0.688836
77	0x3e949889	0.29022625
78	0x3d84faac	0.06493124
79	0x3e6174fe	0.22017285
80	0xbf811ccc	-1.0086913
81	0xbf1a3e80	-0.6025162
82	0x3ec69e9e	0.3879289
83	0xbdac3cb9	-0.084100194
84	0xbf245a6e	-0.64200485
85	0x3e5922d5	0.21204694
86	0xbc63de02	-0.013907911
87	0xbf10ad5f	-0.56514543
88	0x3c9c0f57	0.019050283
89	0x3e8b5c3c	0.27218807
90	0x3e050aa1	0.12992336
91	0x3ea43109	0.3206866
92	0xbf715ab4	-0.94279027
93	0x3ceb37a1	0.02871305
94	0x3f160a9c	0.5860994
95	0x3ed5f746	0.41790217
96	0xbda9816c	-0.082766384
97	0xbf65758d	-0.89632493
98	0xbed947cd	-0.42437592
99	0x3e2c104e	0.16803095
100	0x3e4e3322	0.20136693
101	0xbe19d02f	-0.15020822
102	0xbf21b4a2	-0.6316625
103	0xbe543bd7	-0.20725952
104	0x3e713308	0.23554623
105	0x3edd1134	0.43177187
106	0x3c996f97	0.018729968
107	0xbf174c04	-0.59100366
108	0x3e8d3a13	0.2758337
109	0x3dc22b7c	0.0948095
110	0x3e54c1ec	0.207771
111	0x3eb2b9b4	0.34907305
112	0x3eb65df8	0.35618567
113	0x3edf7535	0.4364411
114	0x3e84e5c3	0.25956544
115	0xbe348a6e	-0.17630932
116	0xbe584a0f	-0.21122001
117	0x3e4213c2	0.1895285
118	0xbeb8af34	-0.3607117
119	0x3ecc86ca	0.39946586
120	0x3d96f81c	0.07371542
121	0x3e8be065	0.27319637
122	0xbeb692b6	-0.35658807
123	0x3e51c202	0.20484164
124	0xbdc50fae	-0.09622131
125	0xbe4eada5	-0.20183428
126	0x3d962173	0.07330599
127	0x3f3dc7bb	0.7413289
128	0xbf0934f6	-0.53596437
129	0xbf3e5e83	-0.74362963
130	0xbf4c79f8	-0.7987361
131	0xbf0cd89b	-0.55018014
132	0xbf161a85	-0.58634216
133	0xbed98db1	-0.42490914
134	0xbee18e43	-0.4405385
135	0xbf1a737a	-0.60332453
136	0xbf2621c3	-0.64895266
137	0xbf0c4ce9	-0.54804856
138	0xbf02d198	-0.51101065
139	0xbf247b81	-0.6425095
140	0xbef4a9c1	-0.47785762
141	0xbf30b35c	-0.6902368
142	0xbf3e7e0d	-0.7441109
143	0xbf1c3f9f	-0.6103458
144	0xbea79f22	-0.32738596
145	0xbeee3284	-0.46522915
146	0xbe9f8629	-0.31157044
147	0xbeb0bae4	-0.34517586
148	0xbeec90a6	-0.46204108
149	0xbf0f51e8	-0.55984354
150	0xbf2fab8f	-0.6862115
151	0xbf4cd3a2	-0.80010426
152	0xbf0cbae9	-0.549727
153	0xbf46e976	-0.77699983
154	0xbf0775d6	-0.5291418
155	0xbec48fdf	-0.38391015
156	0xbf303a73	-0.68839186
157	0xbef91b9c	-0.48653877
158	0xbf11a933	-0.568988
159	0xbf6e44bf	-0.9307365
160	0xbea587a0	-0.32330036
161	0xbea79dac	-0.32737482
162	0xbf14657d	-0.5796736
163	0xbf017d06	-0.50581396
164	0xbf793627	-0.97348255
165	0xbec1d570	-0.37858152
166	0xbf263570	-0.6492529
167	0xbe5979a0	-0.21237803
168	0xbed3c18a	-0.41358596
169	0xbeb81704	-0.3595506
170	0xbf41bab9	-0.7567554
171	0xbf39e1b5	-0.72610027
172	0xbed8e105	-0.42359176
173	0xbf48b731	-0.7840453
174	0xbeb8d032	-0.3609634
175	0xbf4e9398	-0.8069396
176	0xbf56947e	-0.8382033
177	0xbede3d0a	-0.43405944
178	0xbed4ee01	-0.41587833
179	0xbe963a15	-0.29341188
180	0xbeff1229	-0.49818543
181	0xbf03a256	-0.5141958
182	0xbeb715f4	-0.35758936
183	0xbef09514	-0.46988738
184	0xbf22dd36	-0.6361879
185	0xbf191bc9	-0.5980802
186	0xbf041466	-0.51593626
187	0xbf446cb3	-0.7672836
188	0xbf2e95bf	-0.68197244
189	0xbef344c4	-0.47513402
190	0xbeea7c7d	-0.45798102
191	0xbf4a0c75	-0.7892526
192	0xbf044596	-0.5166868
193	0xbe3a410a	-0.18188873
194	0xbd31613e	-0.043305628
195	0x3eb9708b	0.36218676
196	0x3ecf80ae	0.40527862
197	0xbf0e1040	-0.55493546
198	0x3eb82a02	0.3596955
199	0xbe431086	-0.19049272
200	0xbe943e7b	-0.2895392
201	0x3eaea372	0.34109074
202	0xbefd8afa	-0.49520093
203	0xbf07304d	-0.52808076
204	0x3e185bba	0.14878741
205	0xbe97ad05	-0.2962419
206	0xbf8cc2d1	-1.0996953
207	0xbf2943e0	-0.66119194
208	0x3d7a87ff	0.061164852
209	0xbe33929e	-0.17536399
210	0x3eb8ffc5	0.36132637
211	0x3ecb3a1a	0.39692765
212	0x3e18200f	0.1485598
213	0xbe4884c4	-0.19581896
214	0x3e3bab2c	0.18327016
215	0x3ef34e55	0.475207
216	0xbd1eed75	-0.038800675
217	0x3e269a50	0.16269803
218	0x3e9794c3	0.29605684
219	0x3e38a1aa	0.1803042
220	0x3e2593b6	0.16169629
221	0xbf440c80	-0.76581573
222	0xbf339315	-0.70146304
223	0xbf8ba479	-1.0909568
224	0x3e391fb2	0.18078497
225	0x3eb19200	0.34681702
226	0xbecfd35d	-0.40590945
227	0xbf4e8a03	-0.8067934
228	0xbebb04c2	-0.36527067
229	0x3b0c9abc	0.0021454534
230	0xbdd494b0	-0.103799224
231	0x3eef0068	0.46679997
232	0xbf070685	-0.52744323
233	0x3ebb4291	0.36574224
234	0xbfb807c5	-1.4377371
235	0x3e45c977	0.19315134
236	0xbf7a98e9	-0.9788957
237	0xc00f2858	-2.2368374
238	0xbeec9287	-0.46205541
239	0xbf448202	-0.76760876
240	0xbf58f13c	-0.84743094
241	0xbf196378	-0.599174
242	0xbd494f94	-0.049148157
243	0x3ee002ac	0.43752038
244	0x3eaabd5e	0.333476
245	0x3eb6d143	0.3570653
246	0x3ec35557	0.38151047
247	0x3e3b0835	0.1826485
248	0x3ece32e7	0.4027321
249	0xbf1dd2f3	-0.6165001
250	0x3cccf171	0.025017472
251	0xbf2c1ce0	-0.6723156
252	0x3e73bb34	0.23801881
253	0xbee9495f	-0.4556379
254	0x3ef58580	0.47953415
255	0xbe8f03ca	-0.27932578

bias f4 [5]
0	0xbd40a73e	-0.047034495
1	0xbdadfd97	-0.08495634
2	0xbf38a332	-0.72124016
3	0xbdea77b1	-0.114486106
4	0x3e717fb6	0.23583874
