imitator.pt (torch, 19399 bytes, 14 tensors)

weight f4 [32, 8]
0	0x3e8ed696	0.2789809
1	0x3e3d826c	0.18506783
2	0x3e8b8197	0.27247307
3	0xbcca7673	-0.024714684
4	0x3e9a18d8	0.3009708
5	0xbe6d6656	-0.2318357
6	0xbdf65868	-0.12028581
7	0xbe6ad5fc	-0.22933191
8	0x3eaf7f2a	0.34276706
9	0xbec3864b	-0.38188395
10	0x3eb6e957	0.357249
11	0xbddc934b	-0.107702814
12	0xbe4be2b8	-0.19910705
13	0xbe13bb87	-0.14427005
14	0xbe5a3425	-0.21308954
15	0xbe754752	-0.23952988
16	0xbe64258e	-0.22279951
17	0x3eb86794	0.36016524
18	0xbd0c414b	-0.034241956
19	0xbe027be7	-0.12742577
20	0xbd1ef10e	-0.038804106
21	0xbe09c467	-0.13453828
22	0x3e9a7a9b	0.30171666
23	0x3dcce695	0.100049175
24	0x3dcac5f6	0.09901039
25	0x3df369ca	0.11885412
26	0x3d06070b	0.03272156
27	0x3ea897a0	0.3292818
28	0xbc9f911a	-0.01947837
29	0xbe0d0566	-0.1377159
30	0xbdf9eef8	-0.12203783
31	0x3df64caf	0.12026345
32	0x3d7575eb	0.05992691
33	0x3e535b16	0.20640215
34	0xbe761cb9	-0.24034394
35	0xbe91453f	-0.28373143
36	0xbe8fa527	-0.2805569
37	0xbe725869	-0.23666538
38	0x3db8104b	0.08987483
39	0xbd9f6c51	-0.077843316
40	0xbdb9ff5d	-0.0908191
41	0xbd962a14	-0.073322445
42	0xbe4d7c56	-0.20066962
43	0x3d969749	0.07353074
44	0x3e9dee96	0.3084609
45	0x3e79da8e	0.24399778
46	0xbb5d9cc8	-0.0033815373
47	0xbb49019d	-0.0030671128
48	0xbebf36f6	-0.3734662
49	0xbb3126b0	-0.0027031116
50	0x3eb9cd26	0.36289328
51	0x3d9e8fa9	0.07742245
52	0xbe031efa	-0.12804785
53	0xbddfe16b	-0.10931667
54	0x3e5ef966	0.21774825
55	0xbb6a70dc	-0.0035772836
56	0xbde2c6b1	-0.11073054
57	0xbe7f1d05	-0.24913414
58	0xbe1d9aed	-0.15391131
59	0x3e957a23	0.29194745
60	0xbbcba301	-0.0062145
61	0x3e857e38	0.2607286
62	0xbe7f14ce	-0.2491028
63	0x3d278eef	0.040907796
64	0x3e045888	0.12924397
65	0xbe422100	-0.18957901
66	0xbe2f5588	-0.17122471
67	0xbe7f6fb4	-0.24944955
68	0x3e65d23d	0.22443481
69	0x3ea6aa5e	0.32551855
70	0xbe5763a1	-0.21034099
71	0x3db82e3d	0.08993194
72	0xbe970399	-0.29494932
73	0x3df2d0b6	0.11856215
74	0x3e5f5cc2	0.21812728
75	0x3ec02a51	0.37532285
76	0x3ec8fd7e	0.392559
77	0xbd5c9982	-0.053857334
78	0x3e8f2f9e	0.27966017
79	0xbea35f23	-0.3190852
80	0x3df8724d	0.12131176
81	0x3e9a3a7c	0.30122745
82	0x3e8c953c	0.27457607
83	0xbe6dd18e	-0.2322447
84	0xbe3db0af	-0.1852443
85	0xbead3440	-0.33828926
86	0x3c58636e	0.0132073
87	0x3ea9e854	0.33185065
88	0x3c94dcd6	0.018171709
89	0xbe3ce1b9	-0.18445481
90	0xbe2be4d7	-0.16786514
91	0x3e7f8058	0.24951303
92	0x3e2195c1	0.15779783
93	0x3ebfde09	0.37474087
94	0x3e1de5bc	0.15419668
95	0x3d5bf8e4	0.053704157
96	0xbe4f1d20	-0.20225954
97	0xbe166743	-0.14687829
98	0x3e39a504	0.18129355
99	0x3e46e773	0.19424228
100	0x3ed72b8a	0.42025405
101	0x3e8107f4	0.2520138
102	0x3df4a116	0.11944787
103	0xbe8891e5	-0.2667381
104	0x3e688569	0.22707142
105	0xbe23e27a	-0.16004363
106	0x3d4a55ce	0.049398236
107	0x3e2a66d7	0.16640793
108	0x3eae2021	0.34008887
109	0xbe2c62e4	-0.16834599
110	0x3e89d732	0.26921993
111	0x3c9f6f33	0.019462204
112	0xbe83d221	-0.25746253
113	0x3ec2bbf8	0.38034034
114	0x3e82998f	0.2550778
115	0xbe87eb06	-0.26546496
116	0x3cbf6ece	0.023368265
117	0x3d531709	0.05153564
118	0xbc8956e5	-0.016765067
119	0xbeada4a3	-0.3391467
120	0x3ca14222	0.019684855
121	0xbd873848	-0.06602532
122	0x3eaa845e	0.33304113
123	0xbea0a126	-0.31372947
124	0x3d15ee40	0.036604166
125	0xbd950772	-0.07276811
126	0x3e9f2a0a	0.3108676
127	0xbdf07aae	-0.11742149
128	0xbe8e5225	-0.27797046
129	0x3e82d61f	0.25553986
130	0xbe6a83fe	-0.22901914
131	0x3dff3949	0.12462098
132	0x3e20d49e	0.15706107
133	0xbe1ed42b	-0.15510623
134	0xbd266aeb	-0.04062931
135	0xbe71e951	-0.2362416
136	0x3e76af29	0.24090256
137	0xbd183cae	-0.037167244
138	0x3e5327ae	0.20620605
139	0x3dbd75e8	0.092510045
140	0x3e9de4fe	0.3083877
141	0xbeb82863	-0.35968313
142	0xbea80dd4	-0.3282305
143	0xbdde50aa	-0.10855229
144	0x3e23de36	0.16002735
145	0xbd81cad7	-0.06337517
146	0xbe55b798	-0.20870817
147	0x3e66b88f	0.22531341
148	0x3e087555	0.13326009
149	0x3e038855	0.12844975
150	0xbc40f264	-0.01177654
151	0x3ca546c6	0.020175349
152	0xbe3e1510	-0.18562722
153	0x3d7fb114	0.062424734
154	0x3e030550	0.12794995
155	0x3e98db3d	0.29854766
156	0xbdfd9679	-0.12382216
157	0xbe716fb8	-0.23577774
158	0xbd9649df	-0.073383085
159	0xbea893aa	-0.3292516
160	0xbe290f99	-0.16509856
161	0xbec5248b	-0.38504443
162	0x3e6a8bf8	0.22904956
163	0x3e79055f	0.24318455
164	0x3eaa86b4	0.33305895
165	0x3c958513	0.018251931
166	0xbd7fef11	-0.06248385
167	0x3e06d13d	0.13165756
168	0x3e6b5217	0.22980534
169	0xbe2c10ce	-0.16803285
170	0xbe1566dc	-0.14590019
171	0x3e047cb3	0.12938194
172	0xbe6a5a77	-0.22886072
173	0xbe42d45d	-0.19026323
174	0x3e09997e	0.13437459
175	0x3e35c00e	0.17749044
176	0xbe554773	-0.20828037
177	0x3e0468f1	0.12930657
178	0xbe43543a	-0.19075099
179	0xbdc47818	-0.095932186
180	0xb9a90e58	-0.0003224488
181	0xbea63260	-0.32460308
182	0xbea2aa1a	-0.31770402
183	0x3e751f14	0.23937637
184	0x3f06b058	0.5261283
185	0xbe7df313	-0.24799757
186	0xbe67b223	-0.22626548
187	0x3c9ae525	0.018908093
188	0x3e20bc27	0.15696774
189	0xbe738a6e	-0.23783275
190	0xbe284da7	-0.16435872
191	0x3ea32703	0.318657
192	0xbe6a61c0	-0.22888851
193	0x3d4ae969	0.049539004
194	0xbd035264	-0.032060996
195	0x3deed2ee	0.116613254
196	0x3e837482	0.25674826
197	0xbe3c7187	-0.18402682
198	0x3e018886	0.12649736
199	0xbd5a9aee	-0.05337041
200	0xbdaea911	-0.085283406
201	0x3d9feeaf	0.07809197
202	0x3e82caa1	0.2554522
203	0x3ea5209e	0.32251447
204	0xbe32f23f	-0.17475222
205	0xbe6e27b3	-0.23257332
206	0xbe933828	-0.2875378
207	0xbe1a99e3	-0.15097766
208	0xbe2a34b8	-0.16621673
209	0xbe23d0bd	-0.15997596
210	0xbe223cc2	-0.1584349
211	0x3e03948e	0.12849638
212	0x3e6f6f77	0.23382364
213	0xbe9159ca	-0.28388816
214	0xbdbdfa6b	-0.09276279
215	0x3e642059	0.22277965
216	0x3d248268	0.040163428
217	0xbeaee27e	-0.34157175
218	0x3e29563f	0.16536807
219	0x3e85b172	0.26111943
220	0x3e674ff7	0.22589098
221	0xbea2f5aa	-0.31828052
222	0xbe90d032	-0.2828384
223	0x3e462b0f	0.19352363
224	0xbd9399db	-0.0720708
225	0x3ea0b2b6	0.31386346
226	0xbe958edf	-0.29210564
227	0x3e709dc0	0.23497677
228	0xbe9d3ad9	-0.3070896
229	0x3dd5cf5c	0.10439941
230	0xbea45ab1	-0.32100442
231	0xbdf00fb4	-0.11721745
232	0x3e97628a	0.29567367
233	0x3eb8de50	0.3610711
234	0x3e858bc2	0.2608319
235	0x3e74b881	0.23898508
236	0x3e8f1351	0.27944425
237	0x3bf6604e	0.0075188046
238	0x3e129d4d	0.14317818
239	0xbd881281	-0.06644154
240	0x3e164889	0.14676107
241	0x3e8a6a32	0.27034146
242	0x3e2e772d	0.1703765
243	0x3cd5bfb0	0.02609238
244	0xbcea65fb	-0.028613081
245	0xbd08bebd	-0.033385027
246	0x3e1b34d7	0.15156876
247	0x3e038693	0.12844305
248	0xbe9ea2a9	-0.30983475
249	0xbe81488a	-0.25250655
250	0xbe5e1989	-0.21689428
251	0xbe6ca6c5	-0.23110493
252	0xbea93b2b	-0.33052954
253	0xbe45f858	-0.19333017
254	0x3e71b602	0.23604587
255	0xbec18c88	-0.3780253

bias f4 [32]
0	0x3e6460c9	0.22302546
1	0x3e70ccd6	0.23515639
2	0x3d936075	0.07196132
3	0xbe21ec14	-0.15812713
4	0x3e7cc307	0.24683772
5	0xbde57b23	-0.11205127
6	0x3e6f7cf5	0.23387511
7	0xbe4a6a08	-0.1976701
8	0xbe19ce4d	-0.15020104
9	0xbe887c0b	-0.26657137
10	0x3ea5a1fa	0.3235014
11	0x3d90109c	0.07034418
12	0x3e63a13a	0.22229472
13	0xbeaee074	-0.3415562
14	0x3da9e261	0.082951315
15	0xbd6ce758	-0.057837814
16	0xbe213d79	-0.15746106
17	0x3e5b68f2	0.21426752
18	0xbc95d84d	-0.018291617
19	0xbc38f744	-0.0112894215
20	0x3e356b8f	0.17716812
21	0xbe7463c1	-0.23866178
22	0xbe5944ba	-0.21217623
23	0x3e305f20	0.17223787
24	0xbe78660e	-0.24257681
25	0xbe20e573	-0.15712528
26	0x3e78b4ee	0.24287769
27	0x3e85968a	0.26091415
28	0x3eb48b1e	0.35262388
29	0xbe56f42e	-0.20991585
30	0x3d90a8d7	0.07063454
31	0xbe7a03b3	-0.24415474

weight f4 [32]
0	0x3f7a5e2c	0.97799945
1	0x3f73ecd6	0.9528326
2	0x3f7b8ce5	0.98261863
3	0x3f86a309	1.0518504
4	0x3f7e99a9	0.99453217
5	0x3f872328	1.0557604
6	0x3f787244	0.97049356
7	0x3f795bb3	0.97405547
8	0x3f758be2	0.9591657
9	0x3f894563	1.07243
10	0x3f77aba1	0.9674626
11	0x3f7ff460	0.9998226
12	0x3f8d2272	1.1026137
13	0x3f7dfca2	0.9921361
14	0x3f80adf9	1.0053092
15	0x3f77b52c	0.9676082
16	0x3f863237	1.0484074
17	0x3f7a3ef0	0.97752285
18	0x3f804bf0	1.0023174
19	0x3f791b2c	0.97307086
20	0x3f866e2d	1.0502373
21	0x3f8106b2	1.0080168
22	0x3f77bd3c	0.96773124
23	0x3f7c97c7	0.98669094
24	0x3f7ddaf3	0.99162215
25	0x3f756659	0.95859295
26	0x3f8ba79a	1.0910523
27	0x3f7fdae0	0.9994335
28	0x3f777e87	0.9667744
29	0x3f83fcf0	1.0311565
30	0x3f720776	0.94542634
31	0x3f7f5507	0.99739116

bias f4 [32]
0	0xbc1c8f81	-0.009555698
1	0xbd0a053d	-0.033696402
2	0xbcbff899	-0.02343397
3	0xbc316689	-0.010827669
4	0x3ad93bce	0.0016573609
5	0x3c9d59e1	0.019207897
6	0xbd7c906b	-0.061661165
7	0xbcf963ca	-0.030443091
8	0x3b1e7e2e	0.0024184096
9	0x3c6e67d6	0.014551124
10	0xbca9c06b	-0.020721635
11	0x3d3dc9b0	0.046334922
12	0xbc4cf0a2	-0.012508543
13	0x3cd6a1df	0.026200233
14	0x3d4751c0	0.048661947
15	0x3d212001	0.039337162
16	0x3d5adee2	0.053435214
17	0x3cd307bf	0.02576053
18	0xbc8dd27e	-0.017312285
19	0x3c6bd838	0.014394812
20	0xbc989486	-0.018625509
21	0xbaa78316	-0.0012780156
22	0xbca2b7e5	-0.019863078
23	0x3d4a29d6	0.049356304
24	0x3d2389e8	0.03992644
25	0x3ca5afb2	0.02022538
26	0x3e23cefd	0.15996929
27	0xbbd676c6	-0.0065449206
28	0xbd778a63	-0.06043471
29	0x3c2fdc58	0.010733686
30	0xbc0a084a	-0.008424828
31	0x3bf87462	0.0075822333

running_mean f4 [32]
0	0x425c5480	55.08252
1	0x4173e27c	15.242794
2	0xc1a379e8	-20.434525
3	0x41edd16f	29.727262
4	0xc0ec1c82	-7.37848
5	0xc03c78cb	-2.9448726
6	0xc1937278	-18.430893
7	0x4126bf52	10.421709
8	0xc1714362	-15.078951
9	0x42048bea	33.136635
10	0xc16f38c6	-14.951361
11	0xc17187f4	-15.095692
12	0x417d1662	15.817965
13	0xc196a030	-18.828217
14	0x422b79e0	42.86902
15	0xc2017afb	-32.3701
16	0x421903f6	38.25387
17	0x423ec4a0	47.692017
18	0x411f7d04	9.968021
19	0x42499afe	50.40136
20	0xc1a04c90	-20.037384
21	0xc1fba8e3	-31.457464
22	0xc01ed1a2	-2.481545
23	0xc1b546a1	-22.659487
24	0xc00debbb	-2.2175128
25	0x426f2390	59.78473
26	0xc1c663fe	-24.798824
27	0xc00bad37	-2.1824472
28	0x428438a3	66.11062
29	0x424a884b	50.6331
30	0x40c2508b	6.072332
31	0xc21265a6	-36.599266

running_var f4 [32]
0	0x43d345c3	422.545
1	0x446b0928	940.14307
2	0x43a6f7c3	333.93564
3	0x43378e31	183.55544
4	0x44faa3b8	2005.1162
5	0x442dd3f3	695.3117
6	0x43c68912	397.07086
7	0x43c6d1f2	397.6402
8	0x43937202	294.8907
9	0x4502be36	2091.8882
10	0x4439521a	741.28284
11	0x44a99b4d	1356.8531
12	0x4507e11d	2174.0696
13	0x440828c2	544.63684
14	0x438ffdd7	287.98312
15	0x431e77fb	158.46867
16	0x4319d4f5	153.83186
17	0x440ba3ad	558.55743
18	0x43b0b25c	353.39343
19	0x43c4af1a	393.36798
20	0x4489c3e3	1102.1215
21	0x44086e42	545.7228
22	0x444432e4	784.79517
23	0x43bedb2f	381.71237
24	0x430b21df	139.13231
25	0x441a5440	617.3164
26	0x42184501	38.067387
27	0x433315e1	179.08546
28	0x43c3841a	391.03204
29	0x44ca6972	1619.2952
30	0x437b2b82	251.16995
31	0x450f722f	2295.1365

weight f4 [64, 32]
0	0x3e383004	0.17987067
1	0xbc5a4b72	-0.013323652
2	0xbd65b11c	-0.056077108
3	0xbd0e42ad	-0.034731556
4	0xbe3c3c6a	-0.18382421
5	0xbe174681	-0.14772989
6	0x3c6b5d7e	0.014365552
7	0x3d78bf64	0.0607294
8	0x3d7369b4	0.05942698
9	0xbd37aed3	-0.04484446
10	0xbdd85f5a	-0.10565062
11	0xbda45897	-0.0802471
12	0xbe0312b3	-0.12800102
13	0x3db5ebd3	0.088828705
14	0xbd815fff	-0.06317138
15	0xbc743a26	-0.014906442
16	0xbdb52883	-0.088456176
17	0xbdefe922	-0.117143884
18	0xbdd5f9f8	-0.104480684
19	0x3da34622	0.07972361
20	0xbe0fec34	-0.14054948
21	0x3d87f12a	0.06637795
22	0xbe084c4c	-0.13310355
23	0x3d10669b	0.035254102
24	0xbd693ea7	-0.056944516
25	0xbdd0f95f	-0.10203814
26	0xbd9a338e	-0.075293645
27	0xbe2f16b3	-0.17098503
28	0x3dfbc2fa	0.12293048
29	0xbcf2d165	-0.029640863
30	0x3d883b93	0.06651988
31	0x3cb79aa8	0.022412613
32	0x3d8047c8	0.06263691
33	0xbc65a1f4	-0.014015663
34	0x3df232e9	0.118261166
35	0xbd3241be	-0.043519728
36	0xbddedfb2	-0.1088251
37	0xbddf49b5	-0.109027304
38	0x3de7a1e8	0.11310178
39	0x3dedee66	0.116177365
40	0xbdca8c3b	-0.09890028
41	0x3dd036ba	0.10166688
42	0x3de2b11c	0.11068937
43	0x3cc8cb64	0.024511047
44	0x3e760265	0.24024351
45	0x3e36e982	0.17862514
46	0xbbd6c686	-0.0065544276
47	0xbd9654b1	-0.07340372
48	0xbc67a4ec	-0.0141384415
49	0x3e30a4bf	0.17250346
50	0x3dda23f2	0.10651387
51	0xbdff358f	-0.12461387
52	0xbe00b9e6	-0.12570915
53	0xbe2652fb	-0.16242592
54	0x3dabf637	0.08396571
55	0x3e899e74	0.26878703
56	0xbd8e11f0	-0.06937015
57	0xbdce0272	-0.1005906
58	0xbb45958b	-0.003014895
59	0x3ced8c1a	0.02899747
60	0xbdca59f7	-0.09880441
61	0x3ddd2fed	0.10800157
62	0xbdc5a125	-0.096498765
63	0xbd987620	-0.074444056
64	0x3e202b06	0.15641412
65	0xbd114e0e	-0.03547483
66	0xbd8204e4	-0.06348589
67	0x3c8a3be1	0.016874256
68	0x3de24a5a	0.11049338
69	0x3decc580	0.11561108
70	0xbd3b4541	-0.045720343
71	0xbdf3fea8	-0.11913806
72	0xbd52bae6	-0.05144777
73	0xbdf52cb8	-0.1197142
74	0x3e20131f	0.15632294
75	0x3d7a9fd3	0.061187577
76	0x3c351d3f	0.011054336
77	0xbc129848	-0.0089474395
78	0x3dcc2831	0.099686034
79	0x3d0afc05	0.03393175
80	0x3df8a1d1	0.12140239
81	0xbdb4c5ad	-0.08826766
82	0xbda5dd64	-0.080988675
83	0x3e1090ce	0.14117739
84	0x3e493b0a	0.19651428
85	0xbe059f3b	-0.13049023
86	0x3d3ed5f9	0.04659078
87	0xbd934915	-0.07191674
88	0x3ddc7077	0.107636385
89	0xbdacecf7	-0.08443635
90	0x3be42a9f	0.0069630886
91	0xbe05bf6e	-0.13061306
92	0x3e07238f	0.13197158
93	0xbd530014	-0.051513746
94	0x3d6cc63c	0.05780624
95	0xbd9d6b0c	-0.07686433
96	0xbb8f1490	-0.004366465
97	0x3cf9831b	0.030458024
98	0xbd0ade91	-0.033903662
99	0xbe72c4fe	-0.23707959
100	0x3e27923d	0.16364379
101	0x3db87732	0.0900711
102	0x3d246d7a	0.040143467
103	0xbb20ec36	-0.0024554855
104	0x3dec392c	0.11534342
105	0xbde8b9be	-0.113635525
106	0xbe0ed025	-0.13946588
107	0xbc7e19c6	-0.015509075
108	0x3e070867	0.13186799
109	0x3cb43d9b	0.022002032
110	0x3e17ee16	0.14836916
111	0xbc35fc0f	-0.011107459
112	0x3c7f50a2	0.015583189
113	0x3b00f5e4	0.0019677812
114	0x3e0896df	0.13338803
115	0xbd6ac6cb	-0.05731849
116	0x3e4000b5	0.1875027
117	0x3caa550c	0.020792507
118	0x3e140bf1	0.1445768
119	0xbe0c90f4	-0.1372717
120	0x3d28a8c3	0.04117657
121	0x3e18f64d	0.14937706
122	0x3d635ff8	0.055511445
123	0xbd098e4e	-0.033582978
124	0xbd829312	-0.06375708
125	0xbdab9d72	-0.0837964
126	0x3cc96ef9	0.024589049
127	0x3d0c238d	0.03421359
128	0xbd5e8264	-0.05432357
129	0xbd7378b4	-0.059441283
130	0xbdbd4d91	-0.0924331
131	0x3d2568f3	0.04038329
132	0x3c8bc17d	0.017060036
133	0x3d3a96f2	0.04555411
134	0x3dd60f9e	0.104521975
135	0xbd9089a0	-0.070575
136	0x3d52a499	0.051426504
137	0x3e641f23	0.22277503
138	0x3d35b88f	0.044365462
139	0xbdffc617	-0.124889545
140	0x3e80ac59	0.2513149
141	0xbdf12f54	-0.11776605
142	0xbe00ff8c	-0.12597483
143	0x3cf088b1	0.029362055
144	0xba4ce441	-0.0007815995
145	0x3d0737dc	0.033012256
146	0x3e01970e	0.12655279
147	0xbc13cef3	-0.0090215085
148	0x3dae6457	0.08515232
149	0x3dbef5df	0.0932424
150	0x3cc6e758	0.024280235
151	0x3dab1e96	0.08355443
152	0xbc1c4222	-0.009537252
153	0x3d8ce122	0.06878878
154	0x3de03af5	0.10948745
155	0x3d793330	0.06083983
156	0xbc390465	-0.011292552
157	0x3d21a9a2	0.039468415
158	0x3ca7d565	0.020487497
159	0xbdc91685	-0.098187484
160	0x3c80cf29	0.015723782
161	0x3d828eb0	0.06374872
162	0x3d97ab9e	0.0740578
163	0x3e4ae3e4	0.19813496
164	0xba566393	-0.000817829
165	0x3e59e343	0.212781
166	0x3cb9f2e0	0.02269882
167	0xbd366f24	-0.044539586
168	0xbd1087ea	-0.035285868
169	0xbd94a855	-0.07258669
170	0xbdf3bfca	-0.11901815
171	0x3dea9477	0.11454099
172	0x3d671f30	0.056426227
173	0xbe4cc214	-0.1999591
174	0x3dab0903	0.08351328
175	0x3cf56205	0.029953966
176	0x3d33c1f5	0.043886144
177	0xbd9cfc91	-0.07665361
178	0x3e127edd	0.14306207
179	0x3d659d32	0.056058116
180	0x3e125c20	0.14292955
181	0xbd60bf53	-0.05486996
182	0x3d1ff879	0.03905532
183	0xbdf4b461	-0.11948467
184	0x3d8d8e59	0.06911916
185	0x3d20cf25	0.03926005
186	0x3e24f97b	0.16110794
187	0x3df517b6	0.11967413
188	0x3d93e35e	0.07221101
189	0x3e522c08	0.20524609
190	0x3d8f4104	0.069948226
191	0x3d5be368	0.05368367
192	0x3cb0083c	0.021488301
193	0x3e15b0a0	0.14618158
194	0x3e29dc70	0.16587996
195	0x3e37acf1	0.17937066
196	0x3deb5e1a	0.11492558
197	0xbdefc71d	-0.117079
198	0x3dd83b9a	0.10558243
199	0x3dc34aa3	0.0953572
200	0xbd756d40	-0.059918642
201	0x3d89a22d	0.06720386
202	0xbd108f5b	-0.035292964
203	0x3d87fb0a	0.06639679
204	0x3dae74ca	0.085183695
205	0xbe139446	-0.1441203
206	0xbdf8ac10	-0.12142193
207	0xbdcf73a9	-0.10129482
208	0x3e067837	0.13131796
209	0xbd095c8e	-0.033535533
210	0x3e271e1e	0.16320083
211	0x3d8b11f9	0.067905374
212	0x3e3e166f	0.18563245
213	0xbd848a89	-0.06471736
214	0xbda866fe	-0.08222769
215	0x3d6a5637	0.057211127
216	0x3d3ae708	0.045630485
217	0x3d2887d3	0.041145157
218	0x3dd8d98b	0.10588368
219	0xbd045c96	-0.03231486
220	0xbd992cfc	-0.07479283
221	0x3e7092ce	0.23493502
222	0xbdb59ee9	-0.088682
223	0xbd2814d4	-0.04103549
224	0xbdb1eaf2	-0.086873904
225	0xbd0f7fd9	-0.035034034
226	0x3d24b55e	0.040212028
227	0xbd0999ca	-0.03359393
228	0x3d06907c	0.032852635
229	0x3d0d26b7	0.03446075
230	0x3c848630	0.016177267
231	0x3dc09101	0.09402657
232	0x3bad4b15	0.0052884915
233	0x3e2dfb29	0.16990341
234	0xbd6db2d6	-0.05803188
235	0xbdc63e9d	-0.09679911
236	0x3df3142b	0.11869081
237	0xbd4946d0	-0.049139798
238	0xbdc2c6ae	-0.095105514
239	0xbdb8d784	-0.09025481
240	0x3ddbf947	0.10740905
241	0x3e435d11	0.19078471
242	0xbd48a6de	-0.048987262
243	0xbc176a8f	-0.009241714
244	0x3d978b6b	0.07399639
245	0x3dec9d6e	0.11553465
246	0x3e30f8c5	0.17282398
247	0x3cb2a529	0.02180727
248	0x3ded0304	0.11572841
249	0x3dd1b021	0.10238672
250	0x3e2cf954	0.16891986
251	0x3dbc09fd	0.091815926
252	0x3cda0429	0.026613312
253	0xbdf05874	-0.11735621
254	0x3b480913	0.0030522987
255	0xbd5c70c6	-0.053818487

bias f4 [64]
0	0x3dc02fbb	0.09384104
1	0x3de32aa9	0.11092121
2	0xbe2cf0bb	-0.16888706
3	0x3e1d6938	0.15372169
4	0xbd8016ae	-0.06254326
5	0xbabe189f	-0.0014503187
6	0xbda6f6a1	-0.081525095
7	0x3e13e801	0.14443971
8	0x3e0b8e9d	0.13628621
9	0xbdaea51a	-0.085275844
10	0x3db60677	0.08887952
11	0x3e1509c7	0.14554511
12	0x3bd61b50	0.0065340176
13	0x3c4bf565	0.012448643
14	0x3d7e6773	0.062110376
15	0x3dedf146	0.11618285
16	0xbd8c1897	-0.06840628
17	0x3d926f08	0.07150084
18	0xbe1ff446	-0.15620527
19	0x3e065992	0.13120106
20	0xbc7e3f82	-0.015518071
21	0xbc2d597a	-0.010580415
22	0xbd75980d	-0.05995946
23	0xbd23fa3a	-0.040033557
24	0xbd3ee029	-0.046600495
25	0x3cf9959e	0.03046685
26	0x3cfda045	0.030960212
27	0xbdae87a0	-0.08521962
28	0xbe22b17d	-0.15888019
29	0xbe1b7f9d	-0.151854
30	0xbdc5dec6	-0.09661631
31	0x3be99f2c	0.0071295705
32	0xbbb16ed1	-0.0054148217
33	0xbd9e4978	-0.07728857
34	0x3c6bed11	0.014399783
35	0xbe025293	-0.12726812
36	0x3bcce76b	0.006253173
37	0xbd87a2d9	-0.066228576
38	0x3e33a95b	0.17545073
39	0xbdbca00b	-0.09210213
40	0xbd63e357	-0.05563673
41	0xbca0335d	-0.019555742
42	0xbda7e2a6	-0.08197527
43	0xbd248ff0	-0.040176332
44	0xbe26c4dd	-0.16286035
45	0xbd5d8f02	-0.05409146
46	0xbe2174ee	-0.15767261
47	0x3e04a0a8	0.1295191
48	0xbe05d19e	-0.13068244
49	0x39a2c6ac	0.0003104707
50	0x3dfc8fbc	0.12332103
51	0x3e220d3f	0.15825365
52	0xbe0862df	-0.13318966
53	0x3e332d9c	0.17497867
54	0x3dc46929	0.0959037
55	0x3e309b67	0.17246781
56	0x3e0515b9	0.12996568
57	0x3c970a00	0.018437386
58	0xbcc3bc63	-0.02389354
59	0x3cfaa847	0.030597819
60	0xbe25cf21	-0.16192295
61	0xbe1d939d	-0.15388341
62	0x3d933181	0.071871765
63	0xbde3d485	-0.11124519

weight f4 [64]
0	0x3fa6654f	1.2999667
1	0x3fa14bd9	1.2601272
2	0x3f9ecc65	1.2406126
3	0x3fa7929a	1.3091614
4	0x3fa4c649	1.2873012
5	0x3f8ef311	1.1167928
6	0x3f98fe2b	1.1952566
7	0x3f94b3cf	1.1617373
8	0x3fa3c837	1.2795476
9	0x3f9f040f	1.2423114
10	0x3f8c0563	1.0939144
11	0x3fa620a9	1.2978717
12	0x3f8b740a	1.0894787
13	0x3f8b1aef	1.0867594
14	0x3fa9b698	1.3258848
15	0x3fa99928	1.3249865
16	0x3fa83937	1.314246
17	0x3f886e64	1.0658689
18	0x3f970236	1.179755
19	0x3fa7c70f	1.3107623
20	0x3f8a30e0	1.0796165
21	0x3fa7fb7f	1.3123626
22	0x3f978a4a	1.1839077
23	0x3f92003d	1.1406323
24	0x3f8a8198	1.0820799
25	0x3f96b085	1.177262
26	0x3f9f3ba6	1.2440078
27	0x3f8aad76	1.0834186
28	0x3fab243d	1.3370434
29	0x3f8e768e	1.112993
30	0x3f90c176	1.130904
31	0x3fa1288b	1.2590498
32	0x3fa959c5	1.323052
33	0x3f937daa	1.1522725
34	0x3f9744f7	1.1817921
35	0x3f94976c	1.160871
36	0x3f96c8cd	1.178003
37	0x3faa4dc6	1.3304985
38	0x3f90f494	1.1324639
39	0x3f8a8de7	1.0824555
40	0x3f92a9de	1.1458089
41	0x3f9a8252	1.2071021
42	0x3f90a32c	1.1299796
43	0x3f8b87ab	1.0900778
44	0x3f990243	1.1953815
45	0x3f95f219	1.1714507
46	0x3fa5cb85	1.2952734
47	0x3f93b73a	1.1540291
48	0x3fa12a87	1.2591103
49	0x3f7f52f5	0.9973596
50	0x3fa18aa3	1.2620434
51	0x3f9ebf45	1.2402121
52	0x3f909711	1.1296102
53	0x3f83cd4f	1.029703
54	0x3f92b8fd	1.1462704
55	0x3f9111f6	1.1333606
56	0x3f9fefd3	1.2495064
57	0x3f941de5	1.1571623
58	0x3f95ffb0	1.1718655
59	0x3fa7dcdd	1.3114277
60	0x3f90de64	1.1317868
61	0x3f8e2e6a	1.1107914
62	0x3f8cf9d0	1.1013737
63	0x3f9456e3	1.1589016

bias f4 [64]
0	0x3de15610	0.11002743
1	0x3e10bc26	0.14134273
2	0x3dfc7bf4	0.1232833
3	0x3df3d243	0.119053386
4	0x3e45d07b	0.1931781
5	0x3dcac5b0	0.09900987
6	0x3e1a7f96	0.15087733
7	0x3e14452f	0.14479516
8	0x3e160ef5	0.14654143
9	0x3e0a04a5	0.13478334
10	0x3dbfc13b	0.09363028
11	0x3e43bfae	0.19116089
12	0x3d7dbe4c	0.06194906
13	0x3db0d7a9	0.08634884
14	0x3d8fda79	0.07024092
15	0x3db0e0a8	0.086366
16	0x3e5e1fa5	0.21691759
17	0x3d3a0756	0.045417152
18	0x3dbe6e42	0.09298374
19	0x3dd21c20	0.10259271
20	0x3d2cc3aa	0.042178787
21	0x3e34406f	0.17602704
22	0x3e1b5182	0.15167812
23	0x3d62071b	0.055182558
24	0x3d6e8cc7	0.058239724
25	0x3ded3147	0.115816645
26	0x3e23d5a4	0.15999466
27	0xbad2654f	-0.0016051921
28	0x3e38a358	0.1803106
29	0x3d71b102	0.0590067
30	0x3d958673	0.07301035
31	0x3e16343a	0.1466836
32	0x3e34e4cd	0.17665406
33	0x3db3b77a	0.0877523
34	0x3e344b4e	0.17606851
35	0x3cb8e105	0.022568235
36	0x3e1cedd0	0.15325093
37	0x3d881dbb	0.06646296
38	0x3d8cbcf8	0.068719804
39	0x3dbd32f4	0.09238234
40	0x3dc50a9e	0.09621166
41	0x3d94a8a8	0.07258731
42	0x3d9624a0	0.073312044
43	0x3d6d3f92	0.057921953
44	0x3e144d5f	0.1448264
45	0x3dedc3f1	0.116096385
46	0x3e6970de	0.22796962
47	0x3cf1e68e	0.029528882
48	0x3c8eccdc	0.017431669
49	0xbbec213d	-0.0072061107
50	0x3e41d1da	0.18927708
51	0x3d29dd55	0.041470844
52	0x3dd43a7f	0.1036272
53	0x3d607ac9	0.054804597
54	0x3dd368cf	0.10322725
55	0x3de52be8	0.11190015
56	0x3deaf8d3	0.11473241
57	0x3e5fdad5	0.21860822
58	0x3de52a53	0.11189713
59	0x3dc1d5ec	0.094646305
60	0x3d94f116	0.07272546
61	0x3dc87698	0.09788245
62	0x3d2f26ef	0.04276174
63	0x3d988936	0.07448046

running_mean f4 [64]
0	0xbeb3d1dc	-0.35121047
1	0x3ea98d44	0.3311559
2	0xbca54a37	-0.02017699
3	0x3ec7e4db	0.3904179
4	0x3e857a3e	0.26069826
5	0x3f06f7bc	0.5272176
6	0x3eb2214d	0.3479103
7	0x3f08e69e	0.53476894
8	0xbe908c06	-0.2823183
9	0x3e004860	0.12527609
10	0xbd896d06	-0.06710248
11	0xbab16e9c	-0.0013536992
12	0xbd5b1f29	-0.053496514
13	0xbe6e6ab1	-0.23282887
14	0xbe9892c2	-0.29799467
15	0x3cc441b9	0.02395712
16	0x3dd69b86	0.104788825
17	0xbe9c7670	-0.3055911
18	0xbd052883	-0.032509338
19	0xbe8c7752	-0.27434784
20	0x3dabdb3a	0.083914235
21	0x3e31d165	0.17365034
22	0xbed8247b	-0.42215332
23	0xbe54c5db	-0.20778601
24	0x3e38654d	0.18007393
25	0xbecf3144	-0.40467274
26	0xbdfcf9de	-0.12352346
27	0xbe89ddfc	-0.26927173
28	0xbec640f1	-0.3872142
29	0x3edcc1be	0.43116564
30	0xbe0a2e52	-0.13494232
31	0x3dc8deee	0.098081455
32	0xbeaa5921	-0.33271125
33	0xbde539cd	-0.11192665
34	0xbd238394	-0.039920405
35	0xbeeb7b06	-0.45992297
36	0x3ed0f0cf	0.40808722
37	0xbeeb81a0	-0.45997334
38	0x3c28fae1	0.01031372
39	0x3e75c61e	0.24001357
40	0x3d4d260b	0.05008511
41	0xbeda20e6	-0.42603225
42	0x3e378217	0.17920719
43	0xbe9b205e	-0.30298132
44	0xbef568f3	-0.47931632
45	0xbf2469d2	-0.6422397
46	0xbdcae3c1	-0.09906722
47	0xbda62e46	-0.08114295
48	0xbebfc51e	-0.37455076
49	0xbed56ea4	-0.41685975
50	0x3dbb9ecf	0.0916115
51	0xbe039a8b	-0.12851922
52	0xbd94ec0b	-0.07271584
53	0x3eaca604	0.3372041
54	0x3e8395a6	0.2570011
55	0x3f0aed29	0.5426813
56	0xbe7d1526	-0.24715099
57	0xbeaeb865	-0.34125057
58	0x3e9cf304	0.30654156
59	0x3e6c09f7	0.23050676
60	0xbed9a4e7	-0.42508623
61	0xbf024ee4	-0.5090163
62	0x3e5f7a45	0.21823986
63	0x3e152659	0.1456541

running_var f4 [64]
0	0x3d98c426	0.07459287
1	0x3da4b860	0.08042979
2	0x3cd64251	0.026154669
3	0x3d335d39	0.043790076
4	0x3d091e6b	0.033476274
5	0x3da36e53	0.07980027
6	0x3d2e0211	0.04248244
7	0x3d89ed52	0.067347184
8	0x3d57292a	0.05252949
9	0x3d9f0684	0.07764915
10	0x3d9ee286	0.0775805
11	0x3c8a361a	0.0168715
12	0x3ddf7242	0.10910465
13	0x3d385486	0.045002483
14	0x3d26dfb9	0.040740702
15	0x3cb65637	0.022257907
16	0x3da88c15	0.082298435
17	0x3d84426b	0.06457981
18	0x3ca38683	0.019961601
19	0x3d80855e	0.06275438
20	0x3dbc19f2	0.09184636
21	0x3db99c9e	0.090630755
22	0x3d707495	0.05870493
23	0x3c73a143	0.014869991
24	0x3e7b28eb	0.24527328
25	0x3dd7aa42	0.10530521
26	0x3d5f4f52	0.054519005
27	0x3c206e6f	0.009791954
28	0x3ddd8b17	0.10817545
29	0x3d713150	0.05888492
30	0x3ca3f5e7	0.020014716
31	0x3d789c45	0.060695905
32	0x3d76820a	0.06018261
33	0x3d0b98ca	0.034081258
34	0x3d607e1f	0.05480778
35	0x3d9be291	0.076115735
36	0x3d7a59b3	0.0611207
37	0x3d863e4c	0.06554851
38	0x3d6c004e	0.057617478
39	0x3e025e96	0.12731394
40	0x3cae9a20	0.021313727
41	0x3d98a258	0.074528396
42	0x3d4446e0	0.047919154
43	0x3d2be47f	0.041965958
44	0x3d339c38	0.043850154
45	0x3e1181c3	0.14209656
46	0x3d37c57a	0.044866063
47	0x3d1133e4	0.035449877
48	0x3db0d38f	0.086341016
49	0x3e03dddf	0.12877606
50	0x3c6f490d	0.014604819
51	0x3d2b7c83	0.04186679
52	0x3cf67dcf	0.030089287
53	0x3e171c1d	0.14756818
54	0x3ddb63df	0.10712408
55	0x3d7f8340	0.06238103
56	0x3dacdb08	0.084402144
57	0x3db71c04	0.089408904
58	0x3cb1fa9e	0.021725949
59	0x3da80cb2	0.082055464
60	0x3d48a697	0.048986997
61	0x3d3c87ff	0.046028133
62	0x3d485d6d	0.048917223
63	0x3d9196a9	0.07108814

weight f4 [5, 64]
0	0xbebe1c9f	-0.3713121
1	0x3e22a81f	0.15884446
2	0xbe1945cf	-0.14968036
3	0xbecb3452	-0.39688355
4	0x3e7c4e8a	0.24639335
5	0x3df03fa6	0.1173089
6	0x3e2be5ff	0.16786955
7	0xbe99cd7f	-0.30039594
8	0xbef29f50	-0.4738717
9	0xbc937606	-0.018000614
10	0x3e4d5fed	0.20056124
11	0xbe819791	-0.25310948
12	0xbd1cd1f6	-0.03828617
13	0xbc884be8	-0.016637757
14	0xbe85f3ed	-0.26162663
15	0xbecf67a5	-0.40508762
16	0x3db6c12c	0.08923563
17	0xbd58ed20	-0.052960515
18	0xbeb92d99	-0.361676
19	0xbe64ede0	-0.22356367
20	0xbd2c6a2d	-0.042093445
21	0x3e4d42f1	0.20045067
22	0xbe8eaa81	-0.2786446
23	0xbd93d5eb	-0.07218536
24	0xbd9c60a3	-0.076356195
25	0xbd3a7f96	-0.04553183
26	0x3d94a035	0.072571196
27	0xbd06bed9	-0.03289685
28	0xbe8faf07	-0.28063223
29	0xbe555c80	-0.20836067
30	0x3e160f10	0.14654183
31	0x3e4f8a6d	0.20267649
32	0xbdd566d5	-0.10420004
33	0x3d4b7159	0.049668644
34	0xbe7dba4e	-0.24778101
35	0xbe973860	-0.29535198
36	0x3e5c70e1	0.21527435
37	0xbe8c6e34	-0.27427828
38	0x3bb4627e	0.0055049052
39	0x3e005ac0	0.12534618
40	0x3e2e3fa5	0.17016466
41	0xbe0378d2	-0.12839058
42	0xbe427876	-0.18991265
43	0xbe3b25b8	-0.18276107
44	0xbde24807	-0.110488944
45	0xbe9dbf74	-0.3081013
46	0xbeb73e30	-0.35789633
47	0xbe1ebc86	-0.15501603
48	0xbe8f54e4	-0.27994454
49	0x3bba138f	0.005678601
50	0x3c500860	0.012697309
51	0xbe9c7952	-0.3056131
52	0x3deb276a	0.11482127
53	0x3cdf324f	0.027245669
54	0xbe89b111	-0.26892903
55	0x3e098ebe	0.13433358
56	0xbe8fa3e8	-0.28054738
57	0x3dd7a28d	0.10529051
58	0x3ea5d5e2	0.32389742
59	0xbe987ed8	-0.29784274
60	0xbe10468c	-0.14089411
61	0xbdfd5864	-0.12370375
62	0x3d8731f9	0.066013284
63	0xbddbdac0	-0.107350826
64	0x3cea341f	0.028589306
65	0xbe838046	-0.25683802
66	0x3cc4dffc	0.024032585
67	0x3db0eda5	0.08639077
68	0xbed53426	-0.4164135
69	0xbd93f95a	-0.072252944
70	0xbe0fff02	-0.14062122
71	0xbefe79f4	-0.49702418
72	0xbdc024e3	-0.093820356
73	0xbeb9420d	-0.36183205
74	0x3dd76a8e	0.105183706
75	0x3e2b5919	0.16733207
76	0x3ddf38b3	0.108994864
77	0x3e36a3d7	0.17835937
78	0xbc81d7af	-0.015849916
79	0x3e09255d	0.13393159
80	0xbe8b7096	-0.27234334
81	0x3e434ac5	0.19071491
82	0xbe8bb1ac	-0.2728399
83	0xbec72da1	-0.38902
84	0x3d0ffb82	0.035151966
85	0xbc81f5a1	-0.015864195
86	0xbe80135b	-0.25014767
87	0x3e26aabe	0.1627607
88	0xbdce5f5e	-0.100767836
89	0xbe12d1da	-0.14337865
90	0xbe665286	-0.22492418
91	0x3e16f4a0	0.14741755
92	0xbef0decb	-0.47044978
93	0xbe065382	-0.13117793
94	0x3d017da1	0.03161395
95	0xbdd34fbf	-0.10317945
96	0x3dbe82d8	0.093023
97	0xbdd05388	-0.10172182
98	0xbe0b8ee0	-0.13628721
99	0x3dd143ac	0.102179855
100	0xbec59cce	-0.38596195
101	0xbe4db2d2	-0.20087746
102	0x3e7bffa0	0.24609232
103	0xbdc8adcd	-0.09798775
104	0x3d01a7a5	0.03165402
105	0x3da094e7	0.07840901
106	0xbe527310	-0.20551705
107	0xbe1065e1	-0.14101364
108	0xbe2bce39	-0.16777886
109	0x3daa1665	0.08305053
110	0xbed41018	-0.4141853
111	0xbee679cf	-0.45014808
112	0xbefd866d	-0.4951662
113	0xbd91fc64	-0.07128218
114	0xbedffccb	-0.43747553
115	0x3e93ee60	0.28892803
116	0x3dcd4744	0.100233585
117	0xbeb39023	-0.35070905
118	0xbdae7eaf	-0.08520257
119	0xbe39bbc4	-0.18138033
120	0xbe80b794	-0.2514006
121	0x3df9df33	0.12200775
122	0xbe0aa473	-0.13539295
123	0xbe93651a	-0.28788072
124	0x3e463fa8	0.1936022
125	0x3e3d74e6	0.18501624
126	0xbec35907	-0.3815386
127	0x3b4b4b04	0.0031020055
128	0xbf4bb905	-0.7957919
129	0xbf0a38aa	-0.5399271
130	0xbf27808a	-0.6543051
131	0xbf1c36da	-0.61021197
132	0xbf2ccf90	-0.67504215
133	0xbf10c887	-0.5655598
134	0xbf318a91	-0.6935206
135	0xbf406e3b	-0.751682
136	0xbf127f35	-0.5722535
137	0xbf0e03a6	-0.5547432
138	0xbf355bc2	-0.70843136
139	0xbf405b05	-0.75138885
140	0xbee5877a	-0.44829923
141	0xbf17e58b	-0.5933463
142	0xbf3e1819	-0.7425552
143	0xbf283496	-0.6570524
144	0xbf2990db	-0.66236657
145	0xbf104f86	-0.56371343
146	0xbf213db0	-0.6298475
147	0xbf12b0f3	-0.57301253
148	0xbf444d9a	-0.7668091
149	0xbf2d823a	-0.67776835
150	0xbf3324b1	-0.6997786
151	0xbf13cfeb	-0.5773913
152	0xbedae5b3	-0.42753372
153	0xbf2e972e	-0.6819943
154	0xbf2a0fa5	-0.6643012
155	0xbf024cff	-0.50898737
156	0xbf20853f	-0.6270332
157	0xbedf002e	-0.43554825
158	0xbf192849	-0.59827095
159	0xbf23daca	-0.6400572
160	0xbf24572b	-0.6419551
161	0xbef8b3d5	-0.485747
162	0xbf20a9e0	-0.6275921
163	0xbf394421	-0.7236958
164	0xbf23cd08	-0.6398473
165	0xbf0839e5	-0.5321334
166	0xbf17f37f	-0.5935592
167	0xbf42c93d	-0.76088315
168	0xbefd1c8a	-0.49435836
169	0xbf30d93a	-0.6908146
170	0xbf334760	-0.70030785
171	0xbf389eff	-0.7211761
172	0xbf10ef30	-0.5661497
173	0xbf1d5897	-0.614633
174	0xbf283d8d	-0.6571892
175	0xbf3874af	-0.72053045
176	0xbf11890b	-0.56849736
177	0xbf20a678	-0.6275401
178	0xbf1ab43d	-0.6043127
179	0xbf29aaf4	-0.6627648
180	0xbf24abb1	-0.6432448
181	0xbf067941	-0.5252877
182	0xbf2e9a5c	-0.68204284
183	0xbf2cf4a9	-0.6756082
184	0xbf187df1	-0.5956717
185	0xbf119b0b	-0.568772
186	0xbf2bc998	-0.6710448
187	0xbf244d0c	-0.64180064
188	0xbf1da680	-0.61582184
189	0xbf28b160	-0.6589565
190	0xbf358cf6	-0.70918214
191	0xbedcf0bf	-0.43152425
192	0x3d6c2449	0.05765179
193	0xbef3fb3e	-0.4765262
194	0xbe8174f8	-0.25284553
195	0x3ce2cf4b	0.027686736
196	0xbd069937	-0.03286096
197	0xbe43f983	-0.1913815
198	0xbdfca7fb	-0.12336727
199	0x3d3499ff	0.044092175
200	0x3deb438a	0.114874914
201	0x3d261af0	0.040553033
202	0xbea17fff	-0.31542966
203	0x3e140032	0.144532
204	0xbf087975	-0.5331033
205	0xbe5f78b2	-0.21823385
206	0xbe88b861	-0.2670317
207	0xbe64c5aa	-0.22341028
208	0xbf6feb54	-0.9371846
209	0xbe1c7397	-0.15278469
210	0x3e4ef14a	0.20209232
211	0x3d392a57	0.045206394
212	0xbdc7888f	-0.09742843
213	0xbefb07ea	-0.49029475
214	0x3db48018	0.088134944
215	0xbe188293	-0.1489356
216	0xbf09c9e5	-0.5382369
217	0xbee9ed9a	-0.45689088
218	0xbecb2f6d	-0.3968462
219	0x3d776c8f	0.060406264
220	0x3dd4fcf4	0.103998095
221	0x3d23e09d	0.04000913
222	0x3dcf35a7	0.10117655
223	0xbed8ded1	-0.42357495
224	0xbf4375ab	-0.7635142
225	0xbebd9ae7	-0.37032244
226	0xbd546573	-0.051854562
227	0xbcdef930	-0.027218431
228	0xbe8b2c61	-0.27182296
229	0xbd0baaf9	-0.0340986
230	0xbe02ffef	-0.12792943
231	0xbe37638b	-0.17909066
232	0xbe77e8c2	-0.24209884
233	0xbea18693	-0.31547984
234	0x3db76698	0.08955115
235	0xbd272ae4	-0.040812388
236	0xbeeb8418	-0.45999217
237	0x3a4126f5	0.0007368171
238	0x3d6e1bf8	0.05813214
239	0x3ded3a78	0.11583418
240	0xbbaa954e	-0.005205787
241	0xbd37006d	-0.04467814
242	0xbebd3f7f	-0.36962506
243	0x3ced8641	0.028994681
244	0xbe085d4e	-0.13316843
245	0x3dedf447	0.11618858
246	0x3d44e3f2	0.048068948
247	0xbe12675b	-0.1429724
248	0xbd48f7ac	-0.049064323
249	0xbfb14e5a	-1.3852036
250	0x3c3c3cef	0.011489137
251	0xbe684175	-0.2268122
252	0xbe3602dd	-0.1777453
253	0xbd318e2b	-0.043348473
254	0x3e298d81	0.16557886
255	0xbe9b7017	-0.30358955

bias f4 [5]
0	0xbc6c2271	-0.014412508
1	0x3ccb8baf	0.02484688
2	0xbf6adab1	-0.91739947
3	0xbd026582	-0.031835087
4	0xbd953071	-0.0728463
